model/0.pth (torch, 333527 bytes, 29 tensors)

allnns.0.0.weight f4 [12, 100]
00000000: ba59 c03c 5e15 acae 4854 8db9 84da 053d
00000010: 75d6 49bb e633 403d 205c b2b9 aabf 493d
00000020: ede0 64b8 84ac 7fb8 8a50 f43c 5856 8c3c
00000030: baea 623c 1411 04aa 116b 42b1 3cfa edb8
00000040: 3167 233d eb74 0a97 9d1e c23d 2c8d 913c
00000050: c166 fba7 e312 5cb6 d674 683c 3cca e9ad
00000060: a711 929f 2836 26b9 6c63 153d 67f8 413d
00000070: df12 8abb fa2d 2a3d 5196 13b9 662c 893d
00000080: 19e0 993d deed 15bb 3cd2 5bbb efd4 5eb1
00000090: 18e2 ba3d 3b1c 593c 631b 2f3d 18a7 4ab0
000000a0: 3a57 c83d 93a6 35ad cce6 ad3d 262c fbb5
000000b0: e913 9ab3 61a3 1a3d b208 c4b3 9fab 4b3d
000000c0: e100 a397 6a9b 03b9 f837 71bb c341 0eb1
000000d0: 321a 803d 06ff 373b bcbd c93d dd34 803d
000000e0: 9b7f 053d 5ed0 f3b7 1943 613c b887 903b
000000f0: b2a7 7eb7 c0bb 683d 3715 0e3d 6a9e 6d3d
00000100: 2fdf f9b4 c7ff 97b9 2f9c 1b3c 019e e83b
00000110: bbc4 87b9 9a04 bbb8 a829 1b3d 75d8 ffb9
00000120: bc75 0b3d f767 2f3b dcb1 553d 2162 403d
00000130: 2d0d d73c bfcf 6f3d c865 2ebb 64ed 1a3d
00000140: 8987 9fb8 a71d 79b9 f13e 723b 4a96 e9b9
00000150: fbbc 8c3d 9b39 98b5 53d5 ebba ef85 ae3d
00000160: 2add 2fb9 bf14 513d f84c 053d 2722 63b9
00000170: cd0b bf3c 8791 5f3c 6683 01b8 f5f0 eab0
00000180: 6a66 663d e6d5 c73c f51c 6dad 8a08 889b
00000190: 4aad ec3d b5e3 d1b9 4859 a73d 2edd 213d
000001a0: e08d 7eb7 e93b 93ba c72c 7c3d 76ed 09b7
000001b0: 0cc5 9c3d 2235 483d 1b69 f33c dcaf 843d
000001c0: 70e8 8c3d 683a d9b7 7803 f63b d1c1 783d
000001d0: 1e0e aa3d e063 ff3c 93f5 01b9 ad59 efb8
000001e0: 0951 63b6 291a 223d ea60 a13d 8a18 1bb7
000001f0: 9a10 9d3d 95c1 adb4 e58f 47bb becc 00ba
00000200: c196 863d b7e2 de3d 8ef4 d3b6 f2a6 d63b
00000210: 5845 a33d 0a3e a53d 5fe8 b03d 7b22 5a3d
00000220: 405d 263d cab1 a3b8 6148 41b8 fc07 7fba
00000230: bbcb e0af 6f87 84b9 347e 9cb6 3629 96b8
00000240: 0460 d63c c05d 30ba 9cf0 5a3d eff9 923d
00000250: 03e7 d63d 3db4 aa3d ac78 03a3 c454 f33d
00000260: 7691 cb3b 40d5 4ca0 0270 4ebb ab5f 68b7
00000270: 3338 bfb5 2a6f 9bad 3697 ef3d 11b9 d2a0
00000280: 5d83 57b9 c999 fc3c 41b4 ac3a 6682 a93d
00000290: 87c7 2bb3 02c7 a23c 21af dca6 870a 09ba
000002a0: 5ac8 05ba a69b b2af 487f 659c 76c7 353d
000002b0: fb80 083d d47f ab3b dcce e83d 7386 593d
000002c0: 9e9f 7e3d d4a3 6ab8 7606 6fb8 72f5 6d3d
000002d0: 2e12 a0b9 22df 5d3c 2bd3 a9ba 0e0a f6b9
000002e0: 540f 73b7 cc2f f53d ec61 b0ba acb0 c6b9
000002f0: 4cde 01b9 daba 2db4 5cf8 043d b012 7ca9
00000300: 6a99 9cb0 3f33 2e3c eb3d d63d 8bb9 a0b8
00000310: 8586 583c 6e25 803d 6bdd a43d c748 93b8
00000320: 961c 223d 5624 37b9 e0db b83d b1ac c8a9
00000330: 61ce 043d cbf1 d13c 6693 0bb8 234e e9b9
00000340: 05ba a0b8 a2fa a93d 2044 94b8 5f8d c63c
00000350: a988 04bb 4d51 473d ce40 8f3d 8c65 9a3d
00000360: 9505 e23d acdf f7b8 b50f baa7 1d86 493d
00000370: 161e 8fb9 cb2c b23d c28e e0b9 a1af a4b8
00000380: 7163 6e3d c199 e6b8 9b8d 0cba c238 513d
00000390: 69e6 be3d eac9 d63d 2ec6 4a3a b4fd beb9
000003a0: e1c6 d03d 5294 25ba 228c 2cac 4330 1ab9
000003b0: 620c 91b8 e4b1 a53d b741 6d3d e6c2 fcb9
000003c0: 8f11 44ba 9685 ceb8 9a7f 5a3d 15e7 ada4
000003d0: 628c acb2 4bf5 34b6 8809 47bb ea79 aeb8
000003e0: 2845 e7b7 1074 e93d e359 863d 8b16 27a3
000003f0: 4b3d 3b3d f198 e23c 46ac 09b8 2a2c 5eb2
0.023480285 -7.82545e-11 -0.0002695641 0.032679096 -0.0030797992 0.046924494 -0.00034019444 0.04925505
-5.4568914e-05 -6.0957405e-05 0.02982356 0.017131016 0.0138499085 -1.172988e-13 -2.8291576e-09 -0.000113476504
0.039893333 -4.4737776e-25 0.09478495 0.017767511 -6.97779e-15 -3.2793548e-06 0.014188012 -2.6578843e-11
-6.186261e-20 -0.00015851168 0.03647177 0.047356036 -0.0042136754 0.041547753 -0.0001407501 0.066979215
0.07513446 -0.0022877376 -0.0033542057 -3.242629e-09 0.09125155 0.01325136 0.042750727 -7.3724626e-10
0.09782262 -1.0325646e-11 0.08491287 -1.8713806e-06 -7.1748055e-08 0.037753467 -9.128543e-08 0.049724218
-1.053385e-24 -0.0001255103 -0.0036807042 -2.07011e-09 0.06254996 0.002807559 0.09850642 0.06260083
0.032592397 -2.9064886e-05 0.0137489075 0.00441071 -1.5178624e-05 0.056819677 0.0346882 0.058012404
-4.6542252e-07 -0.00028991533 0.009497686 0.0070989137 -0.00025895782 -8.917712e-05 0.037881523 -0.00048798663
0.034047827 0.0026764849 0.052171573 0.046968583 0.0262514 0.05854773 -0.002661096 0.03782405
-7.606956e-05 -0.00023757537 0.0036963786 -0.00044553197 0.06871983 -1.1341648e-06 -0.0017992653 0.085216396
-0.0001677169 0.051045176 0.032544106 -0.0002166113 0.023321057 0.013645536 -3.087837e-05 -1.7094225e-09
0.056250013 0.024393987 -1.347832e-11 -2.250483e-22 0.1155649 -0.0004003324 0.08171326 0.039517574
-1.5172613e-05 -0.0011233065 0.06156614 -8.2211245e-06 0.07654771 0.048878796 0.029713204 0.06478855
0.068802714 -2.5895613e-05 0.0075077377 0.060731713 0.08303474 0.031175554 -0.00012393882 -0.000114131115
-3.3872805e-06 0.03957573 0.07879813 -9.244433e-06 0.07669182 -3.236461e-07 -0.0030450758 -0.00049133215
0.06571723 0.10883086 -6.31676e-06 0.006550663 0.07972211 0.08068474 0.08638071 0.05325554
0.040616274 -7.8055615e-05 -4.6082194e-05 -0.0009728668 -4.0890122e-10 -0.00025277908 -4.6638543e-06 -7.1602335e-05
0.02616883 -0.0006727837 0.05345212 0.07176577 0.10493281 0.08335159 -7.1270775e-18 0.11881402
0.0062124087 -1.735003e-19 -0.0031499867 -1.3850552e-05 -1.4246965e-06 -1.7670827e-11 0.11698763 -3.569785e-19
-0.00020552934 0.03083505 0.0013176278 0.08276825 -3.999551e-08 0.019870285 -1.5313035e-15 -0.0005227704
-0.0005103402 -3.2488606e-10 -7.593425e-22 0.044379674 0.03332613 0.005233744 0.1136758 0.053106736
0.06216394 -5.5942524e-05 -5.6988058e-05 0.058095403 -0.00030531123 0.013541969 -0.001295661 -0.00046928268
-1.44874975e-05 0.11972007 -0.0013456917 -0.00037897134 -0.0001238521 -1.6179857e-07 0.032463416 -5.597145e-14
-1.1394097e-09 0.010632335 0.10461029 -7.6639546e-05 0.013215666 0.06257139 0.080500446 -7.023062e-05
0.039578043 -0.00017465776 0.09026313 -8.9117414e-14 0.03242338 0.025627991 -3.3277458e-05 -0.0004449944
-7.6640434e-05 0.082997575 -7.069879e-05 0.024237333 -0.0020223057 0.04866152 0.069947824 0.075389
0.11036221 -0.0001181954 -5.16424e-15 0.049200166 -0.000272975 0.0869995 -0.00042830972 -7.852843e-05
0.058200303 -0.000109958935 -0.0005361677 0.05107952 0.09321291 0.10487731 0.00077352196 -0.00036428648
0.10194183 -0.0006316352 -2.452046e-12 -0.00014704563 -6.916445e-05 0.080905706 0.057924 -0.00048210396
-0.0007479423 -9.847728e-05 0.053344347 -7.541826e-17 -2.0087274e-08 -2.696487e-06 -0.0030370671 -8.319675e-05
-2.756955e-05 0.1139909 0.06560113 -9.057862e-18 0.04571275 0.027660819 -3.2823787e-05 -1.29321425e-08

allnns.0.2.weight f4 [3200, 12]
00000000: eeba b33c f5c1 2e3e d843 5c3d e07b f83c
00000010: 02fb 603c b4bb 1bbe d404 eebc 7a4c e93b
00000020: 11df b1bd 625e 0ebe 7c98 b63d 1e36 e43c
00000030: cadf 05be 0a83 32bc 395c 693d ee5f 633d
00000040: 4255 133e 351c 3dbd 4017 e13c a379 ffbd
00000050: 2f80 5ebc 5bf7 ccbd c852 5ebc 9625 6f3d
00000060: d121 1a3d 3ed5 cbbd 54af 71bd c7c3 53bd
00000070: 6194 8cbd 18b6 a6bd 4c91 d03d 854c c43d
00000080: 9774 fb3d 4f29 c8bd 8936 d43d da5f 4fbd
00000090: 8b6b 8eba 611c fe3b acc9 e93c 5147 e4bc
000000a0: e4ce 0a3d 99c0 99bd f169 053d 0508 f9bd
000000b0: 529b edbb b467 b4bd f964 c43d 3bf3 d13d
000000c0: e916 e8bd 5d46 9dbd 80f5 0c3e dc08 e43b
000000d0: e70d ae3d 5513 d8bd 0daf 0c3d c1ce 923d
000000e0: 2908 0bbc 79cc 4dbc 12da c03d 0167 163b
000000f0: 1a8a 563c b997 543c 52a6 25bd 965c a9bd
00000100: 97b7 373e 4622 3dbc 15d3 123e bfb6 0b3e
00000110: a26b 49bd 63d0 5a3b 79d2 f5bb fb16 1c3c
00000120: 1333 b13d b74b 963d 3837 80bd 70a3 3bbd
00000130: e7a2 cebd fc8a 00be bab2 a43d daf2 adbd
00000140: 09c1 3dbb 1953 083b 05a9 f43a b409 ddbb
00000150: bc64 8f3d 6337 683c 1227 f43d 16bd d83c
00000160: 44d6 c23b bcdc 823c cf37 cd3d d6be fe3b
00000170: 61f9 c93d 11da a0ba df7c e33b dcb5 113e
00000180: 81d5 1dbe fbaf 0f3b 24f8 213e e0b2 7bbd
00000190: 3e57 55bc d817 7a3c 4141 0a3d c9f0 e53c
000001a0: d8c7 213c 3ffa 3d3d d8e8 55bd 170f 2e3d
000001b0: 7471 fcbb fa17 b63d b571 23bc ad47 07be
000001c0: f852 7f3c c677 5e3d 1ccb 073c dbb9 543b
000001d0: 6960 d53b 591e 863d 6e72 2f3c 8c8e 11be
000001e0: 2100 bfbd c5b8 cd3c 110d ba3c c5e7 413e
000001f0: 9fb9 f8ba 997f 013e 6d68 06be a6b4 2cbe
00000200: 281b 353c e98c a9bd a3f5 90bc f279 de3c
00000210: b1c9 14be 5545 df3d 7c3c bebd 84d4 f03d
00000220: 017e b13c bd7a 92bc 3698 14be 4c43 fb3b
00000230: baee 88bd 72a9 0e3e cd3c 0cbe a72a dabc
00000240: 1da6 c2bd 78e3 f5bd edb5 c5bd 05c0 f0bc
00000250: d40d 88bc 189f cebb 3a78 763d d384 60bd
00000260: 9ba8 babd 3aa2 38bd 62f7 2d3e a8bf e6bc
00000270: 223c f9bd 8676 073e b7a9 f83c 7df7 c43c
00000280: bc2a bd3c f130 b93d c369 02bd 082e dd3d
00000290: 08f4 233e 4347 c03a 913d ac3d 22ae 933d
000002a0: 10f1 173e 6174 6dbd d01b dfbd 4411 94bd
000002b0: f3d4 fcbd cba7 92bc 9ef7 233e 3744 283e
000002c0: b6b8 cd3d eb14 bcbc 4f29 cfbc 2100 b03d
000002d0: 4473 803d a10f fcbc 7e66 4fbd f513 d63c
000002e0: 3783 d4bc 1fdf e8bd ca71 8cbd 9684 073e
000002f0: 9ed3 013e 7e05 85bd 2966 bfbc f95e 96bd
00000300: d521 82bc d10a 493e 7337 1abe 5c2b d23d
00000310: 32d3 23be 5a3e 42bd 4ae8 dbbb 82d8 bf3c
00000320: b4ad 91ba fd5f 4bbd 2d07 69bd 3b28 b9bd
00000330: b2bd a7bd 7a04 7cbd df20 2e3e f1a3 c3bc
00000340: 9b52 eabd 7ffb b13d d31b 0e3d e6ff d43d
00000350: bea4 25be df1f 19be 9e91 acbd 3862 1abd
00000360: cc1c f53c a153 b33d b9ba f33d ac8e 1abe
00000370: 372d 9e3d 006b 94bd 3670 173d d2f6 473d
00000380: 4fb2 c53c 4acc 933d 3049 623c 2644 fc3d
00000390: f357 e73c deab 2b3e cb21 203d d5f5 4fbd
000003a0: 0722 d83d 5d78 653c 28c6 2a3e 447f 563c
000003b0: 3045 313e fb7c 82bd e3de 893d ec0f ddbd
000003c0: bec2 c73d c646 6b3c 39b5 a43d 6e4c 25be
000003d0: 97f9 42be 9b24 5b3d 1641 62bd 94c1 573d
000003e0: 2a13 a6bd 0b77 46bd fc45 67bc b493 bd3d
000003f0: b0fc a33d d2c8 5cbc 8bc5 d0bc 6df5 033c
0.021939721 0.17066176 0.05377564 0.030332506 0.01373172 -0.15208322 -0.029055037 0.0071197124
-0.08685125 -0.13903192 0.08915803 0.027857836 -0.1307365 -0.0108955 0.056972716 0.055511408
0.14387992 -0.04616948 0.027476907 -0.12474372 -0.013580366 -0.10008117 -0.013569541 0.058385454
0.037629906 -0.09952782 -0.059005097 -0.05170038 -0.068642385 -0.081402004 0.10183963 0.095849074
0.12278097 -0.09773504 0.10361964 -0.05062852 -0.001086579 0.007754848 0.028538547 -0.027866038
0.033888713 -0.07507438 0.032571737 -0.12159733 -0.0072511816 -0.08808842 0.095895715 0.10251471
-0.11332495 -0.07679436 0.13765526 0.006959064 0.084987454 -0.10550562 0.03434663 0.071683414
-0.008485832 -0.012560957 0.094165936 0.0022949579 0.013094449 0.012975627 -0.04044182 -0.082696125
0.17941128 -0.011543816 0.14338334 0.13643931 -0.049174912 0.0033388368 -0.007501897 0.009526963
0.0865232 0.0733866 -0.06260532 -0.045810163 -0.10089665 -0.12553018 0.08041902 -0.08493586
-0.002895417 0.0020801483 0.0018666094 -0.0067455415 0.070016354 0.0141733615 0.119215146 0.02645735
0.0059459526 0.015974395 0.1002041 0.0077742143 0.098620184 -0.001227202 0.006942376 0.1422953
-0.15413477 0.002192496 0.15817314 -0.061449885 -0.013021288 0.015264474 0.033753637 0.028068917
0.009874307 0.04638123 -0.05222401 0.04249486 -0.0077039544 0.08891292 -0.00997584 -0.13210936
0.015583746 0.054313444 0.008288171 0.0032459411 0.006511737 0.06548757 0.0107084345 -0.14214534
-0.093261965 0.025112519 0.022711309 0.1893607 -0.0018976218 0.12646331 -0.13125773 -0.16865787
0.011053838 -0.082788296 -0.017695254 0.027157757 -0.14530064 0.10901896 -0.0928888 0.11759284
0.021666529 -0.017880792 -0.14511189 0.0076679345 -0.066861585 0.13931826 -0.13695069 -0.026631666
-0.0950434 -0.12006277 -0.0965384 -0.029388437 -0.016608156 -0.0063055865 0.06017325 -0.05481417
-0.0911419 -0.045076586 0.169889 -0.02816756 -0.121696725 0.13228807 0.030354364 0.024043793
0.023091666 0.09042538 -0.031839143 0.107997954 0.1601106 0.0014669675 0.0841018 0.072109476
0.14838052 -0.057972316 -0.10893977 -0.07229856 -0.12345304 -0.017902276 0.16012427 0.16432272
0.100449964 -0.022959193 -0.025288252 0.085937746 0.06271985 -0.030769171 -0.050634854 0.026132563
-0.025941474 -0.11370682 -0.06857641 0.13234171 0.12678382 -0.06495188 -0.023364143 -0.07342333
-0.015885273 0.19633032 -0.15060215 0.102621764 -0.15998533 -0.047422744 -0.0067110406 0.023418669
-0.001111439 -0.04965209 -0.05689161 -0.090408765 -0.081904784 -0.061527707 0.17004727 -0.023881884
-0.11441537 0.08690547 0.034694504 0.10400371 -0.16176125 -0.14953564 -0.08426212 -0.037691325
0.029920958 0.08756185 0.11900849 -0.15093488 0.07723468 -0.07246971 0.036972247 0.04881937
0.024132876 0.072166994 0.013811395 0.12317686 0.02824018 0.16764781 0.039094727 -0.050771553
0.10553365 0.014005748 0.16677153 0.013091866 0.17311549 -0.063714944 0.067319654 -0.107940525
0.09753941 0.014360135 0.08042378 -0.16142437 -0.19040523 0.053501707 -0.055237852 0.052674845
-0.08109124 -0.048453372 -0.014115807 0.09256688 0.08007181 -0.013475614 -0.02548482 0.00805412

allnns.0.2.bias f4 [3200]
00000000: 54e1 be3d dd80 59be 3ea9 78bd fbf9 3c3d
00000010: 564a 0dbd a2d3 fdbd df8e 4f3c 4384 d7bd
00000020: 695a d73d df30 bfbc dca1 553e a7a1 0fbe
00000030: bb5d 373e 584c 643e 9bbb 8b3d 3ce8 0a3e
00000040: bc8c 003e df16 a4bd 7a33 1d3d 7b34 093e
00000050: f1e8 7cbe f0e6 e63d 8f0c 1dbb 5773 aeb5
00000060: f15f 0f3e 6336 723e 7ed9 fc3d bad3 2a3d
00000070: 9aac 373d 90cf 863e dc46 ddbc 1e34 7b3d
00000080: 9560 8bbe 32fa 823e 71ff 6639 ff9d 363e
00000090: 8e6f 1dbd 9d70 693e 5bbc 72be b234 25be
000000a0: 52a1 d53c 77a4 f5bc 6ef6 373e 0d53 dbbd
000000b0: cb2f c9bc 3152 a8bd 95e3 30be 730a 10bd
000000c0: 8bbb 6a3e a2a3 07bd fc80 e73c aaf8 033e
000000d0: 18aa 133a ef02 733e 1183 523e 1644 63be
000000e0: 004f 663e 8e2b 5f3e 5383 ee3d e046 1dbe
000000f0: caa9 3fbe b0c5 d33d 6a2a 03bd 44e2 79be
00000100: 614b 3fbd a8d2 9bbd 1509 42be 7f1d 9f3d
00000110: 6a01 3abe 0fd3 ecbd ea8b f13d 263b 323e
00000120: 27c4 6dbe f73e ea3d 79cc 5fbe d5b9 123e
00000130: d3ab ebbd c655 643e 96bd 81be 9853 2a3d
00000140: e40d 1a3e 7376 75bd 9af8 78be bd35 2f3e
00000150: 468c 913d 213a bc3d 4aeb 76be 304d c5bb
00000160: dd57 753e a450 42be f1d9 f53d a057 32bd
00000170: 77a3 ee3c 8b72 853e 02d4 15be c29a 48be
00000180: f7fb 4abe 71c3 2c3e 8b86 67be 9df6 acbd
00000190: 7abe 9ebc eace 1bbb 4edc 34bd 7100 c4bd
000001a0: c074 6d3e 3c55 153e 8f87 083d a652 42be
000001b0: d02b 313e ab95 073e fdc2 00be 4759 1abc
000001c0: fc9b 093e 0d7d b03c 3eb8 233e b6f6 42be
000001d0: 2f9e 27be daf1 863e 6ff9 3dbe 84a7 653e
000001e0: 3dd6 6fbe fbd4 b93d 161d 193c 6eeb 77bd
000001f0: 2cca 44be e5b2 443e 69bc 4fbe 2bef 04bd
00000200: b7d1 363e 3710 2abe 94eb 553e 1110 0abe
00000210: 57f7 613e 1ffb 193e 6514 283e a12e 153c
00000220: 54e0 813e 4439 b2bd 50f9 47be d589 8d3d
00000230: 60a6 353e 5dd5 2cbe 3326 563e 5150 413e
00000240: 578a 88be 846b 773e 5b7b 0cbe 94c7 1c3e
00000250: aa30 3c3e 2d05 28be 46bb 57be d579 48be
00000260: 9da5 b7bd 8648 203e a854 e2bd ff72 22be
00000270: 1b97 16bd bf0a dabc 3a41 193e eb51 1fbd
00000280: 51c6 833e f9b8 3c3e 6e49 35be 7e4f d43d
00000290: ec23 20be c0e3 cebd d468 633e cf0d af3c
000002a0: 6693 d73d c513 923d 072b 58bd dac6 e6bd
000002b0: 4b96 90bc 849c 5dbe ce6b 5cbe 05a9 773e
000002c0: ee51 063e 74ed 32be 177a 57bd 724f 27be
000002d0: 1c68 92be d04d 7d3e 7d8f 04be c4ca 4d3e
000002e0: c43d 733d b03d 46be b358 46be ae00 8f3d
000002f0: ff22 543e d135 bf3c 47a0 94ba c79c b7bd
00000300: cc3c 383e 6ab6 27be d990 4b3e 3ac7 e7bc
00000310: 9547 64be 2246 553d 8184 d93c 14b2 45be
00000320: 6699 4dbe d36d 2cbe 0b77 23be c961 b9bc
00000330: d31c 7ebe 2ba1 e23c 9691 483e fd33 443e
00000340: 8882 b2bd afb4 64be 5ed8 acbd 3b6b 293e
00000350: 4bb1 f43d 7428 8dbd ed2f 20be d1be 17bd
00000360: 7100 debd 26d3 833e 1fad 0cbe 34cc 4abd
00000370: d7d8 0e3d db8c 253e a952 4a3e 0656 753e
00000380: 6f6d 31be 72ad c63d acbd f03d 1b5d 6bbe
00000390: 2d73 e83d f1d7 44be 10d1 35be 3df1 2ebc
000003a0: 28ea 833d b423 52be 88d5 cebd 76af 88be
000003b0: 62d8 803e d9cf 793e 43ca 313e 0a68 41bd
000003c0: 2d78 3bbe a086 50bc ffdf 153e 81d8 393e
000003d0: 3d88 2a3e cde6 473e 08f4 00bd cf18 e83c
000003e0: d2b5 38bd 6d20 9f3d 7c68 cebc 0d63 38bd
000003f0: 110c 53be f0d9 e83c db7a 6c3b a719 41bc
0.09320322 -0.21240564 -0.060708277 0.046136837 -0.03449472 -0.123938814 0.0126683405 -0.10523274
0.10515291 -0.023338733 0.20862526 -0.14026509 0.17906849 0.22294748 0.06822892 0.13565153
0.12553686 -0.08012175 0.03837917 0.13398926 -0.24698235 0.112745166 -0.0023963784 -1.2997579e-06
0.14001442 0.2365356 0.12346171 0.041705824 0.04484234 0.26330233 -0.027011327 0.061329
-0.27222124 0.2558151 0.00022029669 0.17833708 -0.038436465 0.22796865 -0.23704664 -0.16133383
0.0260779 -0.02998565 0.17965099 -0.107092 -0.024558922 -0.08218802 -0.17274316 -0.035166215
0.22923104 -0.033115037 0.028259747 0.12887827 0.0005632951 0.23731588 0.2055781 -0.22193941
0.22491074 0.21793959 0.11646142 -0.15359068 -0.18717113 0.1034044 -0.03202287 -0.2440272
-0.046702746 -0.07608539 -0.18948777 0.07769298 -0.18164602 -0.11563694 0.117942646 0.17405376
-0.23219357 0.11437791 -0.21855344 0.14328702 -0.11507382 0.22298345 -0.25339955 0.041583627
0.15044361 -0.059927415 -0.24313584 0.17110343 0.07106833 0.09190775 -0.24113193 -0.0060211644
0.23959298 -0.18976074 0.1200446 -0.043540597 0.02913068 0.26063952 -0.14631656 -0.19590285
-0.1982268 0.1687143 -0.22609918 -0.08445475 -0.019377936 -0.0023774453 -0.04415541 -0.09570397
0.23189068 0.14583296 0.033332404 -0.1897684 0.1730187 0.13240688 -0.12574382 -0.009420699
0.1343841 0.021544004 0.15988252 -0.19039425 -0.16368936 0.26356393 -0.18552183 0.22427183
-0.23421569 0.09073826 0.0093453135 -0.060527258 -0.19217747 0.19208868 -0.20286717 -0.03245465
0.17853437 -0.16607748 0.20890647 -0.13482691 0.22067009 0.15037201 0.1641403 0.0091053555
0.2536646 -0.08702329 -0.19528699 0.06911055 0.17739248 -0.16878267 0.2091301 0.18878295
-0.26668045 0.24162108 -0.13718931 0.15310508 0.18377939 -0.16408224 -0.21067533 -0.19577725
-0.08967135 0.15652665 -0.11051303 -0.1586418 -0.0367652 -0.026616452 0.14966288 -0.038896482
0.2573724 0.18429936 -0.17703792 0.103667244 -0.15638703 -0.101020336 0.22207958 0.02136889
0.10526161 0.07132677 -0.05277541 -0.11268397 -0.01764979 -0.21641737 -0.21525499 0.2418557
0.13117191 -0.17473394 -0.05260667 -0.163389 -0.28595054 0.24736714 -0.12945361 0.2009688
0.059385076 -0.1935947 -0.19369774 0.069825515 0.20716475 0.023341091 -0.001133927 -0.0896545
0.17991942 -0.16378179 0.19879474 -0.02829324 -0.22292931 0.052068837 0.02655244 -0.19306213
-0.20078048 -0.1683877 -0.1596338 -0.022629635 -0.24815683 0.027664742 0.19586787 0.19160457
-0.08716303 -0.2233455 -0.08439706 0.16544811 0.119478785 -0.068924814 -0.15643282 -0.03704721
-0.10839928 0.2574703 -0.13737915 -0.04951115 0.034874763 0.16167013 0.19758095 0.23958597
-0.17326902 0.09701051 0.11754927 -0.22984736 0.11350093 -0.19223 -0.17755532 -0.010677633
0.06441146 -0.20521432 -0.100993216 -0.26696366 0.25165087 0.24395694 0.17362313 -0.04721836
-0.18307562 -0.01272741 0.14636229 0.18148996 0.16653533 0.19521637 -0.031482726 0.028332142
-0.045095272 0.077698566 -0.025196306 -0.045016337 -0.20610072 0.028424233 0.003608397 -0.011785901

allnns.1.0.weight f4 [12, 100]
00000000: 2b6e 63b8 0a4d 34ae fc2e 8c3c 1fc4 223c
00000010: 0b76 d93b 14a3 943c c10a 9aba 4c33 433d
00000020: 6a1e 83bb 0217 973c 29a3 caac 9f4a 3ab6
00000030: c3fa 803d b07e dea6 d72a 853c cedc e53b
00000040: a08c 78b5 860a a0ba 9bf3 933b c479 fcb8
00000050: 4e71 ddb6 ef7d 473c fa7d 123d 6da6 49ae
00000060: 13c6 ceb3 00c5 3e3c 2092 74b6 5ea5 a2b4
00000070: bec3 87ba 3c0b ab3c dd33 f43b ef52 52b5
00000080: c78b 073c 5807 003d 5dfd 153b 49ef cab8
00000090: 9607 253d 5036 063b 0ae3 443c 42ba e53c
000000a0: 5d40 04b9 9ee7 483d e65d b43b f0ec 08bb
000000b0: a1eb 87b8 185d 03bb 6770 e1b9 c7db a4a6
000000c0: 3179 dbb2 3963 773a d03b 2c3c 89ed 053d
000000d0: c759 edaa 75ec 89ad 75c5 113c 8552 04bb
000000e0: 2732 28b9 068e 3fb7 4257 11b7 97b0 42bb
000000f0: 6455 e1b8 1667 afb5 6a6a 6f3c c2ca c5ba
00000100: 2a14 2795 3dba 453c 3dd0 02b9 eab6 053d
00000110: 080b 593c 20d0 5bb3 f6df 043b 353f 16ad
00000120: 50b0 ea3b 5dfa 8ab7 df4e 473d 9483 83b7
00000130: 2b95 1ba2 ad7b e93c 41e0 28bb 023d 06b8
00000140: 3ae0 feb9 ff5e fdb8 488c d4b3 93f8 6a3c
00000150: 678f a43b 71c0 86a0 08ed 0597 e500 c43b
00000160: 54d2 1c3c d466 d1b1 7f97 9d3c b420 b93c
00000170: 89a8 503c b784 f8b6 0523 963c d58f e83c
00000180: 041f 3ab0 dfb9 16b7 a4c5 15b9 1418 903c
00000190: deb9 dfb5 4fbd 38b9 f8f7 be3c eb10 06bb
000001a0: 0688 0cb2 1fd0 03b4 da47 b3b0 f7e0 9cb7
000001b0: ba39 2fb2 bc9b 45b4 4d1e 233d 5323 a23b
000001c0: 77a3 68bb 0707 6fb7 2ac4 803a f462 083d
000001d0: cc03 bdb8 7e2f 543c a5f7 9eb9 37fb d4b7
000001e0: 7f92 30b8 6975 4f3d 96ed d6b2 658b 9d3c
000001f0: 811d 593d c7fa a33d ecfc 863d b4f8 47af
00000200: 2a2f a4b9 375c fca8 0d5b 273d 87a1 383d
00000210: e433 153d 1e74 4d98 f9f4 35b7 c53a 4d3d
00000220: 9225 153c 7532 413d f0f6 063d 8136 eb3c
00000230: 8459 dfb7 ce9b e53c 2e67 12aa 723e a73c
00000240: d995 9f3c a051 0c3c 1a86 88bb 5996 e7ae
00000250: 472d c33c 3ed2 9bba baaa f7b6 5a63 a63c
00000260: 26cc 583d 3649 8db7 4ea4 8dbb cb54 863d
00000270: 5567 943c 1ad3 29b4 3280 063d c0c7 309e
00000280: cb7a a53c 9752 f1b5 d697 5a3c af84 71ba
00000290: dac6 e7b9 5137 2fbb af93 2d3d 2344 9ab9
000002a0: d861 323d 9960 ceb9 9339 d59e d256 e1b5
000002b0: 11d8 d1b6 4330 b1b9 233a 263d 7bfe 2c3d
000002c0: 311f 3b3d a0d5 56bb eddd 8fb7 a8ec b0a1
000002d0: 01b9 873c ad99 eb3c ab37 9fbb fc38 2cb6
000002e0: 783b b53c 000f 613d 34c2 8bba 50c6 ec3c
000002f0: 5300 153d 6357 cc3c 90fc b73c b1b5 c6b5
00000300: b1b8 c59f 8849 3c3d dd25 593d 0639 d690
00000310: 4fc8 dcba d886 88bb 007e 8b3d 9cbe 353c
00000320: 121e 523d f46b acb5 b3e6 0d3d c40d f3ab
00000330: 7d7f 4599 d75c 84bb 95ec 66b6 3f96 0caf
00000340: b083 83b4 addb 123d 5985 a6b6 599b a3b9
00000350: 5f24 22bb 2b97 543d be82 ac3b f1df 273c
00000360: f4db c23a e78d d5b4 d300 9fba a3b1 e0ba
00000370: 37c4 0d3d bb9b 0d3c cb0c b4b9 9081 2fac
00000380: b7c5 753d eb9b 98b4 665f 99b9 7708 453d
00000390: 8371 193c 07b0 ac3c 06e6 583d 9225 f6b9
000003a0: 46f1 3c3d 1e9c 10b1 200e 8a3c faab 9bb1
000003b0: 9e9b 6fb4 5353 c93c 0756 123d 1f25 34bb
000003c0: 4aa6 353d 34d6 373d e796 26af e27b 8ca2
000003d0: 4164 893b c796 30bb 3117 94b8 5b56 8eb8
000003e0: 90f6 8ab2 ba9e ca3a c0ba c53b 5b96 1cb1
000003f0: 12a3 cbad 44f8 ab3d 9698 13a9 e2f0 c6b9
-5.422362e-05 -4.0995686e-11 0.017112248 0.009934454 0.0066363863 0.018144168 -0.0011752472 0.047656342
-0.0040014284 0.018443588 -5.7592997e-12 -2.7759595e-06 0.06297829 -1.5438683e-15 0.01625578 0.0070148474
-9.2591836e-07 -0.0012210167 0.004515124 -0.00012038977 -6.5995036e-06 0.012176021 0.03576467 -4.5849925e-11
-9.628652e-08 0.011643648 -3.644389e-06 -3.0295172e-07 -0.0010358018 0.02087938 0.0074524716 -7.835178e-07
0.008273072 0.031257004 0.0022886612 -9.676681e-05 0.040290438 0.002047915 0.012017021 0.028042916
-0.00012612478 0.049049012 0.0055043576 -0.002089318 -6.481191e-05 -0.0020044502 -0.0004299909 -1.1439357e-15
-2.5550067e-08 0.00094370876 0.010512307 0.032697234 -4.2161953e-13 -1.5680105e-11 0.008897175 -0.0020190787
-0.00016040412 -1.1417555e-05 -8.66299e-06 -0.0029707307 -0.00010744741 -1.3068518e-06 0.014612773 -0.0015090334
-3.3741288e-26 0.012068328 -0.00012475341 0.032645144 0.013247259 -5.11792e-08 0.0020275093 -8.540548e-12
0.0071621314 -1.6567466e-05 0.0486592 -1.5677688e-05 -2.1085386e-18 0.028501356 -0.0025768431 -3.2004908e-05
-0.00048613717 -0.000120816745 -9.897536e-08 0.014341491 0.0050219777 -2.282783e-19 -4.3273793e-25 0.005981552
0.0095716305 -6.0943908e-09 0.019237278 0.022598602 0.012735494 -7.406426e-06 0.018327245 0.028388897
-6.771048e-10 -8.983973e-06 -0.00014283374 0.017589606 -1.6668889e-06 -0.0001761813 0.0233116 -0.0020456861
-8.180001e-09 -1.227604e-07 -1.3044386e-09 -1.8701407e-05 -1.0199466e-08 -1.840371e-07 0.03982382 0.0049480586
-0.0035497823 -1.4247146e-05 0.0009824086 0.033297494 -9.0129295e-05 0.012950776 -0.00030320618 -2.538935e-05
-4.2098105e-05 0.05064908 -2.502092e-08 0.019231508 0.053006653 0.08006816 0.0659121 -1.8187302e-10
-0.00031315658 -2.8017612e-14 0.040858317 0.04507592 0.03642644 -2.6554253e-24 -1.0845478e-05 0.050104875
0.009103196 0.04716726 0.03295034 0.028712513 -2.6625356e-05 0.028028395 -1.3003203e-13 0.020415518
0.019480633 0.008564383 -0.004166377 -1.0531371e-10 0.0238253 -0.0011888219 -7.381049e-06 0.020311046
0.052929066 -1.6842601e-05 -0.004322565 0.06559142 0.018115679 -1.581615e-07 0.0328371 -9.35867e-21
0.020200154 -1.7979936e-06 0.013341865 -0.0009213192 -0.0004420791 -0.0026735852 0.04237717 -0.00029423935
0.043550342 -0.00039363353 -2.2576064e-20 -1.6789074e-06 -6.253839e-06 -0.0003379603 0.040582787 0.04223488
0.045684043 -0.003278114 -1.715027e-05 -1.1988866e-18 0.016567709 0.028759802 -0.004858931 -2.5663167e-06
0.022123083 0.054945946 -0.0010662735 0.028903157 0.036377262 0.024944013 0.022459298 -1.4805029e-06
-8.373829e-20 0.045968562 0.053014625 -8.4495975e-29 -0.0016844365 -0.0041664653 0.06811142 0.011092808
0.05129821 -1.2846417e-06 0.03464384 -1.7270009e-12 -1.0210407e-23 -0.0040393877 -3.441038e-06 -1.2786304e-10
-2.4496467e-07 0.03585403 -4.962709e-06 -0.00031205526 -0.0024740917 0.051901978 0.005264609 0.010246263
0.0014866577 -3.977759e-07 -0.0012130983 -0.0017142784 0.034610953 0.008643086 -0.00034341807 -2.4940917e-12
0.06000301 -2.8425652e-07 -0.00029253511 0.048103776 0.009365442 0.02108003 0.052953742 -0.00046948768
0.046128534 -2.10435e-09 0.016852438 -4.530645e-09 -2.2315223e-07 0.024575865 0.035726573 -0.0027487946
0.04434804 0.044882014 -1.5151223e-10 -3.807824e-18 0.0041928594 -0.002694534 -7.06151e-05 -6.7871726e-05
-1.6177438e-08 0.0015458681 0.006034225 -2.2786455e-09 -2.3150846e-11 0.08396962 -3.2772904e-14 -0.00037944975

allnns.1.2.weight f4 [1024, 12]
00000000: 92bb bb3b 6a51 debc a85a a2bd 4469 743d
00000010: 5b87 0abd ffea 92bd 603e 163e e02d bcbc
00000020: 70b9 a3bc 8d50 263b 5e88 1c3c 06d6 03be
00000030: 230a 9abc 259e 293c 8cea e53b 332d 143d
00000040: 898a cf3d da2c 18be b9aa 8ebb f18a a339
00000050: e284 753b 7c52 03be 8fca 4a3b 2f09 b93c
00000060: eb6f 89bd 6d9e 3b3d 0340 323c a69a 8cbd
00000070: c69e 233e 4b65 a9bc 4bd8 4abd 757d 993d
00000080: 073a 923d daa9 773c 85a8 053e ed45 6e39
00000090: df80 22be ef03 243d f8e9 74bd 1205 14be
000000a0: 93ad 17be c885 24be 7d6e dabd c239 953d
000000b0: 407f 5dbd 38e1 3ebb 8bee adbd d74a e7bd
000000c0: 17fd 123a 5ebf 883d c054 d43c 7e31 b73d
000000d0: e5f6 9fbd 4efe 9fbd 3618 013e 5eda bb3b
000000e0: 237d 14b9 72b5 ef3b db2f ba3a ddb1 6e3d
000000f0: cd52 bc3b bfcf a03a ce58 ec3d 8b25 25ba
00000100: 837e bcbc 3cab c33c 53b6 533d 951d f73b
00000110: c283 6bbc 0af7 e9bd 609c 23bb 5aa5 ce3c
00000120: 2999 053e 9dee 753d 3fec 60ba 1483 c5bd
00000130: 3df0 5ebc 8eae d7bd 06d6 bbbb 6985 d7bc
00000140: a028 9ebd b2d8 6b3d 4b10 ad3b 5d90 9bbd
00000150: f308 00bc 4ce4 203b ea52 df3a 9827 183d
00000160: 9b70 103e 8036 21be 9b68 1bbd bc76 673b
00000170: 902a 4f3b 05f5 8ebd 761d 17be 19ca 353b
00000180: 86a9 ec3d 53b5 18bd 75b8 f93a 801b a93c
00000190: 9dda d1bc b23c 7d3d eed6 093e a3ef 87bb
000001a0: 7a9f 893d bb8d 1bbd a25d 0e3e 66e6 12bb
000001b0: a39f 333b e7e9 db3d 209a 6a3d 7e0a 823b
000001c0: 0be1 583c d0b5 1abd 619c 19bd ced1 dc3d
000001d0: 8c78 253c 1d41 6f3d 4fc8 fabd 0e26 0e3d
000001e0: 126c 6f3b 76e7 9b3d 8adc 1d3d bc1f a73a
000001f0: 90ce 4abc 5635 95bd 6ff9 b73c 2127 babb
00000200: a29d 0ebe eb07 f23d 389b f23c b581 ca3a
00000210: d351 1bbe ef3f 87bd 897c 1cbe dddd 23ba
00000220: 1494 d73c 8026 d03d f947 c33d 0f2b 6abd
00000230: 1a35 83bb 1c05 7d3d c9ee ba3d 48a9 31bb
00000240: cce7 9ebd 73e0 d63d 5430 f4bd a122 1f3d
00000250: ef2a 933c 276a f23c a675 11bb a0e0 813b
00000260: 2155 f93c 8e87 2b3c 3ba0 9bbd 6aae c43d
00000270: 3210 0e3e 9af9 8fbd f0ce 1a3e c0fc d5ba
00000280: 1112 00bb 2e9e dbbc 8c6c 0a3e a03e dabd
00000290: 5d3a d43d db8c d4bd b4b9 8fbb 50be 0d3e
000002a0: e99a 8ebd b95b 933d 4821 a03d 59aa fcbc
000002b0: b0c5 eebc a743 6abd 56cb e7bb 124c 213e
000002c0: 8d82 33bc 38ee 57bc 476e fcbb ffc5 c53d
000002d0: bccd 0cbe 38cc 69bd c119 b33a 75fb 763d
000002e0: 7812 963a b7e5 153e a83a 163e 13e0 fe3d
000002f0: df16 563d 4cb4 0abd aea5 0ebe 462b 653d
00000300: ce62 26bd 372f b0bc 303e bbbc 74a8 2ebd
00000310: 03d1 bdbd 64ba 373c 6940 a53d d4ea c73c
00000320: db34 e5bd 7518 ecbd 643e 7e3c daad 523c
00000330: 872d cf3d 01ca ce3a f6ab 8f39 a60c fb3c
00000340: 79ad e43d 23be 9fbb 2590 93bc 6f68 c6bd
00000350: 4ab7 b33b 148b 043a 2977 cebd 82a3 09bd
00000360: 8b96 0a3d 66db a93d 3704 35bc 7e07 14bc
00000370: 136b 0e3e 57c9 c53d f484 073e 7fcb ffbd
00000380: b602 883d 1293 a83d 01f6 17be a67b 44b9
00000390: 8e8f 023a 8478 f33a e8bf 81bc 7edb 283e
000003a0: da60 673a 818e 08be 63fd 863c efb7 dabd
000003b0: faa1 1a3d 2f66 813b 2eb1 97bc d6aa 193c
000003c0: 5dbf 19bd 7ac4 143b aa29 ed3d 2d47 27bd
000003d0: efd6 073e 17ae 1c3a dc20 803d 07d1 523b
000003e0: 1613 883a 919f 1f3d 6da0 d3bd 6f35 1d3e
000003f0: aa4d 88bd 5c51 a63b 0170 9e3d 5fa3 27bc
0.0057291472 -0.02713843 -0.079274476 0.0596707 -0.03382049 -0.07173728 0.14672232 -0.022971094
-0.019985884 0.0025377602 0.009553997 -0.12874612 -0.018803662 0.010352646 0.0070164856 0.036175918
0.10133845 -0.1486086 -0.004353848 0.00031193302 0.0037463238 -0.12824434 0.0030943488 0.022587387
-0.067108 0.045805383 0.010879519 -0.06865434 0.15978536 -0.020678183 -0.04952268 0.07494632
0.07139974 0.015116179 0.13052566 0.00022723498 -0.15869473 0.040042814 -0.059793442 -0.14455059
-0.14812307 -0.16066658 -0.10665605 0.07286407 -0.054076433 -0.002912594 -0.08492764 -0.112935714
0.00056071713 0.066771254 0.025919318 0.08944987 -0.07810763 -0.07812177 0.12606892 0.0057328185
-0.00014160997 0.007315331 0.0014204936 0.058275092 0.0057471753 0.0012268944 0.11540376 -0.0006299845
-0.023009544 0.023885362 0.05168755 0.0075413682 -0.014374675 -0.11424072 -0.0024965033 0.02522533
0.13046707 0.060042012 -0.0008580125 -0.09644142 -0.013607082 -0.105313405 -0.0057323007 -0.026308732
-0.07722592 0.057579704 0.0052814833 -0.075958945 -0.007814634 0.0024550138 0.001703826 0.037147135
0.14105456 -0.15743446 -0.037941556 0.0035318574 0.0031611063 -0.069803275 -0.14757332 0.0027738868
0.115557715 -0.0372823 0.0019052165 0.020642996 -0.025616938 0.06182546 0.13460895 -0.00414844
0.06719871 -0.03797696 0.13902906 -0.002241516 0.0027408383 0.10737973 0.05727589 0.003968536
0.013237248 -0.037771046 -0.03750265 0.107822046 0.010099541 0.058411706 -0.12245237 0.03470426
0.003653292 0.07612507 0.0385404 0.0012750546 -0.01237835 -0.07285564 0.022457806 -0.005680934
-0.1392732 0.118179165 0.02961503 0.0015450033 -0.15167932 -0.06603991 -0.15281881 -0.0006251017
0.026315726 0.10163593 0.09535212 -0.05716997 -0.004004133 0.06177245 0.09127576 -0.0027108956
-0.077590555 0.10492029 -0.1192328 0.038851384 0.017964808 0.029591633 -0.0022195368 0.003963545
0.0304361 0.0104693305 -0.07598921 0.09603579 0.13873366 -0.070300296 0.15118003 -0.0016325936
-0.0019542018 -0.026808824 0.1351797 -0.10656476 0.103626944 -0.103784285 -0.004386151 0.1384213
-0.069631405 0.07195229 0.07818848 -0.030842947 -0.029147 -0.057193425 -0.0070738 0.15751675
-0.010956419 -0.013179354 -0.007703576 0.096569054 -0.13750356 -0.057079524 0.0013664291 0.0602984
0.0011449596 0.1463841 0.14670813 0.124450825 0.052267905 -0.03386335 -0.1393039 0.055949472
-0.04062157 -0.021506889 -0.022856802 -0.04264112 -0.092683814 0.011213873 0.08068926 0.024403967
-0.11191722 -0.11528102 0.015517805 0.012858832 0.101161055 0.0015776755 0.00027403206 0.03064568
0.111659 -0.004874961 -0.01801307 -0.09687888 0.0054844962 0.00050561246 -0.10081322 -0.0336032
0.033834975 0.082938 -0.011048368 -0.009034989 0.13908033 0.09657543 0.13234311 -0.12489986
0.06641142 0.082311764 -0.14839937 -0.00018738079 0.0004980498 0.0018575345 -0.015838578 0.1648998
0.00088263827 -0.13335611 0.016478246 -0.10679614 0.03775213 0.003948949 -0.018517103 0.009379109
-0.037536014 0.0022700117 0.115802124 -0.040839363 0.13265584 0.0005976869 0.062562674 0.0032168047
0.0010381665 0.038970534 -0.10333333 0.15352415 -0.06655438 0.0050756168 0.07736207 -0.010231822

allnns.1.2.bias f4 [1024]
00000000: 82e0 9a3d f40e 493e 87ed 2ebd e674 18be
00000010: 6645 583e 4119 de3d 81d6 343e 9798 51be
00000020: 865d b13d c5b8 5abe 631b 153e 9a95 a43d
00000030: 5063 df3c e761 b83d a60f 383e 3967 dfbd
00000040: 089b 5a3e 98f7 c23c 3956 773d 1e51 753e
00000050: 4e31 4cbc c74e 31be 49e7 0f3d f7d4 00be
00000060: 1b48 633b 24c7 bbbc 626c 1fbe 8dde a23d
00000070: 8f77 303e 8061 85be 3150 3e3e 4251 6fbd
00000080: f176 4a3e 065a 883d 7e59 e9bd 55af 643d
00000090: 7493 6b3e ba40 4fbd 7122 3b3e 4fcd b83d
000000a0: 768d 49be a9bf bd3d 74b4 39be 8bde e63d
000000b0: 9e27 8d3d 776d a83d 5f2f 51bd 01e0 063e
000000c0: fb27 ebbd 2075 5abc 2095 de3d ca6c d43d
000000d0: b11d fabc 475f d43d bd6b 323e 55e4 733e
000000e0: f40d 583e b46d 803e cad6 88be 459a 7dbe
000000f0: 443c 303e 568c 883e df40 6b3e 8956 d3bd
00000100: 8a3c ff3c 0caa 613e c81b 1bbe ada2 cabd
00000110: 6f14 f4bd 3b86 c6bd 7d1e cbbd e74b 2f3d
00000120: 5304 2d3e c5dd 023e 4179 923d 3f07 c6bb
00000130: dc8c 513e c5d7 973c 4e32 183e c452 66be
00000140: 51fb 3ebe 1298 77be 9e90 ddbd 15a6 013c
00000150: fb74 623e 3f66 463e 41da 0dbc 2b61 393e
00000160: b6a2 51be e8a5 7fbd e864 66be 923b 9d3d
00000170: 4a5a 513e 53d5 57bd eebe 92bd 5940 70be
00000180: 98e3 77be 2aa7 65be f6ea 7cbe c4de 48bc
00000190: 8db2 6bbe 37a0 dbbc 5592 1e3e 6140 143e
000001a0: 3dbf 373e 0187 a4bd db65 0a3d d3b6 c93d
000001b0: ac34 15bd cd4a 4cbe 0265 66bc 412d 643e
000001c0: 14f7 783e 4ce1 4b3d 1f2f 5bbd 5d56 8bbe
000001d0: 395f 14be 7a39 083e 1c81 473d 396d e03d
000001e0: 0464 03bd a7ec 8f3d 0846 2c3e 108b 133e
000001f0: 668d 13bd 501e ce3d 5862 5c3e 663c c13d
00000200: b0bf 04be 0a60 7c3e d9c1 273e fb3c f8bd
00000210: 02b5 5d3e 4ead c63d bea5 3b3e d9ca 77bd
00000220: 9cd4 57be d9a3 c1bd c169 573e f447 84bd
00000230: 9feb 173e 8d67 c83d 421f 93bd 6e11 c93d
00000240: e377 393e 1368 353e 9451 36be 01f2 18be
00000250: 3531 523d c5d7 54be d2b4 61be b85e d23d
00000260: fb32 f0bc 962a 9cbd 95bf ac3d d3c3 83be
00000270: 9c4f aa3c a793 dbbd 4890 77be 0b0b a03d
00000280: 9347 4c3d 61bc fdbd 81a3 573d eac7 28be
00000290: 34cd 7a3e c936 8c3d 9c6b 39bd 0b8a bfbd
000002a0: e5c3 833e 0376 85be cf59 48bd 5085 183e
000002b0: f703 8d3d ec65 a83d 3cac 31be 2041 7b3e
000002c0: bcdc 023d d8f1 42be ed0e 263e 0264 453e
000002d0: 6d8a 823e 2f5a 173d bd76 11be c13a fa3c
000002e0: 70a2 76be f5c3 33be a03f e7bd aaa1 76bd
000002f0: d55e b4bd bdb3 83bc 8b62 ce3c fa46 313e
00000300: 7a0f bf38 2808 313e 377a 953d 0b20 613e
00000310: a7d0 dc3d cf51 093e af75 1c3e a0a1 1ebd
00000320: 8ebf 43bd c987 87be a837 07bd 5ceb 3bbe
00000330: 29b4 2ebb 47d2 353e 268f 813e 927c 35be
00000340: 04a9 04bc fc58 a7bc ccf5 1c3e 4265 c1bd
00000350: 2b7e 69bd 4d4a d73b 9e7b b33d 6b7a b93d
00000360: df14 733e ca67 693e 3941 ad3d 188d 7fbe
00000370: 4033 593e 7a97 893d 7f3e 003e 5e43 83be
00000380: 6f35 383e 634a a1bc 3c46 77be 5999 093e
00000390: 3c56 70be c86a 1fbe bdc7 cf3d d880 8f3d
000003a0: dead 773c ac1b 573e 13f3 8bbd 85b3 b33c
000003b0: a00a ea3d a4dc 363e b7cf 64be 009a 863d
000003c0: 861e 3f3e ed8e 94bb aad9 f63c 60af e2bd
000003d0: 162a 743e 9d83 503e 1098 09bd bf7d 083e
000003e0: 1bdb 723e 4468 6b3e 5cfc e13d e268 9bbb
000003f0: 488b b13b 0343 96bd 1875 36be 8c79 4f3e
0.07562353 0.1963461 -0.042706992 -0.14888343 0.21120223 0.108446606 0.17659952 -0.20468365
0.08660416 -0.21359546 0.14561228 0.08036347 0.027269036 0.090030484 0.1797472 -0.1090836
0.21348202 0.023799703 0.060384963 0.23956725 -0.012462927 -0.17315207 0.03513268 -0.1258124
0.003468043 -0.022922106 -0.15568689 0.079526044 0.17233108 -0.2605095 0.18585278 -0.058427103
0.19771935 0.066577956 -0.113940224 0.055831272 0.23005468 -0.050598837 0.18274857 0.090235345
-0.1968287 0.09265072 -0.18135244 0.112729155 0.06892322 0.08224004 -0.051070567 0.13171388
-0.11482235 -0.013333589 0.10868287 0.10372312 -0.030531736 0.10369735 0.17423911 0.2381757
0.21099073 0.25083697 -0.2672637 -0.2476588 0.1721049 0.26669568 0.22973965 -0.1031924
0.031156797 0.22037524 -0.15147316 -0.09894309 -0.1191796 -0.09693571 -0.099179246 0.042796995
0.16896181 0.12779911 0.071520336 -0.0060433443 0.2046389 0.018535504 0.1486294 -0.2249251
-0.18650557 -0.24179104 -0.10818599 0.007913132 0.22114937 0.19374941 -0.008657993 0.18103473
-0.20472226 -0.06241408 -0.2249943 0.07677378 0.20444599 -0.052693676 -0.07165323 -0.23462047
-0.24207914 -0.2242705 -0.24699005 -0.012260143 -0.2301733 -0.026809795 0.15485509 0.14477684
0.17944045 -0.080335625 0.033788543 0.09849324 -0.036427185 -0.19950409 -0.014062168 0.22282888
0.24313003 0.049775407 -0.053511735 -0.27214327 -0.1448945 0.13303176 0.048707113 0.109583326
-0.032077804 0.0702756 0.1682359 0.14408517 -0.03602352 0.100643754 0.2152189 0.09435348
-0.12963748 0.24646011 0.16382541 -0.12121006 0.2165108 0.09701024 0.18324944 -0.060496185
-0.21077198 -0.094550796 0.21036436 -0.064590365 0.14835976 0.09785376 -0.07183696 0.098177776
0.1811214 0.17715482 -0.17804557 -0.14936067 0.05131646 -0.20785435 -0.22041634 0.102719724
-0.029321184 -0.0762531 0.08434979 -0.2573534 0.020789914 -0.10721522 -0.24176133 0.07814606
0.049872946 -0.12389446 0.052646164 -0.16482511 0.24492341 0.06846387 -0.04526864 -0.093525015
0.25735393 -0.26066598 -0.048913773 0.14894605 0.06885522 0.08222565 -0.17350858 0.24536562
0.03194879 -0.19037569 0.16216631 0.19276431 0.25496235 0.03695124 -0.14205451 0.030545594
-0.24085402 -0.1755522 -0.112914324 -0.06021277 -0.0880715 -0.016076917 0.025193473 0.17312232
9.1104725e-05 0.17288268 0.07298701 0.2198488 0.10781985 0.13410114 0.15279268 -0.038728356
-0.047790103 -0.26470783 -0.033012062 -0.18351501 -0.0026657677 0.17755996 0.25304526 -0.17723301
-0.008096937 -0.020428173 0.15328139 -0.094431415 -0.05700509 0.0065701366 0.087638125 0.090565525
0.2373843 0.22793499 0.08459706 -0.24956167 0.21210957 0.06718345 0.1252384 -0.25637335
0.17989133 -0.01968879 -0.24147886 0.13437404 -0.23470396 -0.15568078 0.10145519 0.07006997
0.015117137 0.2100665 -0.06833472 0.021936188 0.11427808 0.17857605 -0.22344862 0.06572342
0.18663988 -0.0045336396 0.030133087 -0.110686064 0.2384418 0.20362706 -0.033592284 0.13329218
0.23716395 0.22988993 0.11034462 -0.0047427276 0.005418215 -0.07337 -0.17818105 0.2026121

allconvs.0.bias f4 [32]
00000000: 7e2d a2bd f379 6abd b7d7 9a3d 6060 363d
00000010: a36b 03bd a72e 3d3d ea6b d53d bf22 a0bc
00000020: 537f e1bd 9464 7a3c 758a aabd b7da bebc
00000030: 185d a8bd a95a 813c 64c2 c5bd 470b 833d
00000040: 6b7d 62bb de5a 4ebd 7178 263d b8e3 bebc
00000050: fcf7 6e3d 459b ab3d 52a4 9f3d 3709 373d
00000060: d1f7 99bc 18e0 e73c ec34 b9bd 0015 36bd
00000070: c57f 84bd 028f 34bb 81d3 b43d edc9 17bc
-0.07918833 -0.057245206 0.075606756 0.044525504 -0.032085072 0.04618707 0.104209736 -0.019547818
-0.11010613 0.015282769 -0.0832719 -0.02329765 -0.08220881 0.0157903 -0.09656218 0.06398635
-0.0034559618 -0.050379626 0.040642206 -0.023301944 0.058341965 0.08379225 0.077950135 0.044686522
-0.018794926 0.028305098 -0.09043297 -0.04445362 -0.064696826 -0.002755106 0.08829404 -0.009264451

allconvs.0.nn.0.weight f4 [12, 100]
00000000: ba59 c03c 5e15 acae 4854 8db9 84da 053d
00000010: 75d6 49bb e633 403d 205c b2b9 aabf 493d
00000020: ede0 64b8 84ac 7fb8 8a50 f43c 5856 8c3c
00000030: baea 623c 1411 04aa 116b 42b1 3cfa edb8
00000040: 3167 233d eb74 0a97 9d1e c23d 2c8d 913c
00000050: c166 fba7 e312 5cb6 d674 683c 3cca e9ad
00000060: a711 929f 2836 26b9 6c63 153d 67f8 413d
00000070: df12 8abb fa2d 2a3d 5196 13b9 662c 893d
00000080: 19e0 993d deed 15bb 3cd2 5bbb efd4 5eb1
00000090: 18e2 ba3d 3b1c 593c 631b 2f3d 18a7 4ab0
000000a0: 3a57 c83d 93a6 35ad cce6 ad3d 262c fbb5
000000b0: e913 9ab3 61a3 1a3d b208 c4b3 9fab 4b3d
000000c0: e100 a397 6a9b 03b9 f837 71bb c341 0eb1
000000d0: 321a 803d 06ff 373b bcbd c93d dd34 803d
000000e0: 9b7f 053d 5ed0 f3b7 1943 613c b887 903b
000000f0: b2a7 7eb7 c0bb 683d 3715 0e3d 6a9e 6d3d
00000100: 2fdf f9b4 c7ff 97b9 2f9c 1b3c 019e e83b
00000110: bbc4 87b9 9a04 bbb8 a829 1b3d 75d8 ffb9
00000120: bc75 0b3d f767 2f3b dcb1 553d 2162 403d
00000130: 2d0d d73c bfcf 6f3d c865 2ebb 64ed 1a3d
00000140: 8987 9fb8 a71d 79b9 f13e 723b 4a96 e9b9
00000150: fbbc 8c3d 9b39 98b5 53d5 ebba ef85 ae3d
00000160: 2add 2fb9 bf14 513d f84c 053d 2722 63b9
00000170: cd0b bf3c 8791 5f3c 6683 01b8 f5f0 eab0
00000180: 6a66 663d e6d5 c73c f51c 6dad 8a08 889b
00000190: 4aad ec3d b5e3 d1b9 4859 a73d 2edd 213d
000001a0: e08d 7eb7 e93b 93ba c72c 7c3d 76ed 09b7
000001b0: 0cc5 9c3d 2235 483d 1b69 f33c dcaf 843d
000001c0: 70e8 8c3d 683a d9b7 7803 f63b d1c1 783d
000001d0: 1e0e aa3d e063 ff3c 93f5 01b9 ad59 efb8
000001e0: 0951 63b6 291a 223d ea60 a13d 8a18 1bb7
000001f0: 9a10 9d3d 95c1 adb4 e58f 47bb becc 00ba
00000200: c196 863d b7e2 de3d 8ef4 d3b6 f2a6 d63b
00000210: 5845 a33d 0a3e a53d 5fe8 b03d 7b22 5a3d
00000220: 405d 263d cab1 a3b8 6148 41b8 fc07 7fba
00000230: bbcb e0af 6f87 84b9 347e 9cb6 3629 96b8
00000240: 0460 d63c c05d 30ba 9cf0 5a3d eff9 923d
00000250: 03e7 d63d 3db4 aa3d ac78 03a3 c454 f33d
00000260: 7691 cb3b 40d5 4ca0 0270 4ebb ab5f 68b7
00000270: 3338 bfb5 2a6f 9bad 3697 ef3d 11b9 d2a0
00000280: 5d83 57b9 c999 fc3c 41b4 ac3a 6682 a93d
00000290: 87c7 2bb3 02c7 a23c 21af dca6 870a 09ba
000002a0: 5ac8 05ba a69b b2af 487f 659c 76c7 353d
000002b0: fb80 083d d47f ab3b dcce e83d 7386 593d
000002c0: 9e9f 7e3d d4a3 6ab8 7606 6fb8 72f5 6d3d
000002d0: 2e12 a0b9 22df 5d3c 2bd3 a9ba 0e0a f6b9
000002e0: 540f 73b7 cc2f f53d ec61 b0ba acb0 c6b9
000002f0: 4cde 01b9 daba 2db4 5cf8 043d b012 7ca9
00000300: 6a99 9cb0 3f33 2e3c eb3d d63d 8bb9 a0b8
00000310: 8586 583c 6e25 803d 6bdd a43d c748 93b8
00000320: 961c 223d 5624 37b9 e0db b83d b1ac c8a9
00000330: 61ce 043d cbf1 d13c 6693 0bb8 234e e9b9
00000340: 05ba a0b8 a2fa a93d 2044 94b8 5f8d c63c
00000350: a988 04bb 4d51 473d ce40 8f3d 8c65 9a3d
00000360: 9505 e23d acdf f7b8 b50f baa7 1d86 493d
00000370: 161e 8fb9 cb2c b23d c28e e0b9 a1af a4b8
00000380: 7163 6e3d c199 e6b8 9b8d 0cba c238 513d
00000390: 69e6 be3d eac9 d63d 2ec6 4a3a b4fd beb9
000003a0: e1c6 d03d 5294 25ba 228c 2cac 4330 1ab9
000003b0: 620c 91b8 e4b1 a53d b741 6d3d e6c2 fcb9
000003c0: 8f11 44ba 9685 ceb8 9a7f 5a3d 15e7 ada4
000003d0: 628c acb2 4bf5 34b6 8809 47bb ea79 aeb8
000003e0: 2845 e7b7 1074 e93d e359 863d 8b16 27a3
000003f0: 4b3d 3b3d f198 e23c 46ac 09b8 2a2c 5eb2
0.023480285 -7.82545e-11 -0.0002695641 0.032679096 -0.0030797992 0.046924494 -0.00034019444 0.04925505
-5.4568914e-05 -6.0957405e-05 0.02982356 0.017131016 0.0138499085 -1.172988e-13 -2.8291576e-09 -0.000113476504
0.039893333 -4.4737776e-25 0.09478495 0.017767511 -6.97779e-15 -3.2793548e-06 0.014188012 -2.6578843e-11
-6.186261e-20 -0.00015851168 0.03647177 0.047356036 -0.0042136754 0.041547753 -0.0001407501 0.066979215
0.07513446 -0.0022877376 -0.0033542057 -3.242629e-09 0.09125155 0.01325136 0.042750727 -7.3724626e-10
0.09782262 -1.0325646e-11 0.08491287 -1.8713806e-06 -7.1748055e-08 0.037753467 -9.128543e-08 0.049724218
-1.053385e-24 -0.0001255103 -0.0036807042 -2.07011e-09 0.06254996 0.002807559 0.09850642 0.06260083
0.032592397 -2.9064886e-05 0.0137489075 0.00441071 -1.5178624e-05 0.056819677 0.0346882 0.058012404
-4.6542252e-07 -0.00028991533 0.009497686 0.0070989137 -0.00025895782 -8.917712e-05 0.037881523 -0.00048798663
0.034047827 0.0026764849 0.052171573 0.046968583 0.0262514 0.05854773 -0.002661096 0.03782405
-7.606956e-05 -0.00023757537 0.0036963786 -0.00044553197 0.06871983 -1.1341648e-06 -0.0017992653 0.085216396
-0.0001677169 0.051045176 0.032544106 -0.0002166113 0.023321057 0.013645536 -3.087837e-05 -1.7094225e-09
0.056250013 0.024393987 -1.347832e-11 -2.250483e-22 0.1155649 -0.0004003324 0.08171326 0.039517574
-1.5172613e-05 -0.0011233065 0.06156614 -8.2211245e-06 0.07654771 0.048878796 0.029713204 0.06478855
0.068802714 -2.5895613e-05 0.0075077377 0.060731713 0.08303474 0.031175554 -0.00012393882 -0.000114131115
-3.3872805e-06 0.03957573 0.07879813 -9.244433e-06 0.07669182 -3.236461e-07 -0.0030450758 -0.00049133215
0.06571723 0.10883086 -6.31676e-06 0.006550663 0.07972211 0.08068474 0.08638071 0.05325554
0.040616274 -7.8055615e-05 -4.6082194e-05 -0.0009728668 -4.0890122e-10 -0.00025277908 -4.6638543e-06 -7.1602335e-05
0.02616883 -0.0006727837 0.05345212 0.07176577 0.10493281 0.08335159 -7.1270775e-18 0.11881402
0.0062124087 -1.735003e-19 -0.0031499867 -1.3850552e-05 -1.4246965e-06 -1.7670827e-11 0.11698763 -3.569785e-19
-0.00020552934 0.03083505 0.0013176278 0.08276825 -3.999551e-08 0.019870285 -1.5313035e-15 -0.0005227704
-0.0005103402 -3.2488606e-10 -7.593425e-22 0.044379674 0.03332613 0.005233744 0.1136758 0.053106736
0.06216394 -5.5942524e-05 -5.6988058e-05 0.058095403 -0.00030531123 0.013541969 -0.001295661 -0.00046928268
-1.44874975e-05 0.11972007 -0.0013456917 -0.00037897134 -0.0001238521 -1.6179857e-07 0.032463416 -5.597145e-14
-1.1394097e-09 0.010632335 0.10461029 -7.6639546e-05 0.013215666 0.06257139 0.080500446 -7.023062e-05
0.039578043 -0.00017465776 0.09026313 -8.9117414e-14 0.03242338 0.025627991 -3.3277458e-05 -0.0004449944
-7.6640434e-05 0.082997575 -7.069879e-05 0.024237333 -0.0020223057 0.04866152 0.069947824 0.075389
0.11036221 -0.0001181954 -5.16424e-15 0.049200166 -0.000272975 0.0869995 -0.00042830972 -7.852843e-05
0.058200303 -0.000109958935 -0.0005361677 0.05107952 0.09321291 0.10487731 0.00077352196 -0.00036428648
0.10194183 -0.0006316352 -2.452046e-12 -0.00014704563 -6.916445e-05 0.080905706 0.057924 -0.00048210396
-0.0007479423 -9.847728e-05 0.053344347 -7.541826e-17 -2.0087274e-08 -2.696487e-06 -0.0030370671 -8.319675e-05
-2.756955e-05 0.1139909 0.06560113 -9.057862e-18 0.04571275 0.027660819 -3.2823787e-05 -1.29321425e-08
