model/0fluid_best_final_model.pth (torch, 382194 bytes, 21 tensors)

allnns.0.0.weight f4 [8, 53]
0	0x3e3595eb	0.1773297
1	0xbb6c325b	-0.0036040756
2	0xb830a60d	-4.2116317e-05
3	0x3d9b23c6	0.075751826
4	0xbc59e578	-0.0132993385
5	0x3d29b410	0.041431487
6	0x3d94aa42	0.072590366
7	0x3dd99f66	0.10626106
8	0x3d84c743	0.06483319
9	0xbab447c3	-0.0013754297
10	0x3de607a0	0.11231923
11	0xbbe5cb63	-0.007012771
12	0x3e14e4d9	0.14540423
13	0xbba05faf	-0.004894219
14	0xbaf98d57	-0.0019039315
15	0x3d032273	0.032015275
16	0xbc2808e2	-0.010256024
17	0xbc0acaa1	-0.008471162
18	0x3d9e8a31	0.07741202
19	0x3c90d448	0.017679349
20	0xba84b3d3	-0.0010124393
21	0xbb9e6873	-0.0048342287
22	0xb9d7f9d2	-0.00041194126
23	0xbbf5f730	-0.0075062737
24	0xbb3742ad	-0.0027963326
25	0x3dca0bdb	0.098655425
26	0x3de63ba7	0.112418465
27	0x3e413f23	0.18871741
28	0xbbd04e6e	-0.006357006
29	0x3e2b74bb	0.16743748
30	0x3d895bf5	0.067069925
31	0x3dbb542b	0.09146913
32	0x3e2cf18b	0.16889016
33	0xbc152a54	-0.00910433
34	0xba96fcd3	-0.0011519439
35	0xbbc26b98	-0.0059332363
36	0x3e2207f3	0.15823345
37	0xbc2194f3	-0.009862172
38	0x3e17606e	0.14782879
39	0xb6c5f22a	-5.899249e-06
40	0x3e44a38c	0.19203013
41	0xbbcea4da	-0.006306273
42	0x3e19d040	0.15020847
43	0xbbdda40d	-0.006763941
44	0xbb6755b4	-0.0035298886
45	0x3e1bc1d7	0.15210663
46	0xb696ff60	-4.500078e-06
47	0x3dbc8084	0.092042
48	0xb608966b	-2.0353134e-06
49	0xbca16276	-0.01970027
50	0xbc63985f	-0.013891309
51	0xbc7cc00c	-0.015426647
52	0x3d762b42	0.060099848
53	0xb85e6cb8	-5.3030177e-05
54	0x3e00fb24	0.12595803
55	0x3e1122a0	0.14173365
56	0xb76262a7	-1.3493619e-05
57	0xbc5883ee	-0.013215048
58	0x3d8c236f	0.06842696
59	0x3deb280d	0.114822485
60	0xbc4e881a	-0.012605691
61	0x3d76e967	0.060281184
62	0x3d2687b7	0.04065677
63	0x3e082c82	0.13298228
64	0xbb8452c8	-0.0040381886
65	0x3ce4bea6	0.02792294
66	0xbc2b80f0	-0.010467753
67	0xbbd8f429	-0.006620903
68	0xbaab9eb5	-0.0013093563
69	0xbc477fa7	-0.012176431
70	0x3dfdfc20	0.12401605
71	0xba0d4aa8	-0.0005389848
72	0x3e06fadb	0.13181631
73	0xbba6338b	-0.0050720624
74	0x3e2e320d	0.1701128
75	0x3e2729de	0.16324565
76	0x3e27e838	0.16397178
77	0x3de36700	0.1110363
78	0x3da87e41	0.08227206
79	0x3d88ff1e	0.06689285
80	0xbcc83cd3	-0.024443066
81	0xbbbc2d38	-0.005742695
82	0x3da263dd	0.07929204
83	0x3d69ddbb	0.057096224
84	0x3d7c157e	0.061543934
85	0xbbfa8886	-0.0076456694
86	0xbaa2a121	-0.0012407639
87	0x3e021052	0.12701538
88	0x3da852b8	0.08218902
89	0x3d467431	0.048450653
90	0x3d7ac0e3	0.061219107
91	0xbc238a5e	-0.00998172
92	0x3d584245	0.052797575
93	0x3d8da1ed	0.069156505
94	0xbc07fc25	-0.008299862
95	0xbb9d3396	-0.0047974093
96	0x3d6a07b8	0.057136267
97	0xbb96bbfc	-0.004600046
98	0xbb1b493e	-0.0023694779
99	0xbc1b82f6	-0.009491673
100	0x3d11eab8	0.035624236
101	0xbb9b7479	-0.004744109
102	0x3e0a0853	0.13479738
103	0x3e2dce69	0.1697327
104	0x3d51ea23	0.05124868
105	0xbc3aa89c	-0.011392739
106	0x3da53d16	0.08068292
107	0xb93597a9	-0.00017318003
108	0x3d5417e9	0.051780615
109	0x3bf8ab26	0.007588762
110	0x3d842d9d	0.064540125
111	0x3d4ba6d0	0.04971963
112	0x3e0cdb60	0.1375556
113	0xbb9713aa	-0.0046104984
114	0x3dbeb6bf	0.093122
115	0x3e36fa43	0.17868905
116	0x3de5fbf4	0.11229697
117	0x3e7bc45f	0.24586628
118	0x3d59f429	0.053211365
119	0xbaa7661c	-0.001277152
120	0xbc0c4ae8	-0.008562781
121	0x3dd35dcf	0.10320627
122	0x3e8bae9b	0.2728165
123	0xb889ad56	-6.5649554e-05
124	0x3ddb4d8a	0.10708149
125	0x3e0b0631	0.1357658
126	0xbaec01bb	-0.0018005887
127	0xba48f527	-0.0007665925
128	0x3e83c5c0	0.2573681
129	0x3e7721e1	0.24134018
130	0xbb940fd4	-0.0045184884
131	0x3ddf84b7	0.10913985
132	0x3d66c92b	0.056344192
133	0xbba7d2a2	-0.005121545
134	0x3d96f3d5	0.07370726
135	0x3d21f143	0.039536726
136	0x3d8f5f02	0.07000543
137	0x3dbdce5d	0.09267876
138	0xbc29f4c2	-0.010373296
139	0x3d86123d	0.065464474
140	0xbb1af9a9	-0.0023647344
141	0xb97145d6	-0.00023009567
142	0xbc234fa1	-0.0099677155
143	0x3d940e7e	0.07229327
144	0xbb1ddc4e	-0.002408761
145	0xb6bf18dc	-5.6951376e-06
146	0xbb0aab79	-0.0021159335
147	0x3e0089d5	0.12552579
148	0x3e6e8178	0.23291576
149	0x3debbc3a	0.11510511
150	0xba90a4db	-0.0011035459
151	0x3e559358	0.20856988
152	0xb9eacbf7	-0.00044783924
153	0xbb591424	-0.0033123577
154	0xbb26744b	-0.0025398906
155	0xbb2189e5	-0.0024648842
156	0xbc1600ba	-0.009155447
157	0xbc069939	-0.008215242
158	0x3d22b0d8	0.039719433
159	0xbab8e796	-0.0014107104
160	0xbb93cefd	-0.004510759
161	0x3cc0f8d7	0.023556156
162	0x3ce77ced	0.028257811
163	0x3da43233	0.08017387
164	0xbbdf1369	-0.006807734
165	0x3d7244f1	0.05914778
166	0xbbaf9c4e	-0.005359209
167	0x3ca8da36	0.020611864
168	0xbbd4b1c5	-0.0064909183
169	0xbb0a659e	-0.0021117697
170	0xb6fcee04	-7.537894e-06
171	0x3dcab392	0.098975316
172	0xbc09e759	-0.008416974
173	0x3d97ad71	0.07406128
174	0x3e3e7ff1	0.18603493
175	0x3e9dde3f	0.30833623
176	0x3e8757dd	0.26434222
177	0x3da0bde1	0.078487165
178	0xbc6cde95	-0.014457365
179	0x3e9d9a49	0.30781773
180	0x3e29e1b7	0.1659001
181	0x3e54b667	0.20772706
182	0xbc78c106	-0.015182739
183	0x3e029620	0.1275258
184	0xba711311	-0.00091962615
185	0x3d96ec8f	0.07369339
186	0xbc86bf2b	-0.016448578
187	0xbb9ea455	-0.0048413672
188	0x3c9a329a	0.018822957
189	0x3ce51d37	0.027968032
190	0xbaac16fd	-0.001312941
191	0xbb6f5859	-0.0036521165
192	0xb9356e69	-0.00017302636
193	0xba919edd	-0.0011109967
194	0x3d8d072f	0.06886136
195	0xbc891a94	-0.016736306
196	0x3d6d1dc6	0.057889722
197	0x3c1e7996	0.009672543
198	0x3bd129f8	0.006383177
199	0xbc5afc7c	-0.013365861
200	0x3e21c1c7	0.15796576
201	0x3c13ac92	0.009013312
202	0x3e291233	0.16510849
203	0xbc31c799	-0.01085081
204	0xbb89a0cd	-0.004200077
205	0x3ce16b3c	0.027516954
206	0xbb0dc6e2	-0.0021633436
207	0xbb803318	-0.003912341
208	0x3de513c5	0.11185411
209	0x3e70a005	0.23498543
210	0x3e1e713c	0.15472883
211	0x3dc91ac8	0.09819561
212	0xbc25c1d2	-0.010117011
213	0x3e1507fb	0.14553826
214	0x3e0ed1c8	0.13947213
215	0x3e1151e1	0.1419139
216	0x3d969732	0.07353057
217	0xb98d930e	-0.0002700318
218	0xba85c0a1	-0.0010204503
219	0x3e1cd120	0.1531415
220	0xbb82f328	-0.0039962716
221	0x3cc4c117	0.024017854
222	0xbaa88d18	-0.0012859432
223	0xbc3edbc3	-0.011649075
224	0x3d4258e9	0.047448073
225	0xbb6f0b11	-0.0036475102
226	0xbbc34a25	-0.0059597665
227	0x3cdc5154	0.026894249
228	0x3d3123a2	0.043246873
229	0x3ce49ebd	0.027907724
230	0xb567a921	-8.630032e-07
231	0xbbb83e3c	-0.0056226533
232	0x3d11477a	0.035468556
233	0xb8a3712c	-7.7935256e-05
234	0xbb73cc7f	-0.0037200747
235	0xbac0cb40	-0.0014709011
236	0xbc0ebeaf	-0.008712455
237	0x3dcc1152	0.09964241
238	0x3dda1803	0.10649111
239	0xb8141255	-3.5303023e-05
240	0xbba5c0e0	-0.005058393
241	0xb42a4c16	-1.5860164e-07
242	0x3da00f97	0.078154735
243	0xb1836fdd	-3.825319e-09
244	0xbba36fa6	-0.0049876748
245	0xb5716f7c	-8.994173e-07
246	0x3d2aebd4	0.04172881
247	0x3bdbf8b1	0.006712996
248	0xbb6b1401	-0.0035870078
249	0x3c33d6d3	0.010976511
250	0x3e403063	0.18768458
251	0xbbf334f2	-0.007422083
252	0x3dada005	0.08477787
253	0x3e04fc4e	0.12986872
254	0xbb836d8d	-0.004010862
255	0xbc4e8189	-0.012604126

allnns.0.2.weight f4 [1696, 8]
0	0x3d3228e1	0.043496016
1	0x3d99de7e	0.0751314
2	0xbd75aba5	-0.059978146
3	0xbe25378a	-0.16134468
4	0x3d597c86	0.05309727
5	0xbcee7fea	-0.029113729
6	0x3cd2521c	0.025673918
7	0xbd69eeec	-0.05711262
8	0xbbc94908	-0.006142739
9	0x3d882143	0.06646969
10	0x3b68cf19	0.003552383
11	0xbdf234c6	-0.11826472
12	0x3d9af056	0.07565372
13	0x3c9a1054	0.018806614
14	0x3d870939	0.06593556
15	0x3e07a547	0.13246642
16	0xbe169821	-0.1470647
17	0x3e86b9a3	0.26313505
18	0xbe0d3c8e	-0.13792631
19	0x3e57450d	0.21022435
20	0xbcb770a3	-0.022392577
21	0x3e1a976c	0.15096825
22	0xbe1e2bae	-0.1544635
23	0x3dd5a31e	0.10431503
24	0xbd804110	-0.0626241
25	0xbe2d65a0	-0.16933298
26	0x3c047ef1	0.008086906
27	0x3dc4c967	0.09608727
28	0x3e121848	0.14267075
29	0xbcebe4e1	-0.028795661
30	0x3e005708	0.125332
31	0x3d8abdde	0.067744955
32	0xbd800e16	-0.06252687
33	0xbd400dcc	-0.046888158
34	0x3e1196b7	0.1421765
35	0xbc5ff2fa	-0.01366877
36	0x3d126aea	0.035746492
37	0xbd9a2835	-0.075272
38	0x3cc6683e	0.024219628
39	0x3cb027c1	0.021503331
40	0xbbe4fdf9	-0.0069882837
41	0xba39a450	-0.00070816744
42	0xbe614069	-0.21997227
43	0xbdc14c49	-0.09438378
44	0x3c8046a7	0.01565869
45	0xbe27339b	-0.1632828
46	0x3c4a2316	0.012337467
47	0xbd73b154	-0.059495285
48	0x3d6d3c1f	0.057918664
49	0x3da07750	0.07835257
50	0x3d00bdd3	0.03143103
51	0x3db3b080	0.08773899
52	0xbe50d415	-0.20393403
53	0xbbfb4f35	-0.0076693543
54	0x3d1d6125	0.038422722
55	0xbe05f8cb	-0.13083188
56	0x3d687b88	0.056758434
57	0xbda5c084	-0.0809336
58	0xbbe6beb7	-0.007041778
59	0x3d36c4dc	0.044621333
60	0x3e0e4792	0.1389449
61	0xbd94be17	-0.07262819
62	0xbd3cc883	-0.04608966
63	0x3e113303	0.14179616
64	0x3c677435	0.014126827
65	0x3cbfeea5	0.023429224
66	0x3cc2a8ad	0.023762072
67	0xbda7733c	-0.08176276
68	0x3dbeb0f0	0.09311092
69	0xbe325eb4	-0.17418939
70	0x3d4a89fa	0.04944799
71	0x3db19547	0.086710505
72	0x3de48fde	0.11160253
73	0xbbac1e90	-0.005252667
74	0xbcff89c3	-0.03119362
75	0x3e12a87e	0.14322087
76	0xbe149290	-0.14509034
77	0xbdc4d453	-0.0961081
78	0xbde4d557	-0.11173504
79	0xbd8fbc64	-0.070183545
80	0xbc1de40d	-0.009636891
81	0xbdb38d79	-0.08767218
82	0xbd949bac	-0.072562546
83	0xbe2d80f7	-0.16943727
84	0x3daf10d7	0.08548134
85	0xbd1bd5ff	-0.03804588
86	0xbd835881	-0.06413365
87	0x3c5320cd	0.012886238
88	0xbdbeebb6	-0.09322302
89	0x3e2e7340	0.17036152
90	0x3e47b80f	0.19503807
91	0xbdf400ad	-0.119141914
92	0xbdec8a0c	-0.11549768
93	0xbd1d0e82	-0.038343914
94	0xbd949e4d	-0.07256756
95	0x3d5327fa	0.051551796
96	0xbdc7d4f5	-0.09757415
97	0xbd8edbaa	-0.06975491
98	0x3dde0ef3	0.10842695
99	0xbc955b76	-0.018232089
100	0xbd6eb0ef	-0.058274206
101	0xbdc55435	-0.09635202
102	0x3cc8d5d1	0.024516018
103	0xbb215c25	-0.0024621573
104	0xbce94746	-0.028476369
105	0xbd9a0c37	-0.07521861
106	0xbce488ce	-0.027897265
107	0x3d071df0	0.032987535
108	0x3dd5bff2	0.10437001
109	0x3d4d9f9e	0.05020105
110	0x3d0a14b6	0.033711158
111	0xbdc8af38	-0.09799045
112	0x3d4419f9	0.047876332
113	0x3d686f2d	0.05674665
114	0xbd55aa28	-0.052164227
115	0x3e74b501	0.23897173
116	0x3d659d70	0.056058347
117	0xbdb57ab2	-0.08861293
118	0xbdb4fa29	-0.08836777
119	0xbd826b77	-0.063681535
120	0xbdb90a7e	-0.09035204
121	0x3c47074d	0.012147737
122	0xbe55d208	-0.20880902
123	0x3e1c9e6b	0.15294807
124	0xbdacffc7	-0.08447223
125	0x3d2134be	0.03935694
126	0xbcdd6513	-0.027025735
127	0xbda57a4f	-0.08079969
128	0x3d8c28da	0.06843729
129	0xbd9e594f	-0.07731878
130	0xbc9ff155	-0.019524256
131	0x3d9afff5	0.07568351
132	0x3dc8418b	0.09778126
133	0xbc90c370	-0.017671317
134	0xbdce83cd	-0.10083733
135	0xbdfa9981	-0.1223631
136	0xbd579ab2	-0.052637763
137	0xbd23c078	-0.039978474
138	0xbcaa5e50	-0.020796925
139	0xbdcb9e13	-0.0994226
140	0x3baf1bd5	0.005343894
141	0x3c87e134	0.016586877
142	0xbdb3322b	-0.08749803
143	0xbdd46da2	-0.10372473
144	0x3b0ba659	0.0021308868
145	0xbba9a751	-0.0051774164
146	0x3d9b212e	0.07574688
147	0xbd256b5e	-0.040385596
148	0xbdf011a4	-0.11722115
149	0xbddb51b3	-0.10708942
150	0x3c523012	0.012828844
151	0xbc5ce32e	-0.013481898
152	0x3d1a8ccf	0.03773194
153	0xbd84eed9	-0.06490869
154	0xbc8be267	-0.01707573
155	0xbdb0c92e	-0.08632122
156	0x3e13266e	0.14370129
157	0x3b512acb	0.0031916376
158	0x3ca3efd0	0.020011812
159	0x3df34ba7	0.11879664
160	0xbd2fc91a	-0.042916395
161	0xbd9f7d26	-0.07787542
162	0xbdb51be8	-0.08843213
163	0x3dbd7ee4	0.09252718
164	0x3d5e43f6	0.05426403
165	0x3dd96e9e	0.10616802
166	0xbad5e79c	-0.0016319635
167	0x3d5b58b5	0.053551394
168	0x3d4229c4	0.047403112
169	0xbb9b5604	-0.0047404785
170	0xbd931109	-0.071809836
171	0x3e0935a9	0.13399376
172	0x3c8eff72	0.01745579
173	0xbe032e95	-0.12810738
174	0xbcb85e44	-0.022505887
175	0x3dddd370	0.10831344
176	0x3dde5304	0.10855678
177	0x3d383767	0.04497471
178	0x3ea770d4	0.3270327
179	0x3e2d5cc5	0.1692992
180	0xbda47ab6	-0.08031218
181	0xbe0db6da	-0.13839284
182	0x3cad0c35	0.021123985
183	0x3e50393e	0.20334336
184	0xbdfb69a5	-0.122760095
185	0x3db9a595	0.090647854
186	0x3d486f25	0.04893412
187	0x3cbdef84	0.023185499
188	0xbda8cd0c	-0.082422346
189	0x3dafee6c	0.08590397
190	0xbd8285ec	-0.063732
191	0x3d93cd3e	0.07216881
192	0x3b8b18c3	0.004244895
193	0x3d40e292	0.047091074
194	0x3dcf4d4e	0.101221666
195	0x3d494716	0.04914006
196	0x3bca2de3	0.006170021
197	0xbd6d0832	-0.057869144
198	0x3d9a8b31	0.0754608
199	0x3c9d613b	0.019211402
200	0x3c95e60a	0.018298168
201	0x3e0490e0	0.1294589
202	0xbda53604	-0.08066943
203	0x3dd3d3f0	0.10343158
204	0xbd3f9911	-0.046776835
205	0x3df9fea2	0.122067705
206	0x3d4ed4de	0.050495975
207	0xbd5c317b	-0.053758126
208	0x3d6cd676	0.057821713
209	0xba39b4cf	-0.00070841325
210	0x3d463088	0.048386127
211	0x3b08aea8	0.0020856056
212	0x3cca85c3	0.024721986
213	0xbb21bffb	-0.002468108
214	0xbcea67eb	-0.028614005
215	0xbc4a33d5	-0.012341459
216	0xbd853114	-0.065035015
217	0xbd88d330	-0.06680906
218	0x3e0078a5	0.12546022
219	0x3e344986	0.17606172
220	0x3dca1c55	0.09868685
221	0x3dd534f8	0.104104936
222	0xbe252398	-0.16126859
223	0x3e219eee	0.15783283
224	0xbe21bb6b	-0.1579415
225	0xbd28c26d	-0.041201044
226	0xbdc385cc	-0.09547004
227	0x3dc6418f	0.09680473
228	0xbe54fe80	-0.20800209
229	0xbd809ccc	-0.06279907
230	0xbe05d7c0	-0.13070583
231	0xbe0f0f8f	-0.13970779
232	0xbd9b355b	-0.07578536
233	0x3ddf53c5	0.1090465
234	0xbd73c758	-0.05951628
235	0x3c6093de	0.013707129
236	0xbe3ddec8	-0.18542016
237	0x3dfb55c2	0.122722164
238	0x3c672cdd	0.014109817
239	0xbe181168	-0.1485039
240	0x3d38d775	0.04512735
241	0x3c7e87af	0.015535279
242	0x3e4626e3	0.19350772
243	0xbc94e142	-0.018173818
244	0xbe19490f	-0.14969276
245	0xbd25b5e7	-0.04045668
246	0x3d2c7198	0.04210052
247	0x3ca2122c	0.019784056
248	0xbdae20db	-0.085023604
249	0x3d79c76f	0.06098121
250	0x3d25fdbc	0.040525183
251	0x3decc107	0.115602545
252	0xbdb9dea6	-0.0907567
253	0xbd72ba63	-0.059259783
254	0x3dcc6737	0.09980624
255	0xbd28b249	-0.04118565

allnns.0.2.bias f4 [1696]
0	0xbea52c09	-0.3226016
1	0x3e6af2ba	0.22944155
2	0xbd3847b9	-0.044990275
3	0xbe5251a3	-0.20538954
4	0xbe77be74	-0.24193746
5	0xbe43b441	-0.1911173
6	0xbe9a6ea7	-0.30162546
7	0xbe4ab26b	-0.19794624
8	0xbe184e0f	-0.14873527
9	0xbe812c8b	-0.25229296
10	0x3e5962a0	0.21229029
11	0x3ded3993	0.11583247
12	0x3e3d3951	0.18478896
13	0xbe4b2d95	-0.19841607
14	0x3d80b5a7	0.062846474
15	0x3e118d23	0.14213996
16	0x3e0303bc	0.12794393
17	0xbd27c9c5	-0.040963907
18	0x3e0aeaf3	0.13566189
19	0xbe986304	-0.29763043
20	0x3e098a9d	0.13431783
21	0xbd035a42	-0.0320685
22	0x3ead3b2a	0.338342
23	0xbe0ac6b6	-0.13552365
24	0xbda1197c	-0.07866189
25	0xbe16a851	-0.14712645
26	0x3def7be1	0.1169355
27	0xbe59bdf4	-0.21263868
28	0x3e85337c	0.26015842
29	0x3e80513b	0.25061974
30	0x3e33b77f	0.17550467
31	0x3c788d2c	0.015170377
32	0x3e2f41f0	0.17114997
33	0x3daebdc3	0.08532288
34	0xbe98d6d9	-0.29851416
35	0x3de13309	0.10996062
36	0x3ced9aa7	0.029004408
37	0xbe5547a6	-0.20828113
38	0xbd79385b	-0.06084476
39	0xbd8646ad	-0.06556449
40	0x3df73602	0.12070848
41	0x3eaec3a2	0.3413363
42	0xbcdad3e7	-0.026712371
43	0xbd94a292	-0.0725757
44	0x3df9ad48	0.12191254
45	0x3e1d716a	0.15375295
46	0xbe788e4f	-0.24273036
47	0x3cac873e	0.021060582
48	0x3d827b77	0.06371205
49	0xbe880be3	-0.2657157
50	0x3d79b2af	0.06096142
51	0x3e6ce5bd	0.23134513
52	0xbe6a1bba	-0.2286214
53	0xbeb26366	-0.3484146
54	0x3d7910f6	0.06080719
55	0x3d575a99	0.052576635
56	0xbc587d0b	-0.013213406
57	0x3ccc426b	0.024934014
58	0xbe140862	-0.14456323
59	0x3e75385e	0.23947284
60	0x3e5ad3d6	0.21369871
61	0xbeb3b29b	-0.35097203
62	0xbe2cc5f5	-0.1687239
63	0xbe9ee973	-0.31037483
64	0x3e2b1caa	0.16710153
65	0xbd2c62f4	-0.042086557
66	0xbda6bb97	-0.08141249
67	0x3db45be9	0.08806593
68	0x3d6d34ca	0.05791167
69	0x3e4fb142	0.20282462
70	0xbe93bf1b	-0.2885674
71	0xbe313abc	-0.17307562
72	0xbeb88075	-0.36035505
73	0x3e558ee2	0.20855287
74	0x3d5d0579	0.053960297
75	0x3cc3f187	0.02391888
76	0x3dfc88f5	0.1233081
77	0x3e5bbd7f	0.21459006
78	0xbe6b90f3	-0.23004512
79	0xbe7b7e91	-0.2456
80	0x3e368184	0.17822844
81	0x3e9451ab	0.28968558
82	0xbe7fdd44	-0.2498675
83	0xbe4c1b10	-0.19932199
84	0xbe2d59cb	-0.16928785
85	0x3dca7aab	0.09886678
86	0x3e586e8f	0.21135925
87	0xbe0b61b5	-0.13611491
88	0x3e455102	0.19269183
89	0xbe94364c	-0.28947675
90	0xbcf4e14c	-0.029892586
91	0xbd37acc0	-0.04484248
92	0x3daca8bb	0.0843062
93	0x3e1ad336	0.15119633
94	0x3e3c8265	0.18409117
95	0xbe649805	-0.22323616
96	0x3d6bbcc6	0.057553075
97	0xbe9b0dae	-0.30283874
98	0xbd4c99a6	-0.049951218
99	0x3dec4a41	0.115376
100	0x3eafadd2	0.34312302
101	0x3e5bd3eb	0.21467559
102	0xbd3d2ab3	-0.0461833
103	0x3df3efd7	0.1191098
104	0x3e274d16	0.16338
105	0xbe74f161	-0.23920204
106	0x3e0fe649	0.1405269
107	0x3e4bcfb5	0.19903453
108	0x3e82ff9c	0.2558564
109	0xbe7b0875	-0.24514945
110	0x3ea6a912	0.32550865
111	0x3e6df27b	0.2323703
112	0x3c993607	0.01870252
113	0xbe809864	-0.25116265
114	0x3e809c19	0.25119093
115	0x3e2e7650	0.1703732
116	0xbe251db1	-0.16124608
117	0x3e3571fe	0.17719266
118	0x3d0db07a	0.03459213
119	0x3cc10068	0.023559764
120	0x3cf2e98e	0.029652383
121	0x3c9c6026	0.019088816
122	0xbe3bcc1e	-0.18339583
123	0x3dff52c8	0.12466961
124	0x3e580a3d	0.21097656
125	0xbea32cfb	-0.31870255
126	0x3e2e90e9	0.17047466
127	0xbe499a41	-0.1968775
128	0x3dba0e0e	0.09084712
129	0xbc18ddc3	-0.009330216
130	0xbd7401dd	-0.05957209
131	0x3cc669f2	0.02422044
132	0x3d05b17e	0.032639973
133	0xbbaa4dbc	-0.005197255
134	0x3e5b8306	0.214367
135	0xbeaed220	-0.34144688
136	0x3e5a6023	0.21325736
137	0x3deaefe3	0.11471536
138	0xbd13fc12	-0.036129065
139	0xbd676efb	-0.056502324
140	0xbdeb7b96	-0.114981815
141	0xbe2e7386	-0.17036256
142	0x3cd1ae9b	0.025595954
143	0xbe9d8e74	-0.30772746
144	0xbdbc4a32	-0.09193839
145	0x3bd39ff5	0.0064582773
146	0x3e0a2d67	0.13493882
147	0x3e54e24d	0.20789452
148	0x3e30e82f	0.17276071
149	0xbea6d1ac	-0.32581842
150	0xbcf5f4d3	-0.030023968
151	0x3dc49ef7	0.09600633
152	0x3e855758	0.260432
153	0xbdf8093f	-0.121111386
154	0xbe6f0235	-0.23340686
155	0x3e99ce46	0.30040187
156	0x3dabd202	0.08389665
157	0xbd70572b	-0.05867688
158	0x3cbb766a	0.022883613
159	0x3d27967e	0.040915005
160	0x3eb345f6	0.35014313
161	0x3df9face	0.1220604
162	0xbda1bf20	-0.07897782
163	0x3e15babb	0.14622013
164	0xbcc6ad28	-0.02425249
165	0xbeb7665c	-0.35820282
166	0xbe07f3ea	-0.1327664
167	0x3d8bcdb1	0.06826342
168	0x3ccc5ac3	0.024945622
169	0xbe544b27	-0.20731793
170	0x3e2d0998	0.16898191
171	0xbe8f6b22	-0.28011423
172	0xbe3af7d9	-0.18258609
173	0xbe6f22ae	-0.23353073
174	0x3c568d48	0.0130952075
175	0x3e59923e	0.21247193
176	0x3e253649	0.1613399
177	0xbea4c98e	-0.32185024
178	0xbe4ee1d9	-0.20203342
179	0x3e6125ca	0.21987072
180	0xbe02cad2	-0.12772682
181	0xbd941e76	-0.072323725
182	0xbda42132	-0.08014144
183	0xbe63fb4a	-0.22263828
184	0x3d621483	0.055195343
185	0x3e93b1e0	0.28846645
186	0x3e6f13db	0.23347418
187	0x3e5b1a3d	0.21396728
188	0x3e00b6d8	0.1256975
189	0x3e36e253	0.17859773
190	0x3dc271c3	0.094943546
191	0xbd8a670b	-0.06757935
192	0xbe812875	-0.2522618
193	0x3eb99d8d	0.36253014
194	0x3e150792	0.14553669
195	0xbea09793	-0.31365642
196	0x3e3a3a8e	0.181864
197	0xbd0da7be	-0.0345838
198	0xbdf1d5af	-0.11808335
199	0xbebb5e02	-0.3659516
200	0xbe22ee93	-0.15911321
201	0xbe848105	-0.25879684
202	0xbc9f95e7	-0.019480659
203	0x3de91488	0.11380869
204	0xbe3d6ec2	-0.18499282
205	0x3da63ff7	0.08117669
206	0x3e99f753	0.30071506
207	0xbe84c7ae	-0.25933594
208	0xbe4862dc	-0.19568962
209	0x3dee3bbe	0.11632489
210	0x3e245746	0.16048917
211	0xbd0b0d80	-0.03394842
212	0xbd9c2e82	-0.07626058
213	0x3e64c384	0.22340208
214	0x3dbc6eb1	0.092008
215	0x3eb4c543	0.3530675
216	0xbe57806e	-0.21045086
217	0xbe515501	-0.20442583
218	0x3dd525bc	0.10407588
219	0x3e208032	0.15673903
220	0xbe94d88b	-0.2907146
221	0xbe0f190f	-0.13974403
222	0x3ea860e6	0.32886428
223	0xbd3eb0b8	-0.04655525
224	0x3e43712c	0.1908614
225	0x3d635dad	0.055509258
226	0xbe53fb53	-0.20701341
227	0x3bd77b3b	0.0065759695
228	0x3dd72d43	0.1050668
229	0x3d461abf	0.04836535
230	0xbe112e4a	-0.14177814
231	0xbe61d38a	-0.22053352
232	0x3e28bbbc	0.16477865
233	0x3e8ad7e4	0.27117836
234	0x3e1638e2	0.14670137
235	0xbe488364	-0.19581372
236	0xbd82d571	-0.06388367
237	0x3dffb90c	0.12486467
238	0x3ddfc21b	0.109256946
239	0xbe3d4813	-0.18484525
240	0x3d7616a1	0.060080174
241	0x3eade84f	0.339663
242	0xbe2281d4	-0.15869838
243	0x3d94fd62	0.072748914
244	0x3d620603	0.055181514
245	0x3e7c0a13	0.24613218
246	0x3e8bee00	0.27330017
247	0x3e9dfb7d	0.30855933
248	0x3df110f1	0.117708094
249	0x3e8a7ec2	0.27049834
250	0x3d02bdc6	0.031919263
251	0x3be862b2	0.0070918435
252	0xbbb9f485	-0.005674901
253	0x3c8df91a	0.017330695
254	0xbe7e8cde	-0.24858424
255	0x3eb5a1a8	0.35474896

allnns.1.0.weight f4 [8, 53]
0	0x3da2c0b0	0.079469085
1	0xbc69af6b	-0.014263014
2	0x3e1ecf19	0.15508689
3	0xb9ae9917	-0.00033301927
4	0x3dbc4de5	0.09194545
5	0x3e27a099	0.16369857
6	0xb7daae13	-2.6068685e-05
7	0xbc4205b9	-0.011842185
8	0x3ce07718	0.027400538
9	0xbbfbbbab	-0.007682284
10	0x3d477f4a	0.048705377
11	0x3d91f58b	0.07126912
12	0xbad0f53c	-0.0015942226
13	0x3df990e2	0.12185837
14	0xbbb0729e	-0.005384757
15	0xbba78228	-0.0051119514
16	0x3e4dbb53	0.2009099
17	0xbc53089a	-0.012880469
18	0x3e0c3bd8	0.13694704
19	0x3e687cee	0.22703907
20	0xb9eb07c4	-0.0004482848
21	0x3dc3bf53	0.095579766
22	0x3e08c0a0	0.1335473
23	0x3de29e17	0.110653095
24	0xb4e7e99f	-4.3197085e-07
25	0x3c7ff53f	0.015622436
26	0xba461084	-0.00075555616
27	0x3b8a17ef	0.004214279
28	0x3d738a59	0.05945811
29	0x3e1a865b	0.15090315
30	0xbbaeb06b	-0.0053310893
31	0x3df98dcb	0.12185248
32	0xbb3d05ad	-0.0028842494
33	0xbba1ecb1	-0.004941546
34	0xb28b4271	-1.6211944e-08
35	0x3d56fd78	0.05248782
36	0x3e3294ad	0.17439528
37	0x3e05ea82	0.13077739
38	0xb868f5a2	-5.5541874e-05
39	0xbc4034f2	-0.011731373
40	0xbb2e3ee8	-0.0026587788
41	0x3b41f71f	0.0029596759
42	0x3b13a0de	0.0022526304
43	0x3d5b1998	0.053491205
44	0x3db42394	0.087958485
45	0x3cfc62c9	0.030808823
46	0x3da14439	0.078743406
47	0x3d9a1e01	0.07525254
48	0x3d74448d	0.059635688
49	0xba847841	-0.0010106639
50	0x3d2bb962	0.04192484
51	0xb80c0747	-3.338538e-05
52	0xb884587a	-6.3107305e-05
53	0xbb2e3ff4	-0.0026588412
54	0x3d28b5df	0.04118907
55	0x3d5b7c94	0.053585604
56	0xbaef0094	-0.0018234425
57	0xb392d73e	-6.837807e-08
58	0x3e04a0db	0.12951986
59	0x3d0d16fa	0.03444574
60	0xbbbdb639	-0.005789545
61	0xbbd06eac	-0.0063608494
62	0xba9067bf	-0.0011017247
63	0x3cfd8eb3	0.030951833
64	0x3db5e4f0	0.08881557
65	0xbb85f572	-0.0040880973
66	0x3df34171	0.11877716
67	0x3def4843	0.11683705
68	0x3de4051f	0.11133789
69	0x3deb9ae2	0.11504151
70	0x3da00d96	0.07815091
71	0x3d472b42	0.04862524
72	0x3e48dcf6	0.1961554
73	0xbbc1fd1b	-0.005920065
74	0xb9c9004c	-0.0003833793
75	0xaa3ed2fa	-1.6948587e-13
76	0xbbbba858	-0.0057268552
77	0x3dbc7b98	0.09203261
78	0x3d667ea9	0.056273136
79	0x3d824454	0.06360689
80	0x3df404de	0.11914991
81	0x3dfe470e	0.12415896
82	0xb4f7ccfc	-4.615648e-07
83	0x3d582693	0.052771162
84	0x3db5d38c	0.0887824
85	0xb7c27b87	-2.3184124e-05
86	0xbb0813dc	-0.002076379
87	0xb0f72c5f	-1.7984226e-09
88	0xbac3af11	-0.0014929493
89	0x3d96151e	0.073282465
90	0xb7dd5917	-2.6386739e-05
91	0x3d6d1e46	0.0578902
92	0xbba79ed4	-0.0051153693
93	0x3dc72996	0.09724729
94	0x3e3d37b2	0.18478277
95	0x3df9ec05	0.1220322
96	0x3e1ee03a	0.15515223
97	0xba64436a	-0.0008707555
98	0x3db3026c	0.08740696
99	0x3dc824a6	0.09772615
100	0x3e31e36d	0.17371912
101	0x3d32cdc5	0.04365327
102	0xabafc223	-1.2488382e-12
103	0x3db4194d	0.08793888
104	0xb82d6cb6	-4.134766e-05
105	0x3c6f5726	0.01460818
106	0x3d15e6df	0.03659713
107	0x3da93e57	0.082638435
108	0xbcb598cd	-0.022167588
109	0x3e044bf8	0.12919605
110	0x3cffac81	0.031210186
111	0x3de14f4b	0.11001452
112	0xb89ac610	-7.380184e-05
113	0x3da3c184	0.079958946
114	0x3d9d3a0c	0.07677087
115	0x3dbff5c8	0.09373051
116	0x3d8b26ac	0.067944854
117	0x3dc8ab39	0.09798283
118	0x3dc2b5df	0.095073454
119	0x3ce52161	0.027970018
120	0x3c935f73	0.01798985
121	0x3e2fa03a	0.17150965
122	0x3e5cc583	0.2155972
123	0x3e6596b2	0.22420767
124	0x3e250fc4	0.16119295
125	0x3e34be1a	0.17650643
126	0x3e663145	0.22479732
127	0x3e275641	0.16341497
128	0x3e5a432e	0.2131469
129	0x3e1f9042	0.15582374
130	0x3df33778	0.11875814
131	0xbb966c92	-0.0045905793
132	0x3dafe01c	0.08587667
133	0xba0261b4	-0.00049736653
134	0x3da1c504	0.07898906
135	0x3bc740fe	0.0060807457
136	0xbb0293d3	-0.0019924536
137	0x3dbf68ba	0.09346147
138	0xbac0eead	-0.0014719568
139	0x3dc49781	0.095992096
140	0xbb32ba44	-0.0027271667
141	0xb94bb0f3	-0.00019425507
142	0x3dd098d9	0.101854034
143	0x3dcc0bbf	0.09963178
144	0xbb21ae5f	-0.0024670584
145	0xb5c2b641	-1.4507169e-06
146	0xba2f0db6	-0.00066777633
147	0xbc33a7d0	-0.010965303
148	0x3d2c8215	0.042116243
149	0x3da639ae	0.0811647
150	0xba36eb12	-0.0006977777
151	0xbbb9da21	-0.005671755
152	0xbb2a1b62	-0.0025956263
153	0xbb5cb912	-0.0033679646
154	0xac180697	-2.1604157e-12
155	0x3cf6fb63	0.030149167
156	0x3da9cdc4	0.082912
157	0x3d8e7cd7	0.06957405
158	0x3dc42187	0.09576707
159	0xbb69aaa0	-0.003565468
160	0xbc24d92b	-0.0100615425
161	0x3da15a57	0.07878559
162	0xb684c655	-3.9569954e-06
163	0x3d18f6bc	0.03734468
164	0xbad3556d	-0.0016123481
165	0x3c85375d	0.01626175
166	0xb988208b	-0.00025964188
167	0x3dc164ee	0.09443079
168	0x3cf4b48b	0.029871246
169	0x3e007150	0.12543225
170	0x3d6e19d3	0.058130097
171	0x3e3a61eb	0.18201415
172	0x3dc5cdb6	0.09658377
173	0xbab42aff	-0.0013745724
174	0xbc30775e	-0.010770647
175	0x3e5f29c1	0.21793272
176	0x3e5495eb	0.20760314
177	0xbb01af15	-0.0019788195
178	0x3e94a93a	0.2903536
179	0x3e82240d	0.2541813
180	0xbb46b6d9	-0.0030321388
181	0xb284b44f	-1.5448817e-08
182	0x3e64802c	0.22314519
183	0x3e0e50ea	0.13898054
184	0xba998003	-0.0011711124
185	0xbbc858a3	-0.006114082
186	0x3c99dfaa	0.01878341
187	0xaef4a35f	-1.1124856e-10
188	0x3d9686d6	0.07349937
189	0xba3c56fe	-0.00071845937
190	0x3e132467	0.14369355
191	0x3d9823dd	0.074287154
192	0x3e00d10e	0.12579748
193	0x3d0635c1	0.032766107
194	0xbbadcdb9	-0.005304065
195	0xbb2fd086	-0.002682717
196	0xb7568ef3	-1.2788677e-05
197	0xb235ba19	-1.05779e-08
198	0xac3130a7	-2.518022e-12
199	0xba2b7197	-0.00065400585
200	0x3e151c1c	0.14561504
201	0xb8ae159b	-8.300991e-05
202	0x3df2a87a	0.118485406
203	0xbc040e26	-0.008060014
204	0xba90549d	-0.0011011545
205	0xbb8f8e9a	-0.004381013
206	0xba418bfe	-0.0007383226
207	0xb892ec16	-7.005797e-05
208	0xbb7c9dc3	-0.0038546182
209	0x3e4237cb	0.18966596
210	0xbae09111	-0.0017133077
211	0x3dc8a1f7	0.09796517
212	0x3daafa99	0.08348579
213	0x3cbaf53d	0.022822017
214	0xbbaf53fc	-0.005350588
215	0xbc227c9e	-0.009917406
216	0xb3623057	-5.266369e-08
217	0x3c7bbe0f	0.015365138
218	0x3df7ace7	0.120935254
219	0xbb4cd6cc	-0.0031255959
220	0xbbb3b610	-0.00548435
221	0x3e30eecb	0.17278592
222	0xb8328613	-4.2563373e-05
223	0x3e049ef4	0.12951261
224	0xb8f23309	-0.00011548965
225	0xb20af465	-8.088226e-09
226	0xbb96338c	-0.0045837816
227	0xba1d2128	-0.00059940154
228	0x3df0300c	0.11727914
229	0xba2cccb0	-0.000659178
230	0xba69b686	-0.0008915443
231	0x3e32dc5e	0.17466876
232	0xb9d39ae5	-0.00040360462
233	0xbae1acbc	-0.0017217617
234	0x3e33ebb2	0.1757038
235	0x3e5dae3d	0.21648498
236	0x3e306a16	0.17227969
237	0xbaea00b5	-0.0017852994
238	0xb7ad1801	-2.0634385e-05
239	0xbae503c0	-0.0017472431
240	0x3d09a720	0.03360665
241	0xb974fb4e	-0.00023363272
242	0xbbd5ab1d	-0.0065206424
243	0x3d5cda7d	0.053919304
244	0xbb7f8bd6	-0.003899326
245	0xada68211	-1.8929776e-11
246	0x3de38297	0.111088924
247	0x3d32bfff	0.043640133
248	0xbc0cb069	-0.008586981
249	0xba027a5a	-0.0004977338
250	0xb5b2bfac	-1.3317817e-06
251	0xbaa2829e	-0.0012398546
252	0xbb051253	-0.0020305112
253	0xbb16b184	-0.002299399
254	0xba6a8848	-0.0008946699
255	0x3d91a3b6	0.071113035

allnns.1.2.weight f4 [1024, 8]
0	0x3b9534e1	0.004553423
1	0x3ce748f6	0.028233033
2	0x3e16ef39	0.14739694
3	0xbcb13bda	-0.021634985
4	0x3d6a87a1	0.057258252
5	0x3cf6f5f3	0.030146575
6	0xbd53091d	-0.051522363
7	0x3bfef047	0.007780108
8	0xb986ed2f	-0.00025735187
9	0x3c8bdf87	0.01707436
10	0xbd90b1ef	-0.07065188
11	0x3d134780	0.03595686
12	0xbccdac32	-0.025106523
13	0x3d8d061c	0.06885931
14	0x3df6bd6b	0.12047847
15	0x3d004433	0.03131504
16	0x3c1429d9	0.00904318
17	0xbcdc62cb	-0.026902577
18	0x3df5894b	0.11989077
19	0x3c871fae	0.016494598
20	0x3c7937dd	0.015211073
21	0x3c9874e1	0.01861042
22	0xbd0d4527	-0.034489777
23	0x3ca25167	0.019814206
24	0x3e2c0030	0.16796947
25	0x3ca6ceaa	0.020362217
26	0xbe454b4a	-0.19267002
27	0x3c105a5a	0.008810604
28	0x3db6b41a	0.089210704
29	0xbdbd3a8a	-0.09239681
30	0xbe6a1362	-0.22858956
31	0xbe43a2ee	-0.19105121
32	0xbcfc9649	-0.03083338
33	0xbd91810f	-0.07104694
34	0xbd858286	-0.06519036
35	0xbdff56ed	-0.12467752
36	0xbe06a00d	-0.13146992
37	0x3ca19973	0.01972649
38	0x3a822a8d	0.0009930894
39	0xbe192bb0	-0.14958072
40	0xbe160264	-0.1464935
41	0xbd5eb559	-0.054372165
42	0x3c394e2d	0.011310142
43	0xbd5e265b	-0.054235797
44	0xbd46d667	-0.048544314
45	0xbda845c1	-0.082164295
46	0xbc8d386e	-0.017238822
47	0xbd5a55eb	-0.053304594
48	0xbdf22948	-0.1182428
49	0x3d654453	0.055973362
50	0xbd6616d0	-0.0561741
51	0xbdb0e5ea	-0.086376026
52	0xbdfc5b0b	-0.123220526
53	0xbd2eae14	-0.042646483
54	0x3d3b8d42	0.04578901
55	0xbc0d52c1	-0.008625687
56	0x3df824f8	0.12116426
57	0xbde7eb26	-0.11324148
58	0xbc8d8432	-0.01727495
59	0xbba2531a	-0.004953754
60	0xbcb6ca30	-0.022313207
61	0x3dec0d48	0.11525971
62	0xbbb8961f	-0.00563313
63	0xbe070c1d	-0.13188215
64	0x3d1945e1	0.037420157
65	0xbc4099ae	-0.01175539
66	0xbe069f38	-0.13146675
67	0x3d328c17	0.04359063
68	0x3cee3751	0.029079111
69	0xbca70e94	-0.020392694
70	0xbddcb5bf	-0.10776853
71	0xbd116b7e	-0.035502903
72	0xbe05636b	-0.13026206
73	0xbcb424c2	-0.021990184
74	0x3bac8622	0.0052650133
75	0xbd3a4530	-0.04547614
76	0xbd99cc46	-0.07509665
77	0x3d078146	0.03308227
78	0x3cd6b098	0.026207253
79	0xbde4eeaa	-0.11178334
80	0x3e0da21c	0.13831371
81	0x3da8c4ad	0.08240638
82	0xbc52bf8d	-0.012863052
83	0xbe095f15	-0.13415177
84	0xba8432f9	-0.0010085992
85	0x3cc8972e	0.02448615
86	0xbc9cea59	-0.019154714
87	0x3d27f528	0.041005284
88	0xbc9ab760	-0.018886268
89	0x3d35b2fd	0.04436015
90	0xbc825b95	-0.01591281
91	0xbd38d987	-0.045129325
92	0xbdc4413b	-0.09582754
93	0x3c9fe6bd	0.019519204
94	0xbdf4f6f4	-0.11961165
95	0x3dd86591	0.10566247
96	0xbaab98bc	-0.0013091783
97	0xbd8823a7	-0.06647425
98	0xbdc25dca	-0.09490545
99	0x3d2c7d5a	0.042111732
100	0x3c7eb2a6	0.015545523
101	0xbd3d5e1c	-0.046232328
102	0xbd8f4248	-0.06995064
103	0xbd830f1c	-0.06399366
104	0x3dd6a84b	0.10481318
105	0xbd1f3361	-0.038867358
106	0x3d82ba0a	0.063831404
107	0xbbb3427b	-0.0054705716
108	0xbd659410	-0.056049407
109	0xbd97c48d	-0.07410536
110	0xbd3f8949	-0.046761785
111	0xbe212c76	-0.15739617
112	0xbe511fee	-0.20422336
113	0xbdaaf102	-0.0834675
114	0xbd713988	-0.058892757
115	0xbe88f09c	-0.2674607
116	0xbdd3aa29	-0.1033519
117	0xbd9f1668	-0.077679455
118	0x3d84f33c	0.06491706
119	0xbcc1924a	-0.023629326
120	0xbd858b95	-0.06520764
121	0xbc2a67c5	-0.010400717
122	0xbc4a4e79	-0.012347811
123	0xbc9d801b	-0.019226125
124	0xbd3d2ab5	-0.046183307
125	0xbb237540	-0.0024941713
126	0x3c2b3c9a	0.01045146
127	0x3cb8e633	0.022570705
128	0xbe49a0f7	-0.1969031
129	0xbdb87b39	-0.09007878
130	0xbde99a18	-0.11406344
131	0xbd755eaf	-0.05990475
132	0xbbf042f0	-0.0073321983
133	0xbdd97231	-0.106174834
134	0xbd6f9072	-0.058487363
135	0x3d9450b0	0.072419524
136	0x3dc6b964	0.09703329
137	0x3c5299c5	0.012854044
138	0x3e3fcff2	0.18731669
139	0xbdd4861d	-0.103771426
140	0x3a7bff48	0.000961293
141	0x3d1077c9	0.035270486
142	0x3d9a909f	0.075471155
143	0x3d4d1aac	0.050074264
144	0xbe325406	-0.17414865
145	0x3df28588	0.11841875
146	0xbc0532a2	-0.008129748
147	0xbd48f91c	-0.049065694
148	0x3b0982a5	0.0020982411
149	0xbc4d6c14	-0.012537975
150	0x3b925626	0.004465836
151	0xbcd21f07	-0.02564956
152	0x3da0e773	0.078566454
153	0xbd9b9367	-0.07596474
154	0xbd752598	-0.059850305
155	0x3deb933b	0.11502691
156	0x3c42bd6e	0.011885984
157	0x3cde2d64	0.027121253
158	0xbe139e67	-0.14415894
159	0xbd472a48	-0.048624307
160	0xbd13c674	-0.03607793
161	0xbc7f6c08	-0.0155897215
162	0x3d3acef0	0.045607507
163	0x3dc24ef7	0.094877176
164	0x3d4be976	0.049783193
165	0xbd270af3	-0.040781926
166	0xbd9bf036	-0.07614176
167	0x3d31acd1	0.0433777
168	0x3d20be8e	0.039244227
169	0x3b87955d	0.0041376785
170	0x3dd3a9b1	0.103351004
171	0x3dbee87a	0.09321685
172	0x3d1cb0fb	0.03825472
173	0x3da46576	0.08027165
174	0x3cceb5bb	0.02523314
175	0x3c62ce71	0.013843165
176	0x3cbbf5e1	0.022944393
177	0x3cb509d7	0.022099419
178	0xbd0ba5a5	-0.034093518
179	0x3a47dc11	0.000762404
180	0xbca73293	-0.020409858
181	0x3c1a7daa	0.009429375
182	0x3d31ca3d	0.04340576
183	0x3c54a9f1	0.01297997
184	0xbc8d1e00	-0.01722622
185	0xbd581f8d	-0.052764464
186	0xbda92219	-0.08258457
187	0xbd98b2ea	-0.07456
188	0x3db26b72	0.087119
189	0xbd4db621	-0.05022252
190	0xbd050bc7	-0.032481935
191	0xbd6e9ed9	-0.058256958
192	0xba8ac4b9	-0.0010587192
193	0x3cb32821	0.02186972
194	0x3dbce3af	0.09223115
195	0x3c11d531	0.008900926
196	0x3c8f4c52	0.017492447
197	0xbd9b17ce	-0.075729
198	0x3e444d83	0.19170193
199	0x3d94bc1f	0.07262444
200	0x3cbd5bce	0.023115065
201	0xbd9c1836	-0.07621805
202	0x3df35adb	0.11882564
203	0xbdfdfacd	-0.12401352
204	0xbd40d9d5	-0.04708274
205	0x3d139045	0.036026258
206	0x3d7a70bc	0.061142668
207	0xbc1a282c	-0.009408992
208	0x3aff5cf8	0.0019482663
209	0xbca7507a	-0.020424116
210	0xbe2673e4	-0.16255146
211	0x3cb6c481	0.022310497
212	0x3c889942	0.016674642
213	0xbc1e5a33	-0.00966506
214	0xbcdeb656	-0.027186554
215	0x3ceb00dd	0.028686935
216	0x3d74794c	0.05968599
217	0xbbb8d15b	-0.0056401915
218	0xbd5f2ef4	-0.054488137
219	0x3cded258	0.02719991
220	0x3aa9e88f	0.0012962985
221	0xbd0b2f57	-0.033980694
222	0x3e14671f	0.14492463
223	0xbd643759	-0.055716846
224	0x3d9fd86c	0.07804951
225	0xbd14f8d9	-0.036370132
226	0x3ca839c7	0.020535363
227	0x3ca40447	0.02002157
228	0x3deb4d0e	0.114893064
229	0x3ca5cb50	0.020238549
230	0x3c804922	0.015659872
231	0x3dc0dc10	0.094169736
232	0xbdf19c66	-0.11797409
233	0x3c525e43	0.012839857
234	0x3cee31ea	0.029076535
235	0x3e05088b	0.1299154
236	0x3d0e8600	0.03479576
237	0xbd48c882	-0.049019344
238	0x3ce7871e	0.028262671
239	0xbd0a05fa	-0.033697106
240	0xbca5cae0	-0.02023834
241	0xbc1633ab	-0.009167592
242	0xbd401e9b	-0.046904188
243	0xbc9159bc	-0.017742984
244	0xbc8c54b8	-0.01713024
245	0x3bb51f9c	0.00552745
246	0xbbd65dc7	-0.006541941
247	0xbc6389b5	-0.013887812
248	0xbc9848a1	-0.01858932
249	0xbdeddf79	-0.1161489
250	0xbde2628b	-0.11053952
251	0xbd576cdf	-0.052594062
252	0xbc977d1c	-0.018492274
253	0xbc93140d	-0.017953897
254	0xbe0c4f14	-0.13702041
255	0xbc74df47	-0.014945812

allnns.1.2.bias f4 [1024]
0	0xbc9d1b78	-0.019178137
1	0x3dd0b44a	0.101906374
2	0xbddc8d53	-0.10769143
3	0xbc6c48ae	-0.014421625
4	0x3e60e5a7	0.21962605
5	0xbdec0b60	-0.11525607
6	0x3e3be99a	0.1835083
7	0xbe91d88f	-0.28485534
8	0xbd5cf96e	-0.053948812
9	0xbea6fd88	-0.32615304
10	0x3d2c7917	0.042107668
11	0x3da282ce	0.07935105
12	0xbe8f1173	-0.27943
13	0xbdd2ccef	-0.10292994
14	0x3e5dd32a	0.21662584
15	0x3ddf13e2	0.10892464
16	0x3e5f8dc5	0.21831425
17	0x3c85c6d8	0.016330168
18	0xbdd86b7e	-0.105673775
19	0xbd642b27	-0.055705216
20	0xbe8224c1	-0.25418666
21	0xbe3cf590	-0.1845305
22	0x3c45b020	0.012065917
23	0xbe67278f	-0.22573684
24	0xbc4e7f44	-0.012603585
25	0x3d62cf9f	0.055373784
26	0x3ead6521	0.33866218
27	0xbdf36529	-0.11884529
28	0x3e04e2d1	0.12977149
29	0xbcb33552	-0.021876011
30	0x3e3c7bd4	0.18406612
31	0xbb945d53	-0.0045277267
32	0x3d32c1ff	0.04364204
33	0x3ea04817	0.31305
34	0xbdee8410	-0.11646283
35	0x3dad0528	0.08448249
36	0x3e5e208c	0.21692103
37	0x3d65507d	0.055984963
38	0xbe1de1df	-0.15418194
39	0x3e1691e1	0.14704086
40	0xbdc7888d	-0.09742842
41	0x3e30e703	0.17275624
42	0xbded258b	-0.115794264
43	0xbe12b6bc	-0.1432752
44	0x3dddc0f9	0.10827822
45	0xbe32f87d	-0.17477603
46	0x3dd328da	0.10310526
47	0x3e35ac98	0.1774162
48	0xbe9c5b57	-0.30538437
49	0xbe88cbb7	-0.26717922
50	0xbe915bd3	-0.2839037
51	0xbe3d03b7	-0.18458448
52	0xbde02d8c	-0.109461874
53	0x3dae88cb	0.08522185
54	0xbdcda2b2	-0.10040797
55	0xbb12d9ce	-0.0022407654
56	0xbe19ad44	-0.15007502
57	0xbdcaddef	-0.09905612
58	0xbcf55810	-0.029949218
59	0x3e6034ac	0.21895093
60	0x3ca2cd35	0.019873241
61	0x3e068147	0.13135253
62	0x3e47d207	0.19513713
63	0xbdf10227	-0.11767989
64	0x3e27e569	0.16396107
65	0x3ea45ebe	0.32103533
66	0x3dd0d0b5	0.10196058
67	0xbe84eb8a	-0.25960952
68	0xbea9855c	-0.33109558
69	0x3d335cf0	0.043789804
70	0xbe1d6292	-0.15369633
71	0xbe44359f	-0.1916108
72	0x3da51ddb	0.08062335
73	0xbd7074c6	-0.058705114
74	0xbe99dd15	-0.30051485
75	0x3e02bc43	0.12767129
76	0x3d711cf2	0.058865495
77	0xbe2598d6	-0.16171584
78	0xbe884807	-0.26617453
79	0x3e4da186	0.20081148
80	0xbde6ca69	-0.112690754
81	0x3e6559ef	0.22397588
82	0x3ddcea5b	0.10786887
83	0xbec77f36	-0.38964242
84	0xbe81ee19	-0.25376967
85	0xbe37c656	-0.17946753
86	0xbc92f0d8	-0.017937109
87	0x3d50e419	0.05099878
88	0xbe563f31	-0.20922543
89	0xbeac9bdd	-0.33712664
90	0xbd89c821	-0.06727625
91	0xbe5783b0	-0.21046329
92	0x3dd4b44a	0.1038595
93	0xbe4f082c	-0.20217961
94	0x3cd17e03	0.025572782
95	0xbed5125c	-0.4161557
96	0x3d20cf59	0.039260242
97	0xbe20ff87	-0.15722476
98	0xbe4c5d1f	-0.19957398
99	0x3d1aec2f	0.0378229
100	0x3cd91d7d	0.026503319
101	0x3e9c561d	0.3053445
102	0x3de357be	0.1110072
103	0x3d1f193c	0.038842425
104	0x3e0b4189	0.13599218
105	0x3e05a4dd	0.13051172
106	0xbda87445	-0.08225302
107	0xbe610913	-0.21976118
108	0xbc8b91cf	-0.0170373
109	0x3d479090	0.04872185
110	0x3e7f3ff3	0.24926738
111	0x3dc7b999	0.09752197
112	0x3de451d3	0.11148419
113	0x3db10ea0	0.086453676
114	0x3e8a0e00	0.26963806
115	0xbdf83208	-0.12118918
116	0x3df950b4	0.12173596
117	0xbc1afd00	-0.009459734
118	0xbe556bf0	-0.20841956
119	0x3eba1a33	0.36348113
120	0xbdd6b64f	-0.10483991
121	0x3eb37b02	0.35054785
122	0x3da37380	0.07981014
123	0xbe5e5c4c	-0.21714896
124	0xbd5a178a	-0.053245105
125	0xbc4de367	-0.012566424
126	0x3e6afa08	0.22946942
127	0xbd693bbf	-0.056941744
128	0x3e5dbe0c	0.21654528
129	0xbe8657a1	-0.2623873
130	0xbb518f77	-0.003197638
131	0x3e811c15	0.25216737
132	0xbcb8b66e	-0.022547927
133	0x3de70696	0.11280553
134	0xbe83f991	-0.25776342
135	0xbd0e4170	-0.034730375
136	0x3d75e646	0.06003406
137	0xbd82ec10	-0.063926816
138	0x3d5c32aa	0.053759255
139	0xbe467abe	-0.1938276
140	0x3cda2f05	0.026633749
141	0xbe07fb6e	-0.13279507
142	0xbe145946	-0.1448718
143	0x3d2bf2dd	0.04197966
144	0xbd9516a3	-0.07279708
145	0x3e056b07	0.13029109
146	0xbd4f375e	-0.05058991
147	0xbe344c44	-0.17607218
148	0x3dd8bbcf	0.10582697
149	0x3e8e6b83	0.278164
150	0xbe14a5fe	-0.14516446
151	0xbe0a72a1	-0.1352029
152	0x3d72c1a2	0.059266694
153	0xbe8fd54a	-0.28092414
154	0xbeab2296	-0.33424824
155	0x3e66d261	0.2254119
156	0xbe98e003	-0.29858407
157	0x3dac742b	0.08420595
158	0xbd2f6ff1	-0.042831365
159	0x3e8a28e8	0.26984334
160	0xbda01f00	-0.07818413
161	0xbe3dd5aa	-0.18538538
162	0x3eab4a69	0.33455208
163	0x3e1dfd51	0.15428664
164	0x3ea65fed	0.3249506
165	0xbad2238f	-0.0016032326
166	0x3e95b33c	0.29238307
167	0x3eacc7ca	0.33746177
168	0x3e8a3f03	0.270012
169	0xbe2747ed	-0.16336031
170	0x3eb6fe96	0.3574111
171	0xbe70c7d8	-0.23513734
172	0xbd3c47e4	-0.045966998
173	0x3d3729c3	0.04471756
174	0x3e42d0d4	0.19024974
175	0x3e50d1b6	0.20392498
176	0xbe4ebd64	-0.20189434
177	0x3e8d3eaa	0.2758687
178	0x3d28bcdd	0.04119574
179	0x3eae4bc0	0.34042168
180	0x3cb40b5d	0.021978075
181	0x3e99b971	0.30024293
182	0xbe67ad14	-0.22624618
183	0x3e9c45f6	0.30522126
184	0x3e1a00df	0.15039395
185	0xbe4211e8	-0.18952143
186	0x3ea632e0	0.3246069
187	0x3e1ed429	0.1551062
188	0xbd893ad0	-0.06700671
189	0xbe8a25dd	-0.26982012
190	0x3dd900d0	0.10595858
191	0x3e892782	0.26787955
192	0xbe830762	-0.2559157
193	0x3d359d9e	0.04433977
194	0x3eaf3994	0.34223616
195	0x3e4431cc	0.19159621
196	0x3dad355c	0.08457443
197	0x3e91e739	0.2849672
198	0xbd87e4c4	-0.066354305
199	0xbe0d0dc9	-0.1377479
200	0x3e0e5e58	0.13903177
201	0xbe3d6970	-0.18497252
202	0x3e2a18fe	0.16611096
203	0x3d80581e	0.06266807
204	0xbe2ec3a4	-0.17066818
205	0x3e0ffa34	0.14060289
206	0x3e85f7d3	0.26165637
207	0xbe8b4c6d	-0.27206746
208	0x3e8d637c	0.27614963
209	0x3d91acd5	0.07113043
210	0x3d8a6aed	0.06758676
211	0x3e4feeec	0.20305985
212	0x3e7bd08b	0.24591272
213	0xba45a526	-0.00075395626
214	0xbdde4183	-0.10852339
215	0x3e98911b	0.29798207
216	0x3ed558b7	0.41669247
217	0xbe863298	-0.26210475
218	0xbe556651	-0.20839812
219	0x3e0bd0b1	0.13653828
220	0x3dc5f281	0.096653946
221	0x3e7973c8	0.24360573
222	0xbc2e88a9	-0.0106526995
223	0x3eacad42	0.33725935
224	0xbd9c1ea8	-0.07623035
225	0x3d8827f8	0.066482484
226	0xbcc2b0f4	-0.023766018
227	0xbe2fe999	-0.17178954
228	0x3e320a0f	0.1738665
229	0xbe719d41	-0.23595144
230	0x3ec8842c	0.3916334
231	0xbe028dc4	-0.12749392
232	0x3e60729c	0.2191872
233	0xbd333dce	-0.043760113
234	0x3dafec2d	0.08589969
235	0xbe17972e	-0.14803764
236	0x3e565558	0.20930994
237	0x3ea806e9	0.32817772
238	0x3e0e4c15	0.1389621
239	0xbe0aef53	-0.13567857
240	0xbdc46591	-0.09589685
241	0x3dab4cd0	0.0836426
242	0x3d60e4bc	0.054905638
243	0xbdbb7b4c	-0.091543764
244	0xbe27d5a4	-0.16390091
245	0xbe469690	-0.19393373
246	0xbe978bbe	-0.29598802
247	0x3eb11016	0.34582585
248	0xbe1512d5	-0.14557965
249	0x3dcc6cee	0.09981714
250	0x3de24a28	0.110493004
251	0xbea66317	-0.32497475
252	0x3d5f96d7	0.05458721
253	0xbe107ef6	-0.14110932
254	0x3e30b9d1	0.17258383
255	0x3e5b24a2	0.21400693

allconvs.0.nn.0.weight f4 [8, 53]
0	0x3e3595eb	0.1773297
1	0xbb6c325b	-0.0036040756
2	0xb830a60d	-4.2116317e-05
3	0x3d9b23c6	0.075751826
4	0xbc59e578	-0.0132993385
5	0x3d29b410	0.041431487
6	0x3d94aa42	0.072590366
7	0x3dd99f66	0.10626106
8	0x3d84c743	0.06483319
9	0xbab447c3	-0.0013754297
10	0x3de607a0	0.11231923
11	0xbbe5cb63	-0.007012771
12	0x3e14e4d9	0.14540423
13	0xbba05faf	-0.004894219
14	0xbaf98d57	-0.0019039315
15	0x3d032273	0.032015275
16	0xbc2808e2	-0.010256024
17	0xbc0acaa1	-0.008471162
18	0x3d9e8a31	0.07741202
19	0x3c90d448	0.017679349
20	0xba84b3d3	-0.0010124393
21	0xbb9e6873	-0.0048342287
22	0xb9d7f9d2	-0.00041194126
23	0xbbf5f730	-0.0075062737
24	0xbb3742ad	-0.0027963326
25	0x3dca0bdb	0.098655425
26	0x3de63ba7	0.112418465
27	0x3e413f23	0.18871741
28	0xbbd04e6e	-0.006357006
29	0x3e2b74bb	0.16743748
30	0x3d895bf5	0.067069925
31	0x3dbb542b	0.09146913
32	0x3e2cf18b	0.16889016
33	0xbc152a54	-0.00910433
34	0xba96fcd3	-0.0011519439
35	0xbbc26b98	-0.0059332363
36	0x3e2207f3	0.15823345
37	0xbc2194f3	-0.009862172
38	0x3e17606e	0.14782879
39	0xb6c5f22a	-5.899249e-06
40	0x3e44a38c	0.19203013
41	0xbbcea4da	-0.006306273
42	0x3e19d040	0.15020847
43	0xbbdda40d	-0.006763941
44	0xbb6755b4	-0.0035298886
45	0x3e1bc1d7	0.15210663
46	0xb696ff60	-4.500078e-06
47	0x3dbc8084	0.092042
48	0xb608966b	-2.0353134e-06
49	0xbca16276	-0.01970027
50	0xbc63985f	-0.013891309
51	0xbc7cc00c	-0.015426647
52	0x3d762b42	0.060099848
53	0xb85e6cb8	-5.3030177e-05
54	0x3e00fb24	0.12595803
55	0x3e1122a0	0.14173365
56	0xb76262a7	-1.3493619e-05
57	0xbc5883ee	-0.013215048
58	0x3d8c236f	0.06842696
59	0x3deb280d	0.114822485
60	0xbc4e881a	-0.012605691
61	0x3d76e967	0.060281184
62	0x3d2687b7	0.04065677
63	0x3e082c82	0.13298228
64	0xbb8452c8	-0.0040381886
65	0x3ce4bea6	0.02792294
66	0xbc2b80f0	-0.010467753
67	0xbbd8f429	-0.006620903
68	0xbaab9eb5	-0.0013093563
69	0xbc477fa7	-0.012176431
70	0x3dfdfc20	0.12401605
71	0xba0d4aa8	-0.0005389848
72	0x3e06fadb	0.13181631
73	0xbba6338b	-0.0050720624
74	0x3e2e320d	0.1701128
75	0x3e2729de	0.16324565
76	0x3e27e838	0.16397178
77	0x3de36700	0.1110363
78	0x3da87e41	0.08227206
79	0x3d88ff1e	0.06689285
80	0xbcc83cd3	-0.024443066
81	0xbbbc2d38	-0.005742695
82	0x3da263dd	0.07929204
83	0x3d69ddbb	0.057096224
84	0x3d7c157e	0.061543934
85	0xbbfa8886	-0.0076456694
86	0xbaa2a121	-0.0012407639
87	0x3e021052	0.12701538
88	0x3da852b8	0.08218902
89	0x3d467431	0.048450653
90	0x3d7ac0e3	0.061219107
91	0xbc238a5e	-0.00998172
92	0x3d584245	0.052797575
93	0x3d8da1ed	0.069156505
94	0xbc07fc25	-0.008299862
95	0xbb9d3396	-0.0047974093
96	0x3d6a07b8	0.057136267
97	0xbb96bbfc	-0.004600046
98	0xbb1b493e	-0.0023694779
99	0xbc1b82f6	-0.009491673
100	0x3d11eab8	0.035624236
101	0xbb9b7479	-0.004744109
102	0x3e0a0853	0.13479738
103	0x3e2dce69	0.1697327
104	0x3d51ea23	0.05124868
105	0xbc3aa89c	-0.011392739
106	0x3da53d16	0.08068292
107	0xb93597a9	-0.00017318003
108	0x3d5417e9	0.051780615
109	0x3bf8ab26	0.007588762
110	0x3d842d9d	0.064540125
111	0x3d4ba6d0	0.04971963
112	0x3e0cdb60	0.1375556
113	0xbb9713aa	-0.0046104984
114	0x3dbeb6bf	0.093122
115	0x3e36fa43	0.17868905
116	0x3de5fbf4	0.11229697
117	0x3e7bc45f	0.24586628
118	0x3d59f429	0.053211365
119	0xbaa7661c	-0.001277152
120	0xbc0c4ae8	-0.008562781
121	0x3dd35dcf	0.10320627
122	0x3e8bae9b	0.2728165
123	0xb889ad56	-6.5649554e-05
124	0x3ddb4d8a	0.10708149
125	0x3e0b0631	0.1357658
126	0xbaec01bb	-0.0018005887
127	0xba48f527	-0.0007665925
128	0x3e83c5c0	0.2573681
129	0x3e7721e1	0.24134018
130	0xbb940fd4	-0.0045184884
131	0x3ddf84b7	0.10913985
132	0x3d66c92b	0.056344192
133	0xbba7d2a2	-0.005121545
134	0x3d96f3d5	0.07370726
135	0x3d21f143	0.039536726
136	0x3d8f5f02	0.07000543
137	0x3dbdce5d	0.09267876
138	0xbc29f4c2	-0.010373296
139	0x3d86123d	0.065464474
140	0xbb1af9a9	-0.0023647344
141	0xb97145d6	-0.00023009567
142	0xbc234fa1	-0.0099677155
143	0x3d940e7e	0.07229327
144	0xbb1ddc4e	-0.002408761
145	0xb6bf18dc	-5.6951376e-06
146	0xbb0aab79	-0.0021159335
147	0x3e0089d5	0.12552579
148	0x3e6e8178	0.23291576
149	0x3debbc3a	0.11510511
150	0xba90a4db	-0.0011035459
151	0x3e559358	0.20856988
152	0xb9eacbf7	-0.00044783924
153	0xbb591424	-0.0033123577
154	0xbb26744b	-0.0025398906
155	0xbb2189e5	-0.0024648842
156	0xbc1600ba	-0.009155447
157	0xbc069939	-0.008215242
158	0x3d22b0d8	0.039719433
159	0xbab8e796	-0.0014107104
160	0xbb93cefd	-0.004510759
161	0x3cc0f8d7	0.023556156
162	0x3ce77ced	0.028257811
163	0x3da43233	0.08017387
164	0xbbdf1369	-0.006807734
165	0x3d7244f1	0.05914778
166	0xbbaf9c4e	-0.005359209
167	0x3ca8da36	0.020611864
168	0xbbd4b1c5	-0.0064909183
169	0xbb0a659e	-0.0021117697
170	0xb6fcee04	-7.537894e-06
171	0x3dcab392	0.098975316
172	0xbc09e759	-0.008416974
173	0x3d97ad71	0.07406128
174	0x3e3e7ff1	0.18603493
175	0x3e9dde3f	0.30833623
176	0x3e8757dd	0.26434222
177	0x3da0bde1	0.078487165
178	0xbc6cde95	-0.014457365
179	0x3e9d9a49	0.30781773
180	0x3e29e1b7	0.1659001
181	0x3e54b667	0.20772706
182	0xbc78c106	-0.015182739
183	0x3e029620	0.1275258
184	0xba711311	-0.00091962615
185	0x3d96ec8f	0.07369339
186	0xbc86bf2b	-0.016448578
187	0xbb9ea455	-0.0048413672
188	0x3c9a329a	0.018822957
189	0x3ce51d37	0.027968032
190	0xbaac16fd	-0.001312941
191	0xbb6f5859	-0.0036521165
192	0xb9356e69	-0.00017302636
193	0xba919edd	-0.0011109967
194	0x3d8d072f	0.06886136
195	0xbc891a94	-0.016736306
196	0x3d6d1dc6	0.057889722
197	0x3c1e7996	0.009672543
198	0x3bd129f8	0.006383177
199	0xbc5afc7c	-0.013365861
200	0x3e21c1c7	0.15796576
201	0x3c13ac92	0.009013312
202	0x3e291233	0.16510849
203	0xbc31c799	-0.01085081
204	0xbb89a0cd	-0.004200077
205	0x3ce16b3c	0.027516954
206	0xbb0dc6e2	-0.0021633436
207	0xbb803318	-0.003912341
208	0x3de513c5	0.11185411
209	0x3e70a005	0.23498543
210	0x3e1e713c	0.15472883
211	0x3dc91ac8	0.09819561
212	0xbc25c1d2	-0.010117011
213	0x3e1507fb	0.14553826
214	0x3e0ed1c8	0.13947213
215	0x3e1151e1	0.1419139
216	0x3d969732	0.07353057
217	0xb98d930e	-0.0002700318
218	0xba85c0a1	-0.0010204503
219	0x3e1cd120	0.1531415
220	0xbb82f328	-0.0039962716
221	0x3cc4c117	0.024017854
222	0xbaa88d18	-0.0012859432
223	0xbc3edbc3	-0.011649075
224	0x3d4258e9	0.047448073
225	0xbb6f0b11	-0.0036475102
226	0xbbc34a25	-0.0059597665
227	0x3cdc5154	0.026894249
228	0x3d3123a2	0.043246873
229	0x3ce49ebd	0.027907724
230	0xb567a921	-8.630032e-07
231	0xbbb83e3c	-0.0056226533
232	0x3d11477a	0.035468556
233	0xb8a3712c	-7.7935256e-05
234	0xbb73cc7f	-0.0037200747
235	0xbac0cb40	-0.0014709011
236	0xbc0ebeaf	-0.008712455
237	0x3dcc1152	0.09964241
238	0x3dda1803	0.10649111
239	0xb8141255	-3.5303023e-05
240	0xbba5c0e0	-0.005058393
241	0xb42a4c16	-1.5860164e-07
242	0x3da00f97	0.078154735
243	0xb1836fdd	-3.825319e-09
244	0xbba36fa6	-0.0049876748
245	0xb5716f7c	-8.994173e-07
246	0x3d2aebd4	0.04172881
247	0x3bdbf8b1	0.006712996
248	0xbb6b1401	-0.0035870078
249	0x3c33d6d3	0.010976511
250	0x3e403063	0.18768458
251	0xbbf334f2	-0.007422083
252	0x3dada005	0.08477787
253	0x3e04fc4e	0.12986872
254	0xbb836d8d	-0.004010862
255	0xbc4e8189	-0.012604126
