model/0test_final_new.pth (torch, 259610 bytes, 29 tensors)

allnns.0.0.weight f4 [7, 53]
0.14515911 0.17129076 0.2745288 0.25116983 0.26275402 0.34840706 0.15293647 0.22887707
-2.9167838e-06 -0.003077181 0.22034982 -0.00023710758 0.15749705 0.19886455 -0.0008289688 0.005481511
0.031557404 -0.0064040017 0.14219818 -0.011180005 -0.028610215 -0.11191052 -0.039704565 -0.0006609113
-9.4470786e-05 -7.502504e-07 0.29258558 0.2995075 0.077859744 0.2489712 0.14031929 0.26108375
0.11912785 0.10358307 -0.0015738041 0.15315652 -0.008600784 0.08579618 0.20675944 0.116079114
0.22434253 -2.975228e-05 -0.017539741 -3.0065127e-07 -0.001784645 0.060239106 0.09883095 -0.0021513586
-0.010053406 -0.010055275 -0.00038423974 -0.023651682 -0.015102316 -1.211431e-07 -0.036077898 -0.009831575
-0.0008569317 -0.0038027847 0.12525006 -0.001447276 -0.013449961 -0.007977732 -0.0047987103 0.028815502
0.104190215 0.09441116 -0.005825086 0.22384237 0.24298446 -0.004845106 0.19050802 0.124967165
0.16230583 0.21595475 0.15787093 0.14065771 -4.8317327e-07 0.20215593 -7.143758e-05 -0.011936652
-0.0009452648 0.16788179 0.20337403 -4.6615315e-07 -0.00082770805 -0.00011914848 -0.003617525 -0.001646907
-0.006058788 -0.0039454014 -0.0017171358 -0.040131133 0.20136952 -0.0017979323 -0.0022039737 -0.007729585
-0.0077504204 -1.5047262e-05 -0.0069549894 -6.0609622e-05 0.091182664 -0.0058710314 0.18345188 0.21519327
0.1130386 0.11318335 -0.0013499041 -0.0039048132 0.21052808 -0.02113759 -0.02878275 0.19382885
0.17460401 0.13616379 -0.0145471925 0.19246547 0.15165998 0.19765352 -0.0014429429 -0.0057618343
-0.003247326 0.08720991 0.2696949 -0.010186992 0.11759925 0.13456193 -0.0038002154 0.075628236
0.2072955 0.21295822 -1.4589306e-06 0.042772926 0.110572755 -0.014540534 0.05444422 0.020208893
0.057694636 -0.016108464 0.13351318 0.1531412 -0.019547565 -0.008051955 -0.0010389452 0.16309206
0.06860329 -4.5213387e-08 -0.004567685 -0.008028468 -0.027968932 0.029960316 -0.0041485196 -0.0032031809
-5.0354778e-05 -1.8387816e-07 -4.1428157e-06 0.18511288 -0.005096487 -0.00018960773 -0.0018173977 -0.039084833
-7.849509e-05 -0.020149237 -0.00017198587 -7.3232906e-05 -0.0015457169 -0.017026654 -2.4350689e-08 0.12702435
0.06816572 -0.011287592 0.17570642 0.13891627 -0.012945 0.08793685 0.17771876 -0.009234351
0.21377732 -1.9580213e-05 -0.02967429 0.04853492 -0.05584181 0.11832196 -0.026279356 -0.011841777
0.13532907 -0.0058924425 -0.00022199094 -0.0011137094 -0.00218715 0.064389825 0.20303974 0.079960905
0.05071781 0.1843837 0.24011841 -0.00012207017 0.0057873568 0.18178307 0.042366605 -0.0058654845
-0.032993555 0.023708202 -0.002672293 -0.012288381 0.053166106 -0.0065197884 -0.018869966 -3.3166307e-05
-1.6984828e-09 0.14884204 -1.4431983e-08 0.062057015 -3.6845147e-05 -0.000117659685 -0.028844453 -0.0034169485
-0.027159052 -4.801594e-05 -7.521191e-05 0.1228753 0.06047332 0.2994327 -0.001984165 0.13933113
0.19511494 0.09453392 0.14828901 0.059513234 0.0003699753 0.29116145 -0.0015046138 -0.035183605
0.006891439 -0.000110296176 0.026110101 -0.0012573387 -0.006550943 0.28850374 -0.01201751 -0.0024646139
-0.0021187498 0.16473767 0.15423322 -0.0008022601 0.08470253 0.2905331 -2.275784e-08 -0.0064293
-0.07312172 0.0773804 0.04200924 -0.00014525118 -0.0019984578 -1.05873994e-07 0.1262822 -0.080667
00000000: 97a4 143e d866 2f3e 0a8f 8c3e 5599 803e
00000010: b287 863e 6962 b23e 619b 1c3e c05e 6a3e
00000020: f7bd 43b6 88aa 49bb 62a3 613e 15a0 78b9
00000030: e846 213e 26a3 4b3e 284f 59ba 3f9e b33b
00000040: 5642 013d a9d8 d1bb 669c 113e 572c 37bc
00000050: f85f eabc 5831 e5bd 41a1 22bd 0241 2dba
00000060: 9e1e c6b8 d164 49b5 c7cd 953e 0c59 993e
00000070: ee74 9f3d 4ef2 7e3e dcaf 0f3e c5ac 853e
00000080: 4df9 f33d 5c23 d43d 1a48 ceba 10d5 1c3e
00000090: 4dea 0cbc e8b5 af3d bfb8 533e e3ba ed3d
000000a0: 0cba 653e 8994 f9b7 81af 8fbc 3269 a1b4
000000b0: c0ea e9ba 48bd 763d e267 ca3d cffd 0cbb
000000c0: 0ab7 24bc e1be 24bc c973 c9b9 2cc1 c1bc
000000d0: b46f 77bc 9013 02b4 6bc6 13bd 9d14 21bc
000000e0: b7a3 60ba 2438 79bb 8d41 003e 86b2 bdba
000000f0: 3a5d 5cbc 09b5 02bc 803e 9dbb 7d0e ec3c
00000100: ae61 d53d a35a c13d 5de0 bebb ef36 653e
00000110: ebd0 783e b2c3 9ebb 8914 433e c9ee ff3d
00000120: 8033 263e 3e23 5d3e eba8 213e 9308 103e
00000130: 6ab3 01b5 f701 4f3e c2d0 95b8 f291 43bc
00000140: a6cb 77ba 34e9 2b3e 4841 503e 9a43 fab4
00000150: 8cfa 58ba 5adf f9b8 0014 6dbb 07dd d7ba
00000160: cc88 c6bb 6d48 81bb 8411 e1ba 8b60 24bd
00000170: d033 4e3e 99a8 ebba 8b70 10bb 7548 fdbb
00000180: 3df7 fdbb 8073 7cb7 aee6 e3bb 1637 7eb8
00000190: fabd ba3d c861 c0bb cfda 3b3e a05b 5c3e
000001a0: c880 e73d accc e73d 44ef b0ba e5e7 7fbb
000001b0: ac94 573e bd28 adbc cdc9 ebbc 127b 463e
000001c0: 65cb 323e 856e 0b3e 5957 6ebc ab15 453e
000001d0: c14c 1b3e af65 4a3e 2121 bdba c5cd bcbb
000001e0: 17d1 54bb 1c9b b23d 7315 8a3e 57e7 26bc
000001f0: e0d7 f03d 9aca 093e 090d 79bb fae2 9a3d
00000200: 4645 543e b811 5a3e 79d0 c3b5 aa32 2f3d
00000210: f873 e23d 6b3b 6ebc e700 5f3d 1f8d a53c
00000220: 3651 6c3d e6f5 83bc aeb7 083e 0cd1 1c3e
00000230: 3722 a0bc 59ec 03bc 372d 88ba 9b01 273e
00000240: e27f 8c3d a530 42b3 85ac 95bb d689 03bc
00000250: 1a1f e5bc 566f f53c 4ef0 87bb 75ec 51bb
00000260: 0834 53b8 0b70 45b4 8402 8bb6 3b8e 3d3e
00000270: 6e00 a7bb 70d1 46b9 bf35 eeba 6b17 20bd
00000280: bb9d a4b8 0310 a5bc 1b57 34b9 9e94 99b8
00000290: a799 caba 7b7b 8bbc bb2b d1b2 ac12 023e
000002a0: 789a 8b3d 98ef 38bc 62ec 333e 1140 0e3e
000002b0: 4417 54bc 3c18 b43d e8fb 353e ad4b 17bc
000002c0: 71e8 5a3e 3040 a4b7 7f17 f3bc 8dcc 463d
000002d0: 62ba 64bd c952 f23d ce47 d7bc 0304 42bc
000002e0: b493 0a3e 6415 c1bb 3dc6 68b9 e3f9 91ba
000002f0: 4a56 0fbb d0de 833d a6e9 4f3e 8bc2 a33d
00000300: 7abd 4f3d 15cf 3c3e 9ae1 753e ecff ffb8
00000310: dea3 bd3b 5725 3a3e 9b88 2d3d 4033 c0bb
00000320: 4024 07bd b437 c23c a321 2fbb 3555 49bc
00000330: b4c4 593d f3a3 d5bb 3095 9abc 0d1c 0bb8
00000340: 0d70 e9b0 0c6a 183e 88f0 77b2 7f2f 7e3d
00000350: 2d8a 1ab8 10c0 f6b8 344b ecbc e2ee 5fbb
00000360: a97c debc b964 49b8 16bb 9db8 0ca6 fb3d
00000370: dfb2 773d 3e4f 993e c408 02bb d2ac 0e3e
00000380: 36cc 473e 009b c13d 13d9 173e 26c4 733d
00000390: 3ff9 c139 1d13 953e 7636 c5ba af1c 10bd
000003a0: 95d1 e13b cf4e e7b8 dae4 d53c 49cd a4ba
000003b0: 4ba9 d6bb c3b6 933e 17e5 44bc 5c85 21bb
000003c0: b9da 0abb feb0 283e 50ef 1d3e c44e 52ba
000003d0: 8578 ad3d c1c0 943e 057d c3b2 e1ac d2bb
000003e0: d7c0 95bd 9d79 9e3d e111 2c3d 914e 18b9
000003f0: 8ff8 02bb d85c e3b3 1f50 013e bd34 a5bd

allnns.0.2.weight f4 [1696, 7]
0.008569729 0.0046632723 0.0010572169 0.007917084 0.01425727 0.0054721204 0.0021057029 0.030527344
-0.011279923 -0.0015218912 0.005815063 0.013304162 0.034480073 0.014112909 0.022809245 -0.0150381485
-0.0009323859 0.0020972262 0.004637462 0.021986328 0.0010353279 -0.015898684 0.012668976 -0.0039048104
0.0007407928 -0.004512579 -0.0057480265 0.008496875 0.018222997 -0.0200984 0.00023404806 0.00058173906
0.0010239496 0.009407068 0.0055127977 -0.000851226 -0.0014425358 -0.0013500617 0.0074083786 0.009621996
-0.0029234607 0.005034496 -0.017681561 0.0052887253 0.0032028153 -0.0035743997 -0.012732746 -0.017441543
0.0006994554 -0.010453831 0.0034222347 -0.002866193 -0.0007991597 -0.009090401 -0.009493863 0.009799387
0.011304453 0.01613691 0.005838822 0.012820863 0.022817671 0.007869151 -0.015859786 -0.040058803
0.059917707 0.013635406 0.00061758 0.0092173945 -0.04598174 -0.044946093 0.003575057 -0.02190973
-0.0074664373 0.003153284 -0.0060203006 0.004622404 0.015398552 0.068063624 -0.16231456 -0.030714693
-0.029648341 -0.060399197 0.08647226 0.09200824 -0.06331553 0.06854641 0.007016867 0.00065393414
0.008048508 -0.07789096 -0.05937161 -0.021803837 0.012961505 -0.00041957488 -0.0075310324 -0.012811616
-0.029264377 -0.010928803 -0.027222952 0.023704289 0.00020065016 -0.00442816 -0.0060719 -0.025928946
-0.010144203 0.025407014 -0.029539926 -0.0039818604 0.005895606 -0.0005766234 0.03169476 0.027101737
-0.033637736 0.02588352 -0.005179545 -0.00093353644 -0.009093318 -0.03071823 -0.0124329375 0.008534725
-0.012461446 -0.0013082612 0.0039783437 0.0019365643 0.0075887037 0.010588605 0.0036829645 0.010867322
0.008750324 0.0061585 0.007294102 0.006747861 0.00017080233 -0.028983762 0.025611155 0.00015368688
0.0010966744 -0.0012841593 -0.035166048 -0.020818487 -0.021406757 0.021604901 0.0015558016 -0.0056031602
-0.007967864 -0.02427579 -0.009803923 -0.0025023886 0.011085257 0.0039114663 0.0083893575 0.0030386744
0.009911879 0.0049565313 0.023263013 0.015176506 0.014557484 0.0056561828 0.023985883 0.018807903
-0.016292682 0.020438194 -0.0049223593 0.004713884 0.0111159505 0.016716298 0.017980672 0.00588422
0.02681086 -0.023237193 -0.00091405935 0.0038872184 0.001312162 0.036978282 0.03003204 0.072715916
-0.087776944 -0.012616648 0.00027528455 -0.0076334625 0.07050728 0.049891736 0.024860073 -0.017226947
0.0031059394 0.00449308 0.010762098 0.034929883 0.0190142 0.035425246 -0.039337993 -0.0025300407
7.5215125e-05 0.003887923 0.051237475 0.02996802 -0.007142338 0.008544616 0.0014508404 0.0040931385
2.0168563e-05 0.0046533407 0.0064173774 -0.026958931 0.020413756 -0.0048764604 -0.0051567983 -0.008020815
-0.019566765 -0.006448712 -0.013968345 0.07688738 0.020811774 0.021207707 0.035744254 -0.0311788
-0.051121283 0.060425833 -0.034264427 0.0015326712 0.014743748 0.021600066 0.06140276 0.029718209
0.017333798 -0.011393789 0.023421032 -0.006065535 0.010866492 0.01891939 -0.0053713648 0.020615613
-0.02234919 0.0020958725 -0.008979028 0.0039373133 0.028568935 0.00076697854 0.003077697 -0.0012292706
-0.006371738 0.0015186243 -9.7470234e-05 0.0049647996 -0.0013031721 -0.005611089 -0.010498698 -0.006235309
-0.011184598 -0.006160357 0.0014362711 0.006877837 -0.027090672 0.008214854 -0.02201875 0.007359864
00000000: 0c68 0c3c 5dce 983b 5092 8a3a a8b6 013c
00000010: 5397 693c 794f b33b d5ff 093b 7b14 fa3c
00000020: 6dcf 38bc 327a c7ba 498c be3b b3f9 593c
00000030: fa3a 0d3d d539 673c 74da ba3c 9162 76bc
00000040: 5c6b 74ba 9e71 093b daf5 973b ac1c b43c
00000050: d7b3 873a f53d 82bc 8991 4f3c d9e7 7fbb
00000060: c331 423a 42de 93bb f159 bcbb 7a36 0b3c
00000070: 6548 953c 66a5 a4bc cc6a 7539 d97f 183a
00000080: 0c36 863a 1a20 1a3c b3a4 b43b cf24 5fba
00000090: 7813 bdba 8ef4 b0ba fcc1 f23b 94a5 1d3c
000000a0: 8897 3fbb 6af8 a43b ecd8 90bc 0b4d ad3b
000000b0: 53e6 513b 7a40 6abb 029d 50bc 91e1 8ebc
000000c0: a85b 373a 8c46 2bbc 9247 603b bdd6 3bbb
000000d0: b37e 51ba e8ef 14bc 268c 1bbc 9c8d 203c
000000e0: 5036 393c 8e31 843c 9753 bf3b 990e 523c
000000f0: 20ec ba3c 9ded 003c 62ec 81bc b314 24bd
00000100: 456c 753d 0a67 5f3c 18e5 213a 8e04 173c
00000110: 5957 3cbd 6519 38bd 814b 6a3b 097c b3bc
00000120: 04a9 f4bb 54a7 4e3b f145 c5bb 8977 973b
00000130: 354a 7c3c f164 8b3d ca35 26be 619d fbbc
00000140: 14e1 f2bc 2665 77bd 5e18 b13d d16e bc3d
00000150: 93ab 81bd 0f62 8c3d bfed e53b c76c 2b3a
00000160: e4dd 033c 4c85 9fbd a52f 73bd f69d b2bc
00000170: 7e5c 543c 63fa dbb9 e1c6 f6bb d0e7 51bc
00000180: d9bb efbc b90e 33bc ab02 dfbc 7f2f c23c
00000190: 9e65 5239 191a 91bb caf6 c6bb f168 d4bc
000001a0: df33 26bc 5f22 d03c b7fd f1bc 447a 82bb
000001b0: ed2f c13b 8b28 17ba 5dd2 013d 7604 de3c
000001c0: b9c7 09bd ad09 d43c 2cb9 a9bb 92b8 74ba
000001d0: 24fc 14bc cca4 fbbc 85b3 4bbc 3bd5 0b3c
000001e0: 182b 4cbc f679 abba c45c 823b 51d4 fd3a
000001f0: a9aa f83b d47b 2d3c e45d 713b da0c 323c
00000200: 855d 0f3c 3ecd c93b 5d03 ef3b 291d dd3b
00000210: 6719 3339 5b6f edbc 7cce d13c 0227 2139
00000220: 49be 8f3a 3c51 a8ba 460a 10bd 888b aabc
00000230: 395d afbc c3fc b03c 0aec cb3a b79a b7bb
00000240: a58b 02bc 06de c6bc a2a0 20bc 1dff 23bb
00000250: f09e 353c c22b 803b 8473 093c 7f24 473b
00000260: 6f65 223c 666a a23b 1392 be3c e1a6 783c
00000270: 8382 6e3c 8057 b93b 0b7e c43c 0813 9a3c
00000280: 3b78 85bc 006e a73c be4b a1bb ed76 9a3b
00000290: ad1f 363c 9ef0 883c 344c 933c 6ad0 c03b
000002a0: 73a2 db3c ed5b bebc 7c9d 6fba b4c0 7e3b
000002b0: dafc ab3a 8a76 173d c105 f63c 15ec 943d
000002c0: 66c4 b3bd 0fb6 4ebc 1154 9039 2022 fabb
000002d0: 1f66 903d 475b 4c3d 5aa7 cb3c 871f 8dbc
000002e0: 048d 4b3b b03a 933b 8353 303c a312 0f3d
000002f0: abc3 9b3c 101a 113d e020 21bd 0acf 25bb
00000300: d0bc 9d38 86cc 7e3b 63de 513d 7e7f f53c
00000310: 460a eabb b8fe 0b3c 202a be3a bc1f 863b
00000320: a92f a937 0d7b 983b dd48 d23b fad8 dcbc
00000330: c03a a73c b7ca 9fbb 5cfa a8bb bd69 03bc
00000340: 7b4a a0bc b84f d3bb 7cdb 64bc 2177 9d3d
00000350: 747d aa3c c9bb ad3c 9168 123d af6a ffbc
00000360: 8d64 51bd 1481 773d db58 0cbd e9e3 c83a
00000370: c38f 713c 9ff2 b03c 7681 7b3d 9a73 f33c
00000380: 9cff 8d3c 04ad 3abc 77dd bf3c 65c1 c6bb
00000390: 5f09 323c d6fc 9a3c 4602 b0bb 13e2 a83c
000003a0: a615 b7bc e85a 093b c61c 13bc 9404 813b
000003b0: 6609 ea3c 0f0f 493a 30b3 493b 7a1f a1ba
000003c0: 03ca d0bb 930c c73a ef68 ccb8 c2af a23b
000003d0: 33cf aaba 3add b7bb bb02 2cbc 9051 ccbb
000003e0: 9b3f 37bc d2dc c9bb 4341 bc3a 7a5f e13b
000003f0: 42ed ddbc 9897 063c aa60 b4bc 042b f13b

allnns.0.2.bias f4 [1696]
0.043963227 0.038477737 0.0111837415 -0.02641337 0.0031451017 -0.015433148 -0.1151195 0.03545257
0.13756931 -0.022671333 0.078070745 -0.09058353 0.04440717 0.057914205 -0.035474833 -0.021937465
-0.04483381 -0.051320598 0.032910105 -0.012825987 -0.069194086 0.030560378 0.086348414 -0.040614698
0.0039405553 0.112727955 0.08063887 0.096197 0.0069319936 0.016530963 -0.0266841 -0.040018957
-0.091704324 -0.11185903 -0.047040198 0.009985051 -0.004680343 -0.09369908 0.053023767 0.034834795
-0.09526315 0.03195481 -0.01213862 0.22652611 0.074809216 0.08358193 0.02379367 -0.047294818
0.18557797 -0.040645182 0.031243734 0.14988872 0.06349858 0.054870687 0.015823917 -0.005102215
-0.03789184 -0.19305512 -0.04607764 -0.023331475 0.021259474 0.08745943 -0.07537635 0.0005244724
0.109838374 0.1390907 0.06224748 -0.011361371 -0.05242544 -0.010028012 -0.12942393 -0.08820081
0.18239711 0.01831361 -0.06776817 -0.37241718 -0.05085913 -0.06724519 -0.049743835 0.0038101168
-0.18117154 -0.015032167 0.051005017 0.026152102 -0.058746066 0.06005779 0.13152808 0.053337485
0.017785445 0.087705895 0.03230096 -0.03805636 -0.013778203 0.009261894 0.25808755 0.173103
0.120662056 0.07298095 0.073178165 0.018712657 -0.025305321 0.06945024 -0.14175625 -0.008230113
0.18391284 0.079994984 -0.03497277 -0.13684775 -0.03806934 -0.056304622 -0.024073927 -0.048903544
-0.049839284 -0.029680818 0.04763493 -0.07848451 -0.057038758 0.0071823467 0.23366083 0.08289048
0.0085324375 0.1265431 0.056608714 0.032962885 -0.0075278957 -0.077344716 0.13613155 0.083513066
0.046249226 0.13179535 0.041476425 0.016023148 -0.102571666 0.03109127 0.006661042 -0.08135471
0.067093946 0.0028920362 0.053033102 -0.07843795 -0.06384075 -0.118773825 -0.0021469928 -0.0110721495
0.06863496 -0.028431466 0.026936047 -0.024688404 -0.101646096 0.096005395 0.033608373 0.07805222
-0.0012935043 -0.09102772 0.052373942 -0.030288244 -0.0232659 0.05055838 0.08201684 0.1397274
0.015442652 0.15091126 0.040800184 -0.007375643 0.017559754 0.024406424 -0.16246691 0.06138177
0.10438168 -0.0030538954 -0.004380919 -0.03417562 -0.043886162 -0.05054101 -0.0371515 0.047018938
0.047602735 -0.03947131 0.10435569 -0.16243613 0.050302293 0.028563922 0.08465945 0.088282935
0.087900326 0.11591072 -0.0008986672 0.010649398 0.014100032 -0.011049422 -0.1300384 0.15369436
0.10055607 0.07067626 0.015076795 -0.09194541 -0.010660929 0.067408346 0.06837466 -0.06234827
0.08700658 -0.07631627 0.013991897 -0.25482 -0.063752614 0.031468306 0.023313984 -0.015721172
-0.1393008 -0.016532404 0.101754054 0.008797004 -0.14333832 0.03431498 0.21614416 0.13583107
0.021019105 0.16763882 0.02630857 0.023730667 -0.038365427 -0.15243271 0.30128807 0.23107561
-0.037858825 0.14687079 -0.016586794 0.004720533 0.08189087 0.061206993 -0.015878009 0.029895542
0.16153681 -0.039476 -0.009278408 0.050066173 -0.21880399 -0.08433732 -0.05559486 0.016422534
-0.093397036 0.046039313 0.012588224 -0.11834623 -0.053879138 -0.017977815 0.18314886 0.0056083263
0.13879976 0.044072397 0.14802471 0.043164507 -0.02323696 0.0036760927 0.21016839 -0.08961084
00000000: c912 343d d59a 1d3d 033c 373c da60 d8bc
00000010: 0d1e 4e3b 50db 7cbc c6c3 ebbd b736 113d
00000020: f8de 0c3e 3bb9 b9bc 8ee3 9f3d dc83 b9bd
00000030: 4be4 353d 7237 6d3d 0f4e 11bd 33b6 b3bc
00000040: a8a3 37bd 8c35 52bd bfcc 063d 1724 52bc
00000050: a1b5 8dbd c259 fa3c 70d7 b03d 995b 26bd
00000060: c61f 813b eadd e63d fe25 a53d ef02 c53d
00000070: c725 e33b f16b 873c 9d98 dabc ebea 23bd
00000080: 7acf bbbd 5916 e5bd 39ad 40bd 5798 233c
00000090: 905d 99bb 4ee5 bfbd 732f 593d eeae 0e3d
000000a0: 5419 c3bd 0ce3 023d 10e1 46bc 76f6 673e
000000b0: 9335 993d 012d ab3d f1ea c23c 36b8 41bd
000000c0: 2708 3e3e 907b 26bd dcf2 ff3c 6e7c 193e
000000d0: 8b0b 823d 16c0 603d 29a1 813c 7b30 a7bb
000000e0: 7934 1bbd 3eb0 45be e8bb 3cbd a621 bfbc
000000f0: 5928 ae3c ee1d b33d ea5e 9abd bf7c 093a
00000100: f1f2 e03d cb6d 0e3e 37f7 7e3d 0b25 3abc
00000110: 0fbc 56bd 884c 24bc b587 04be a0a2 b4bd
00000120: 4fc6 3a3e 6d06 963c 0aca 8abd 77ad bebe
00000130: aa51 50bd d9b7 89bd 31c0 4bbd 27b3 793b
00000140: 0885 39be 7a49 76bc a3ea 503d ef3c d63c
00000150: b79f 70bd 28ff 753d 4caf 063e 6878 5a3d
00000160: c8b2 913c 269f b33d 034e 043d fce0 1bbd
00000170: f9bd 61bc 33bf 173c 0d24 843e ea41 313e
00000180: ab1d f73d 0977 953d 6fde 953d 494b 993c
00000190: 1b4d cfbc ed3b 8e3d 8d28 11be 99d7 06bc
000001a0: a653 3c3e 69d4 a33d 9b3f 0fbd d121 0cbe
000001b0: 99ee 1bbd ad9f 66bd af36 c5bc 154f 48bd
000001c0: 4724 4cbd 3025 f3bc d81c 433d 7dbc a0bd
000001d0: 79a1 69bd e459 eb3b c944 6f3e 7cc2 a93d
000001e0: a3cb 0b3c 8494 013e 8ade 673d 1704 073d
000001f0: 91ac f6bb e866 9ebd 1266 0b3e e608 ab3d
00000200: d46f 3d3d 5cf5 063e 2fe3 293d fa42 833c
00000210: 1811 d2bd 1eb3 fe3c df44 da3b 4c9d a6bd
00000220: 8d68 893d 5188 3d3b 3d39 593d 13a4 a0bd
00000230: f0be 82bd b13f f3bd 90b4 0cbb f667 35bc
00000240: 7c90 8c3d 1be9 e8bc fca8 dc3c 563f cabc
00000250: d42b d0bd 7a9e c43d efa8 093d d8d9 9f3d
00000260: cd8a a9ba be6c babd 0f86 563d 0d1f f8bc
00000270: 2198 bebc 4e16 4f3d 72f8 a73d b314 0f3e
00000280: 2d03 7d3c 7b88 1a3e 181e 273d 61af f1bb
00000290: 79d9 8f3c fbef c73c ba5d 26be 736b 7b3d
000002a0: 10c6 d53d dd23 48bb d08d 8fbb bcfb 0bbd
000002b0: fac1 33bd 1704 4fbd 2c2c 18bd ee96 403d
000002c0: 16fb 423d abac 21bd 70b8 d53d a855 26be
000002d0: c709 4e3d e3fe e93c ef61 ad3d afcd b43d
000002e0: 1605 b43d 9962 ed3d 8994 6bba d07a 2e3c
000002f0: d203 673c a308 35bc c928 05be 0e62 1d3e
00000300: 57f0 cd3d b7be 903d a904 773c e04d bcbd
00000310: 2dab 2ebc 630d 8a3d 0408 8c3d e660 7fbd
00000320: 8130 b23d b44b 9cbd 453e 653c c477 82be
00000330: bb90 82bd e9e4 003d f8fc be3c b0c9 80bc
00000340: dea4 0ebe f76e 87bc 6e64 d03d 4f21 103c
00000350: 48c7 12be dd8d 0c3d e554 5d3e 4d17 0b3e
00000360: 4230 ac3c 83a9 2b3e 1285 d73c d166 c23c
00000370: 1125 1dbd 5217 1cbe 6e42 9a3e 169f 6c3e
00000380: db11 1bbd 4c65 163e 07e1 87bc b3ae 9a3b
00000390: 67b6 a73d 2fb4 7a3d 9912 82bc 7fe7 f43c
000003a0: e869 253e 96b1 21bd 7704 18bc 3012 4d3d
000003b0: 270e 60be 0bb9 acbd 70b7 63bd 8d88 863c
000003c0: f246 bfbd b893 3c3d d73e 4e3c 825f f2bd
000003d0: 5fb0 5cbd 3646 93bc 608b 3b3e 0dc6 b73b
000003e0: 8621 0e3e 4285 343d ca93 173e 44cd 303d
000003f0: 705b bebc 9aea 703b 6236 573e e385 b7bd

allnns.1.0.weight f4 [7, 53]
-7.657739e-07 8.841372e-07 -0.00030378735 -1.343555e-05 7.761954e-05 -2.7464408e-05 0.00041364596 9.050545e-05
1.9493002e-05 -6.7791894e-05 -8.1858496e-05 -0.00011773688 -1.4452525e-09 -0.00042020832 -0.0002628105 0.00021833039
-0.00028478866 -0.00026717607 -1.946579e-07 0.018781744 0.03553646 0.00013533856 0.023749435 0.028335769
0.0010310595 -5.4149863e-05 0.00012981606 0.000111418216 -2.7359503e-05 7.089202e-06 -8.726634e-05 -2.915854e-08
-5.5282885e-06 -4.5932276e-05 -0.00021609753 -1.2567098e-05 -4.19858e-07 -0.00027135664 1.1840234e-05 -2.9727214e-05
-3.7848863e-11 -8.754421e-05 -4.7462595e-06 -1.6308888e-05 -0.00034709822 -5.3783097e-06 0.00023634797 -2.7493095e-07
-4.122328e-08 -5.3020262e-06 0.06390073 -0.0006297086 -0.0001368093 -3.2531239e-06 -3.1995227e-05 -6.3496926e-05
-0.00047020073 -8.491848e-06 -2.4506503e-06 2.1717078e-05 -0.00015941261 -6.450485e-05 -6.448759e-05 -0.00038288737
9.830149e-06 8.851622e-05 -1.0537245e-05 -0.0005394895 1.3473759e-05 -0.0007364761 -0.00021807586 -6.8963334e-07
0.034558035 3.8594615e-05 -0.0011224597 0.051778525 0.046276525 0.0005045104 -3.1367337e-05 0.00010498426
9.889425e-05 -1.7588443e-06 -9.761399e-06 -0.00022039253 -3.6815723e-06 -1.6342754e-05 -5.6892222e-06 -0.00042657094
-2.3357827e-05 -0.0003590601 -4.2569226e-10 -0.0002682228 -1.4168661e-05 -9.77555e-06 -0.00014349923 -6.039922e-05
-7.9761274e-05 -8.699485e-06 -7.9775986e-10 -3.7827433e-06 -5.6236877e-07 0.001823542 0.00021479449 -0.0037573634
-2.2602118e-08 -0.0014596418 -5.988203e-06 -8.9713496e-05 -7.527946e-05 -0.00018361157 -0.00011392417 -9.315303e-06
-5.179698e-11 0.00056979485 2.751655e-06 -7.336243e-09 -0.00015335075 -9.138933e-06 -1.0310631e-06 -5.8279404e-08
-0.00088291295 1.71407e-05 0.012340714 0.0043888898 -1.6466201e-05 0.063875936 0.074515305 0.0042986996
0.07904926 0.070622966 0.0017939456 -0.00010946751 7.8304474e-05 7.011304e-05 -8.808831e-05 -7.53149e-07
-0.00030266607 -2.8286408e-05 -6.235377e-05 -0.00022839347 -0.00011384732 0.0016174776 -0.00024024588 -9.163292e-07
-0.00017436655 -1.3131842e-06 -1.5871074e-05 0.0019371643 0.00024334197 0.0011849097 0.0012960427 -8.5752145e-05
-3.2722368e-05 -0.00011948002 0.005432308 -1.2091871e-07 0.10645841 -1.6705671e-07 0.04499304 -6.102606e-05
-0.00010675841 0.00025914412 -8.211851e-06 -2.1231388e-05 -6.891393e-05 -8.79701e-05 0.0010109195 -3.51187e-05
-0.00020727594 -2.4141478e-05 -6.575743e-06 -1.2161114e-05 -2.77674e-05 -0.00015579839 -0.00012291803 0.0034995994
0.0002836712 -1.5026745e-05 0.016734548 0.071286514 0.0056888224 0.0400417 -0.001615249 -0.00021943623
-0.00015167224 -0.0001788826 -0.00012164886 2.7896069e-05 -1.1212411e-07 -8.287852e-05 -3.527749e-06 -1.097182e-08
-1.5356465e-05 0.00024914756 -1.0556947e-05 -0.00029725613 -1.4984383e-07 0.0028988216 -3.8510396e-05 -7.82239e-06
0.00043502406 -0.0004864559 0.0003981399 -3.3872235e-05 -0.00021952948 -4.1326603e-05 -2.6079044e-06 -0.0002628844
-0.017644472 0.121624745 -0.0019509613 0.098559566 0.00059873 -0.00015686805 -0.0003009377 -1.7635772e-05
-5.2111133e-08 -1.9003745e-06 0.00029916578 3.9638533e-05 -2.4043884e-05 -5.888753e-08 1.1888565e-11 -1.5957168e-08
-1.486992e-05 -1.3365147e-06 -0.00035989718 -1.6052549e-05 0.011667809 0.004537557 -7.108246e-05 0.059789814
0.08714604 0.006873934 0.09238744 0.05216643 0.0013211428 0.0023016883 9.500741e-06 -0.00021375887
-8.652549e-06 -0.00023404032 -0.00015347583 -2.872168e-05 -0.00010797388 0.00042795457 -0.00045290083 -3.5639532e-05
-0.00042071415 -2.5851957e-06 0.0017779935 -5.991475e-06 -6.516334e-05 0.0023202633 -0.0017751807 0.001172016
00000000: 958f 4db5 7255 6d35 a645 9fb9 3f69 61b7
00000010: acc7 a238 5e63 e6b7 9fde d839 becd bd38
00000020: e784 a337 7f2b 8eb8 72ab abb8 82e9 f6b8
00000030: 4da2 c6b0 684f dcb9 d4c9 89b9 9eef 6439
00000040: b04f 95b9 c413 8cb9 2803 51b4 2cdc 993c
00000050: ae8e 113d abe9 0d39 2d8e c23c 6a20 e83c
00000060: 9e24 873a f91e 63b8 3c1f 0839 33a9 e938
00000070: 1682 e5b7 c8df ed36 c202 b7b8 4f78 fab2
00000080: a37f b9b6 68a7 40b8 3d98 62b9 46d7 52b7
00000090: d868 e1b4 df44 8eb9 6ba5 4637 b55e f9b7
000000a0: 0876 26ae f197 b7b8 0f42 9fb6 12cf 88b7
000000b0: bcfa b5b9 5477 b4b6 2dd4 7739 399a 93b4
000000c0: 7a0d 31b3 0fe8 b1b6 63de 823d 0713 25ba
000000d0: 7874 0fb9 3e50 5ab6 9d32 06b8 a729 85b8
000000e0: 4685 f6b9 3678 0eb7 da75 24b6 122d b637
000000f0: ff27 27b9 c746 87b8 833d 87b8 46be c8b9
00000100: 2bec 2437 c9a1 b938 1fc9 30b7 876c 0dba
00000110: 5b0d 6237 1310 41ba 4bab 64b9 3e1f 39b5
00000120: ba8c 0d3d a7e0 2138 7f1f 93ba b815 543d
00000130: 748c 3d3d 1f41 043a 6c90 03b8 ff2a dc38
00000140: 7265 cf38 6e11 ecb5 e4c4 23b7 2b19 67b9
00000150: ee10 77b6 cc17 89b7 0ce6 beb6 62a5 dfb9
00000160: 8df0 c3b7 3b40 bcb9 dc06 eaaf 41a0 8cb9
00000170: f0b5 6db7 ab01 24b7 4878 16b9 2b55 7db8
00000180: 8245 a7b8 01f4 11b7 5c49 5bb0 09db 7db6
00000190: b0f5 16b5 eb03 ef3a 753a 6139 193e 76bb
000001a0: 9526 c2b2 7451 bfba 46ee c8b6 9124 bcb8
000001b0: 5adf 9db8 db87 40b9 93ea eeb8 ec48 1cb7
000001c0: 37ce 63ae 495e 153a 13a9 3836 4712 fcb1
000001d0: c7cc 20b9 6b53 19b7 0f63 8ab5 e24e 7ab3
000001e0: 4973 67ba 5fc9 8f37 b530 4a3c add0 8f3b
000001f0: e620 8ab7 63d1 823d 7b9b 983d 1bdc 8c3b
00000200: 94e4 a13d c6a2 903d d322 eb3a ec91 e5b8
00000210: 6537 a438 a709 9338 0dbc b8b8 012c 4ab5
00000220: 27af 9eb9 9948 edb7 edc3 82b8 e87c 6fb9
00000230: 51c1 eeb8 8b01 d43a 83ea 7bb9 aaf9 75b5
00000240: 2ad6 36b9 aa40 b0b5 df22 85b7 73e8 fd3a
00000250: 9d29 7f39 f94e 9b3a fadf a93a d5d5 b3b8
00000260: 603f 09b8 5991 fab8 8101 b23b e2d5 01b4
00000270: de06 da3d 3360 33b4 9f4a 383d 3cf6 7fb8
00000280: 7ce3 dfb8 bcdd 8739 a2c5 09b7 0f1a b2b7
00000290: e285 90b8 967c b8b8 d480 843a 6b4c 13b8
000002a0: 3658 59b9 6e83 cab7 34a5 dcb6 9607 4cb7
000002b0: 0aee e8b7 d05d 23b9 8fe3 00b9 8959 653b
000002c0: b4b9 9439 611b 7cb7 e416 893c aafe 913d
000002d0: 4d69 ba3b c402 243d c3b6 d3ba 7718 66b9
000002e0: 350a 1fb9 6f92 3bb9 bc1d ffb8 5a02 ea37
000002f0: e2c8 f0b3 11cf adb8 44be 6cb6 937e 3cb2
00000300: c2d1 80b7 05a0 8239 be1d 31b7 0bd9 9bb9
00000310: c2e4 20b4 28fa 3d3b 3986 21b8 e93c 03b7
00000320: f113 e439 010b ffb9 6fbd d039 0912 0eb8
00000330: 7f31 66b9 1a56 2db8 7503 2fb6 bfd3 89b9
00000340: 248b 90bc 6516 f93d 66b7 ffba 99d9 c93d
00000350: 17f4 1c3a f27c 24b9 2dc7 9db9 88f0 93b7
00000360: ccd0 5fb3 5f10 ffb5 5ad9 9c39 8d41 2638
00000370: d9b1 c9b7 86eb 7cb3 5625 512d 2f12 89b2
00000380: d279 79b7 4c62 b3b5 95b0 bcb9 96a8 86b7
00000390: 572a 3f3c c9af 943b 1b12 95b8 2ae6 743d
000003a0: 9f79 b23d bd3e e13b a035 bd3d 77ac 553d
000003b0: 322a ad3a ecd7 163b 5f65 1f37 7624 60b9
000003c0: 6a2a 11b7 b868 75b9 5bee 20b9 57ef f0b7
000003d0: 0970 e2b8 175f e039 5273 edb9 a87b 15b8
000003e0: 4c93 dcb9 537d 2db6 900b e93a 610a c9b6
000003f0: 4da8 88b8 8f0f 183b 2ead e8ba 559e 993a

allnns.1.2.weight f4 [1024, 7]
-8.941916e-05 -3.482595e-05 -0.00021279804 -6.533368e-05 -0.00012353962 1.1815718e-05 1.0822835e-05 6.9779057e-06
3.324707e-05 3.460438e-05 -2.7078533e-05 5.4178166e-05 3.24029e-06 5.89563e-06 8.615121e-05 0.0001424378
9.699434e-05 2.8582528e-05 0.00011252566 -6.520636e-06 2.1713279e-06 -3.9425948e-05 -5.428076e-05 -0.0001043545
-2.7139973e-05 -9.7525386e-05 -5.549614e-07 -1.6557492e-06 1.0772003e-05 1.8288238e-05 1.461938e-05 -1.8472604e-06
-6.351439e-06 -5.262272e-07 1.3124487e-06 2.0525313e-05 1.4083281e-05 3.8701077e-05 2.7304384e-05 2.7910539e-05
4.9386927e-07 -3.4864573e-07 2.5872097e-05 3.5460693e-05 3.597652e-05 9.630186e-06 4.006439e-05 8.479441e-07
1.694666e-06 1.5988622e-06 4.173806e-05 -0.00013041466 -6.984777e-05 -3.204486e-05 2.1467476e-05 1.669766e-05
5.1584222e-05 7.884632e-05 6.0359336e-05 1.5795069e-05 6.242971e-05 -5.422557e-06 2.327877e-06 -0.00011178138
-0.0001423383 -0.00044036435 -3.6632635e-05 -0.00056129554 3.7122786e-06 1.7553273e-07 7.700571e-05 0.00010893127
9.224735e-05 1.2037529e-05 7.23238e-05 -5.82167e-06 2.8107183e-06 -9.549835e-05 -2.5361225e-05 -0.000293206
-0.0001170878 -0.0001217069 1.2213796e-05 1.966678e-05 -1.931645e-05 -3.0028452e-05 -9.573958e-06 7.924102e-06
1.4080169e-05 1.4369681e-06 5.807068e-07 4.490528e-05 4.6675308e-05 7.715699e-05 4.2316828e-05 6.381605e-05
-3.8256172e-07 7.531157e-07 -0.00015480992 -0.00017517497 -0.00013059622 -6.0636852e-05 -9.054429e-05 -7.1289924e-06
-5.608357e-06 -0.0001681234 -0.00019545411 6.119348e-05 -1.8244726e-05 0.00011241517 -1.726123e-05 -2.460989e-05
0.00011286224 8.3809166e-05 0.0003034961 8.5267355e-05 0.00022926062 -1.175357e-05 -7.95295e-06 6.42116e-05
7.529347e-05 6.6508386e-05 5.464924e-05 9.819195e-05 -9.871824e-07 6.411227e-06 3.2459684e-05 4.4996723e-05
2.804347e-05 3.892936e-05 -2.4380366e-05 8.522712e-07 2.4121525e-06 -6.454223e-05 3.2243464e-05 -0.00010540419
-8.3214036e-05 9.992617e-05 2.9012446e-05 1.3010135e-05 2.0046218e-05 1.8434766e-05 -0.00011009877 -1.8517578e-05
-0.00013928654 3.75129e-06 5.4951374e-06 -2.490856e-05 -2.3507864e-05 -5.4935856e-05 -2.1550875e-05 -4.786366e-05
9.210973e-07 -8.0838043e-07 0.00010823879 5.913162e-05 0.00031938258 9.8694865e-05 0.00022060858 -1.7021091e-05
-1.1895434e-05 -0.0004509339 -0.0001446942 -0.0002478273 -0.00035053768 0.0005205024 3.777056e-05 8.257582e-06
3.5814148e-05 6.943104e-05 -9.673242e-05 -1.0389433e-05 -0.0001244186 7.400651e-06 1.052773e-05 7.779395e-05
-2.1484033e-05 -5.5616572e-05 3.4362354e-05 -0.00032133478 -3.2473847e-05 -1.6588112e-05 0.0004462538 0.00049807713
0.0008019032 0.0006697658 0.00056294387 1.6061124e-06 2.0832558e-05 0.00011309247 0.00017633462 0.00017642381
4.6098972e-05 0.00015227815 3.1663344e-06 3.5322657e-06 2.4403544e-06 -5.7444304e-06 8.348503e-06 -1.0035753e-05
3.0869603e-06 -5.3185704e-07 1.3036961e-06 -5.4698594e-05 -8.249662e-05 -0.00010650507 -8.560745e-05 -0.00010547746
3.2433823e-07 1.7836724e-06 2.0048135e-05 -1.1906352e-05 0.0002538058 8.817123e-05 0.00015844221 -2.087798e-05
-1.3677951e-05 6.285573e-05 8.7211e-05 6.713972e-05 1.3976082e-06 3.334753e-05 2.6693704e-06 1.3392514e-06
0.00018487991 0.00027524686 -8.677519e-05 -0.0005297668 6.443032e-05 1.1138185e-05 1.7881073e-05 0.00012069548
0.00016828156 -2.4051435e-05 -0.00026420943 5.1504332e-05 5.8878836e-06 1.4817724e-05 0.0001634855 0.00028211935
0.00028318042 5.1267107e-05 0.00035826885 -9.562237e-06 4.159975e-06 -5.743633e-05 -0.00010442617 -0.00015193588
-2.6974552e-05 -0.0001701153 -4.9951643e-07 -6.9491443e-06 4.790242e-05 6.532416e-05 6.0409002e-05 8.933019e-06
00000000: 8c86 bbb8 1412 12b8 8a22 5fb9 c103 89b8
00000010: 6a8a 01b9 1f3c 4637 b993 3537 c123 ea36
00000020: c572 0b38 2c24 1138 b526 e3b7 5d3d 6338
00000030: c273 5936 13d3 c536 14ac b438 5b5b 1539
00000040: 7169 cb38 83c4 ef37 c1fb eb38 d6cb dab6
00000050: 21b7 1136 4a5d 25b8 86ab 63b8 e5d8 dab8
00000060: a6aa e3b7 8b86 ccb8 a8f8 14b5 1c3b deb5
00000070: 67b9 3437 b169 9937 c245 7537 62ef f7b5
00000080: 721e d5b6 0f42 0db5 6527 b035 c62d ac37
00000090: 3b47 6c37 f752 2238 b80b e537 6d21 ea37
000000a0: 7092 0435 812d bbb4 e807 d937 a1bb 1438
000000b0: 7fe5 1638 5591 2137 d00a 2838 469e 6335
000000c0: 4874 e335 7d98 d635 e70f 2f38 ebbf 08b9
000000d0: 3c7b 92b8 e867 06b8 0e15 b437 f411 8c37
000000e0: 235c 5838 4c5a a538 582a 7d38 a77f 8437
000000f0: b2ec 8238 69f3 b5b6 9f38 1c36 2c6c eab8
00000100: a540 15b9 b4e0 e6b9 fea5 19b8 e823 13ba
00000110: 7620 7936 127a 3c34 207e a138 0872 e438
00000120: eb74 c138 cbf4 4937 8bac 9738 c457 c3b6
00000130: c69f 3c36 4946 c8b8 d1be d4b7 71b9 99b9
00000140: 098d f5b8 e53c ffb8 dbe9 4c37 17fa a437
00000150: c309 a2b7 9ce5 fbb7 d69f 20b7 c2f1 0437
00000160: de39 6c37 d9dd c035 dee1 1b35 ad58 3c38
00000170: 3bc5 4338 58cf a138 597d 3138 fbd4 8538
00000180: e262 cdb4 b829 4a35 7954 22b9 2caf 37b9
00000190: a8f0 08b9 5354 7eb8 98e2 bdb8 9435 efb6
000001a0: 6b2f bcb6 484a 30b9 d0f2 4cb9 0055 8038
000001b0: 400c 99b7 6fc0 eb38 36cc 90b7 5671 ceb7
000001c0: 74b0 ec38 b4c2 af38 8f1e 9f39 90d1 b238
000001d0: ae65 7039 3331 45b7 a96d 05b7 57a9 8638
000001e0: e0e6 9d38 6b7a 8b38 2d37 6538 67ec cd38
000001f0: 547f 84b5 0520 d736 5225 0838 ddba 3c38
00000200: e53e eb37 1548 2338 7084 ccb7 a2c7 6435
00000210: 77e0 2136 d95a 87b8 283d 0738 720c ddb8
00000220: 3283 aeb8 748f d138 c15f f337 1b46 5a37
00000230: ed28 a837 5ca4 9a37 d4e4 e6b8 3256 9bb7
00000240: 720d 12b9 acbe 7b36 df62 b836 baf2 d0b7
00000250: c132 c5b7 ed6a 66b8 27c8 b4b7 37c1 48b8
00000260: 5341 7735 7bff 58b5 42fe e238 1804 7838
00000270: ce72 a739 67fa ce38 2a53 6739 84c8 8eb7
00000280: 8092 47b7 536b ecb9 0eb9 17b9 d1ee 81b9
00000290: 5fc8 b7b9 5372 083a d46b 1e38 0b8a 0a37
000002a0: 2637 1638 819b 9138 d3dc cab8 464e 2eb7
000002b0: 5d76 02b9 1c53 f836 42a0 3037 4f25 a338
000002c0: 9c38 b4b7 d745 69b8 4c20 1038 d378 a8b9
000002d0: 8734 08b8 b326 8bb7 2cf7 e939 6491 023a
000002e0: d036 523a 3993 2f3a 8692 133a 9a91 d735
000002f0: 94c1 ae37 0f2c ed38 77e6 3839 68fe 3839
00000300: 655a 4138 dbac 1f39 367d 5436 dd0b 6d36
00000310: f8c4 2336 48c0 c0b6 8c10 0c37 3b5f 28b7
00000320: 9329 4f36 f0c4 0eb5 a8fa ae35 2b6c 65b8
00000330: 0902 adb8 795b dfb8 2688 b3b8 c833 ddb8
00000340: b520 ae34 8466 ef35 0b2d a837 64c1 47b7
00000350: 3d11 8539 92e8 b838 8223 2639 1f23 afb7
00000360: 5a7a 65b7 6ad1 8338 0de5 b638 5dcd 8c38
00000370: 7495 bb35 a3de 0b38 6f23 3336 54c0 b335
00000380: 53dc 4139 024f 9039 13fb b5b8 0ce0 0aba
00000390: c41e 8738 24de 3a37 50ff 9537 e41d fd38
000003a0: bd74 3039 10c2 c9b7 9785 8ab9 5b06 5838
000003b0: 8990 c536 a499 7837 4e6d 2b39 6be9 9339
000003c0: d577 9439 a307 5738 08d6 bb39 7f6d 20b7
000003d0: ea95 8b36 cae7 70b8 60ff dab8 fa50 1fb9
000003e0: 6947 e2b7 fa60 32b9 8216 06b5 b22c e9b6
000003f0: d5ea 4838 a4fe 8838 ac5f 7d38 06df 1537

allnns.1.2.bias f4 [1024]
-0.060220454 -0.023238102 -0.0029185188 -0.00060481863 -0.013324746 0.0010324114 0.00055492955 -0.06276978
-0.0016083898 -0.005770214 -0.0029190069 -0.052596178 0.0047220658 0.00060884445 0.0040485836 0.013639686
0.022188088 0.006211493 -0.044225063 -0.08629604 -0.002122529 -0.0008346858 0.0672612 -0.028105062
-0.006674701 -0.0002446135 0.005618378 -0.003990177 0.00028011508 -0.00025685402 0.00949146 -0.009053243
0.0061812284 -0.011259804 -0.0017533778 -0.0012667038 -0.00035620978 0.0013221996 0.0012062222 -0.017847888
-0.0009953027 -0.0017691859 -5.178624e-05 -0.014505257 0.002086191 0.0007739007 0.0018538913 0.019666098
1.5826452e-05 0.001959281 0.0016324754 -0.011016133 -0.0011227458 -0.00074267545 0.008789004 -0.04693554
-0.011131505 0.019493809 0.01053953 -0.0020072043 -0.00010697498 -0.00042555117 0.019221056 -0.0022738043
0.0027268291 0.0017405071 0.0010947969 -0.00036140575 0.00083549833 0.00053398893 0.0008543123 -0.0018373356
0.0013827246 0.0011665062 0.0010436416 0.0026536395 7.9043784e-05 0.0006971907 -0.0004750757 0.004068445
-0.004231352 0.0017994534 0.0018674962 0.00060102873 0.0015090391 -0.00030373232 -0.0012620231 -0.015417282
0.00077585765 -0.0017648902 0.0043269806 0.0007939912 -0.0007549485 -0.000703524 0.0019972336 -8.252588e-05
0.008377881 0.0040189065 -0.0019926678 -0.0006468085 -0.0011861017 0.00031753513 0.00021225757 0.0035978728
-0.0011233087 0.006479431 -0.0024665573 -0.0006043967 0.001137003 -0.00011071497 0.0020358479 -0.0013433102
0.0026674883 -0.00070218474 0.0012444104 -0.003307595 0.00012124301 -0.0002674204 -0.002529243 0.029861704
0.0007729058 -0.0016157262 0.0012363625 -0.0024701315 0.0006802931 0.00031344703 -0.0065668533 -0.0015180967
-0.08890665 0.05531274 -0.0009852541 0.00387523 0.0005347456 -0.0030988515 -0.007667627 0.003094158
-0.01196124 -0.06468777 0.024712566 -0.07083042 0.012969245 -0.0041747447 0.027671997 0.013868848
0.054169923 -0.01042871 0.021301989 -0.02984515 -0.017647842 0.008221581 0.083428 -0.0381167
-0.017629504 -0.031058604 -0.005163663 0.0049009747 0.003922712 0.00013936838 0.040904876 -0.011943137
0.00088483223 0.0032040558 0.0015469671 0.0014307735 0.0010536249 -0.0010123244 -0.0005406306 -0.0046394616
0.0011445151 0.011712091 0.00079271634 -0.0023871681 -0.0019293018 -0.00058658863 -0.00018675017 0.0077083744
-0.0047880597 -0.00020341159 0.003388577 -0.0124650225 0.00342264 0.0013959693 -0.0027929996 -0.021726446
0.0016255429 0.0057180696 0.00356081 0.0007266049 -4.4233228e-05 -0.00029527 0.0013583043 0.001428209
-0.0046694595 -0.0012266614 -0.0022682222 0.0011537428 -0.00032886423 -0.00081174355 -0.0013777292 -0.00055854936
-0.0016091858 -0.004222508 -0.0014672404 -0.003204696 0.0012979276 -0.00070659316 0.0013564093 -0.0035388009
0.008102936 -0.0024127846 -0.0021926065 0.0044254716 -0.0015809628 0.0003052402 0.0056087654 0.020477964
-0.002316394 0.003306673 -0.007366338 -0.001319152 -0.00014005101 0.00063859054 0.0007782734 -0.001576084
-0.003317441 -0.0029760331 -0.0016254471 0.0004643514 -0.0010093091 -0.0004620015 -0.00042436368 -0.004230791
-0.001014131 0.00058516924 -0.002141181 -0.0017544208 0.00043699337 -0.00072822126 0.002340957 0.0038925286
0.0060665826 -0.0018886063 -0.0019696474 0.0013242874 -0.0015826456 0.00024777467 0.0060097147 -0.011413385
-0.0034954562 0.011699855 -0.001906907 -0.0023801152 0.0005332502 0.00033313292 0.005205842 -0.0010771259
00000000: b9a9 76bd d55d bebc 9f44 3fbb b18c 1eba
00000010: 0950 5abc fa51 873a b178 113a 718d 80bd
00000020: 9bd0 d2ba 1014 bdbb cf4c 3fbb 176f 57bd
00000030: 8fbb 9a3b dc9a 1f3a fba9 843b fd78 5f3c
00000040: cbc3 b53c c889 cb3b 5725 35bd fabb b0bd
00000050: 211a 0bbb d1ce 5aba 3dc0 893d 963c e6bc
00000060: 73b7 dabb 783f 80b9 5f1a b83b 08c0 82bb
00000070: 69dc 9239 5daa 86b9 1282 1b3c 0e54 14bc
00000080: e78b ca3b 0a7b 38bc 99d1 e5ba 8707 a6ba
00000090: abc1 bab9 a84d ad3a 1a1a 9e3a bc35 92bc
000000a0: d174 82ba 07e4 e7ba 0d35 59b8 75a7 6dbc
000000b0: 7ab8 083b 99df 4a3a 45fe f23a cc1a a13c
000000c0: 0cc3 8437 4867 003b c9f8 d53a 037d 34bc
000000d0: 1929 93ba 1bb0 42ba c1ff 0f3c 7b3f 40bd
000000e0: ea60 36bc 7bb1 9f3c fead 2c3c 4d8b 03bb
000000f0: c157 e0b8 831c dfb9 7a75 9d3c 1b04 15bb
00000100: 9ab4 323b ba21 e43a 4a7f 8f3a 0f7b bdb9
00000110: 5805 5b3a 64fb 0b3a eef3 5f3a c1d2 f0ba
00000120: 8a3c b53a 74e5 983a cdca 883a afe8 2d3b
00000130: 4fc4 a538 adc3 363a 9513 f9b9 9750 853b
00000140: 27a7 8abb a3db eb3a c6c6 f43a 5b8e 1d3a
00000150: f3ca c53a 433e 9fb9 786a a5ba c498 7cbc
00000160: ed62 4b3a e353 e7ba 58c9 8d3b d923 503a
00000170: bce7 45ba b26c 38ba 05e4 023b bf11 adb8
00000180: 6143 093c 08b1 833b 6b97 02bb 958e 29ba
00000190: f876 9bba d87a a639 7591 5e39 4aca 6b3b
000001a0: fc3b 93ba 6851 d43b f7a5 21bb 6070 1eba
000001b0: 7d07 953a a62f e8b8 dc6b 053b 0312 b0ba
000001c0: 07d1 2e3b d212 38ba 7c1b a33a 3cc4 58bb
000001d0: d843 fe38 8f34 8cb9 a8c1 25bb 88a0 f43c
000001e0: d59c 4a3a c6c6 d3ba 710d a23a eee1 21bb
000001f0: b255 323a 2656 a439 c22e d7bb dffa c6ba
00000200: b114 b6bd 9d8f 623d a423 81ba 92f7 7d3b
00000210: 2b2e 0c3a 1a16 4bbb b840 fbbb 5bc7 4a3b
00000220: 14f9 43bc 067b 84bd 0272 ca3c 8a0f 91bd
00000230: f57c 543c 4ccc 88bb 62b0 e23c 2a3a 633c
00000240: 48e1 5d3d 2edd 2abc 8281 ae3c d17d f4bc
00000250: 3592 90bc cfb3 063c 4ddc aa3d 4220 1cbd
00000260: c06b 90bc 9d6e febc f233 a9bb 5b98 a03b
00000270: 188a 803b 6a23 1239 df8b 273d 26ad 43bc
00000280: 16f4 673a 23fb 513b 9ac3 ca3a cb88 bb3a
00000290: c919 8a3a f8af 84ba 1bb9 0dba a006 98bb
000002a0: 8e03 963a 12e4 3f3c 4bce 4f3a 0972 1cbb
000002b0: a0e0 fcba 4cc5 19ba 5ed2 43b9 8896 fc3b
000002c0: 28e5 9cbb e24a 55b9 e312 5e3b 183a 4cbc
000002d0: 5f4e 603b f5f8 b63a c20a 37bb a9fb b1bc
000002e0: 2b10 d53a a55e bb3b 7a5c 693b a179 3e3a
000002f0: 1187 39b8 78ce 9ab9 2109 b23a be32 bb3a
00000300: 4402 99bb edc7 a0ba 74a6 14bb 2f39 973a
00000310: 696b acb9 30cb 54ba ec94 b4ba 9d6b 12ba
00000320: 51eb d2ba f75c 8abb 6b50 c0ba e105 52bb
00000330: 391f aa3a aa3a 39ba 8bc9 b13a 3aeb 67bb
00000340: 2dc2 043c cf1f 1ebb d5b1 0fbb 8c03 913b
00000350: 4f38 cfba a508 a039 bcc9 b73b 67c1 a73c
00000360: a4ce 17bb c4b4 583b 5261 f1bb 65e7 acba
00000370: a8da 12b9 1667 273a 0b05 4c3a 9a94 ceba
00000380: 6d69 59bb 8d09 43bb f40c d5ba 3174 f339
00000390: cb4a 84ba cb38 f2b9 217d deb9 72a2 8abb
000003a0: 97ec 84ba 0b66 193a 0e53 0cbb 98f4 e5ba
000003b0: 421c e539 1ae6 3eba be6a 193b cb19 7f3b
000003c0: 2fca c63b 1d8b f7ba 3315 01bb b693 ad3a
000003d0: c670 cfba c1e7 8139 24ed c43b 35ff 3abc
000003e0: 0614 65bb c0b0 3f3c 2ef1 f9ba b5fb 1bbb
000003f0: d1c9 0b3a 58a8 ae39 c595 aa3b 592e 8dba

allconvs.0.nn.0.weight f4 [7, 53]
0.14515911 0.17129076 0.2745288 0.25116983 0.26275402 0.34840706 0.15293647 0.22887707
-2.9167838e-06 -0.003077181 0.22034982 -0.00023710758 0.15749705 0.19886455 -0.0008289688 0.005481511
0.031557404 -0.0064040017 0.14219818 -0.011180005 -0.028610215 -0.11191052 -0.039704565 -0.0006609113
-9.4470786e-05 -7.502504e-07 0.29258558 0.2995075 0.077859744 0.2489712 0.14031929 0.26108375
0.11912785 0.10358307 -0.0015738041 0.15315652 -0.008600784 0.08579618 0.20675944 0.116079114
0.22434253 -2.975228e-05 -0.017539741 -3.0065127e-07 -0.001784645 0.060239106 0.09883095 -0.0021513586
-0.010053406 -0.010055275 -0.00038423974 -0.023651682 -0.015102316 -1.211431e-07 -0.036077898 -0.009831575
-0.0008569317 -0.0038027847 0.12525006 -0.001447276 -0.013449961 -0.007977732 -0.0047987103 0.028815502
0.104190215 0.09441116 -0.005825086 0.22384237 0.24298446 -0.004845106 0.19050802 0.124967165
0.16230583 0.21595475 0.15787093 0.14065771 -4.8317327e-07 0.20215593 -7.143758e-05 -0.011936652
-0.0009452648 0.16788179 0.20337403 -4.6615315e-07 -0.00082770805 -0.00011914848 -0.003617525 -0.001646907
-0.006058788 -0.0039454014 -0.0017171358 -0.040131133 0.20136952 -0.0017979323 -0.0022039737 -0.007729585
-0.0077504204 -1.5047262e-05 -0.0069549894 -6.0609622e-05 0.091182664 -0.0058710314 0.18345188 0.21519327
0.1130386 0.11318335 -0.0013499041 -0.0039048132 0.21052808 -0.02113759 -0.02878275 0.19382885
0.17460401 0.13616379 -0.0145471925 0.19246547 0.15165998 0.19765352 -0.0014429429 -0.0057618343
-0.003247326 0.08720991 0.2696949 -0.010186992 0.11759925 0.13456193 -0.0038002154 0.075628236
0.2072955 0.21295822 -1.4589306e-06 0.042772926 0.110572755 -0.014540534 0.05444422 0.020208893
0.057694636 -0.016108464 0.13351318 0.1531412 -0.019547565 -0.008051955 -0.0010389452 0.16309206
0.06860329 -4.5213387e-08 -0.004567685 -0.008028468 -0.027968932 0.029960316 -0.0041485196 -0.0032031809
-5.0354778e-05 -1.8387816e-07 -4.1428157e-06 0.18511288 -0.005096487 -0.00018960773 -0.0018173977 -0.039084833
-7.849509e-05 -0.020149237 -0.00017198587 -7.3232906e-05 -0.0015457169 -0.017026654 -2.4350689e-08 0.12702435
0.06816572 -0.011287592 0.17570642 0.13891627 -0.012945 0.08793685 0.17771876 -0.009234351
0.21377732 -1.9580213e-05 -0.02967429 0.04853492 -0.05584181 0.11832196 -0.026279356 -0.011841777
0.13532907 -0.0058924425 -0.00022199094 -0.0011137094 -0.00218715 0.064389825 0.20303974 0.079960905
0.05071781 0.1843837 0.24011841 -0.00012207017 0.0057873568 0.18178307 0.042366605 -0.0058654845
-0.032993555 0.023708202 -0.002672293 -0.012288381 0.053166106 -0.0065197884 -0.018869966 -3.3166307e-05
-1.6984828e-09 0.14884204 -1.4431983e-08 0.062057015 -3.6845147e-05 -0.000117659685 -0.028844453 -0.0034169485
-0.027159052 -4.801594e-05 -7.521191e-05 0.1228753 0.06047332 0.2994327 -0.001984165 0.13933113
0.19511494 0.09453392 0.14828901 0.059513234 0.0003699753 0.29116145 -0.0015046138 -0.035183605
0.006891439 -0.000110296176 0.026110101 -0.0012573387 -0.006550943 0.28850374 -0.01201751 -0.0024646139
-0.0021187498 0.16473767 0.15423322 -0.0008022601 0.08470253 0.2905331 -2.275784e-08 -0.0064293
-0.07312172 0.0773804 0.04200924 -0.00014525118 -0.0019984578 -1.05873994e-07 0.1262822 -0.080667
00000000: 97a4 143e d866 2f3e 0a8f 8c3e 5599 803e
00000010: b287 863e 6962 b23e 619b 1c3e c05e 6a3e
00000020: f7bd 43b6 88aa 49bb 62a3 613e 15a0 78b9
00000030: e846 213e 26a3 4b3e 284f 59ba 3f9e b33b
00000040: 5642 013d a9d8 d1bb 669c 113e 572c 37bc
00000050: f85f eabc 5831 e5bd 41a1 22bd 0241 2dba
00000060: 9e1e c6b8 d164 49b5 c7cd 953e 0c59 993e
00000070: ee74 9f3d 4ef2 7e3e dcaf 0f3e c5ac 853e
00000080: 4df9 f33d 5c23 d43d 1a48 ceba 10d5 1c3e
00000090: 4dea 0cbc e8b5 af3d bfb8 533e e3ba ed3d
000000a0: 0cba 653e 8994 f9b7 81af 8fbc 3269 a1b4
000000b0: c0ea e9ba 48bd 763d e267 ca3d cffd 0cbb
000000c0: 0ab7 24bc e1be 24bc c973 c9b9 2cc1 c1bc
000000d0: b46f 77bc 9013 02b4 6bc6 13bd 9d14 21bc
000000e0: b7a3 60ba 2438 79bb 8d41 003e 86b2 bdba
000000f0: 3a5d 5cbc 09b5 02bc 803e 9dbb 7d0e ec3c
00000100: ae61 d53d a35a c13d 5de0 bebb ef36 653e
00000110: ebd0 783e b2c3 9ebb 8914 433e c9ee ff3d
00000120: 8033 263e 3e23 5d3e eba8 213e 9308 103e
00000130: 6ab3 01b5 f701 4f3e c2d0 95b8 f291 43bc
00000140: a6cb 77ba 34e9 2b3e 4841 503e 9a43 fab4
00000150: 8cfa 58ba 5adf f9b8 0014 6dbb 07dd d7ba
00000160: cc88 c6bb 6d48 81bb 8411 e1ba 8b60 24bd
00000170: d033 4e3e 99a8 ebba 8b70 10bb 7548 fdbb
00000180: 3df7 fdbb 8073 7cb7 aee6 e3bb 1637 7eb8
00000190: fabd ba3d c861 c0bb cfda 3b3e a05b 5c3e
000001a0: c880 e73d accc e73d 44ef b0ba e5e7 7fbb
000001b0: ac94 573e bd28 adbc cdc9 ebbc 127b 463e
000001c0: 65cb 323e 856e 0b3e 5957 6ebc ab15 453e
000001d0: c14c 1b3e af65 4a3e 2121 bdba c5cd bcbb
000001e0: 17d1 54bb 1c9b b23d 7315 8a3e 57e7 26bc
000001f0: e0d7 f03d 9aca 093e 090d 79bb fae2 9a3d
00000200: 4645 543e b811 5a3e 79d0 c3b5 aa32 2f3d
00000210: f873 e23d 6b3b 6ebc e700 5f3d 1f8d a53c
00000220: 3651 6c3d e6f5 83bc aeb7 083e 0cd1 1c3e
00000230: 3722 a0bc 59ec 03bc 372d 88ba 9b01 273e
00000240: e27f 8c3d a530 42b3 85ac 95bb d689 03bc
00000250: 1a1f e5bc 566f f53c 4ef0 87bb 75ec 51bb
00000260: 0834 53b8 0b70 45b4 8402 8bb6 3b8e 3d3e
00000270: 6e00 a7bb 70d1 46b9 bf35 eeba 6b17 20bd
00000280: bb9d a4b8 0310 a5bc 1b57 34b9 9e94 99b8
00000290: a799 caba 7b7b 8bbc bb2b d1b2 ac12 023e
000002a0: 789a 8b3d 98ef 38bc 62ec 333e 1140 0e3e
000002b0: 4417 54bc 3c18 b43d e8fb 353e ad4b 17bc
000002c0: 71e8 5a3e 3040 a4b7 7f17 f3bc 8dcc 463d
000002d0: 62ba 64bd c952 f23d ce47 d7bc 0304 42bc
000002e0: b493 0a3e 6415 c1bb 3dc6 68b9 e3f9 91ba
000002f0: 4a56 0fbb d0de 833d a6e9 4f3e 8bc2 a33d
00000300: 7abd 4f3d 15cf 3c3e 9ae1 753e ecff ffb8
00000310: dea3 bd3b 5725 3a3e 9b88 2d3d 4033 c0bb
00000320: 4024 07bd b437 c23c a321 2fbb 3555 49bc
00000330: b4c4 593d f3a3 d5bb 3095 9abc 0d1c 0bb8
00000340: 0d70 e9b0 0c6a 183e 88f0 77b2 7f2f 7e3d
00000350: 2d8a 1ab8 10c0 f6b8 344b ecbc e2ee 5fbb
00000360: a97c debc b964 49b8 16bb 9db8 0ca6 fb3d
00000370: dfb2 773d 3e4f 993e c408 02bb d2ac 0e3e
00000380: 36cc 473e 009b c13d 13d9 173e 26c4 733d
00000390: 3ff9 c139 1d13 953e 7636 c5ba af1c 10bd
000003a0: 95d1 e13b cf4e e7b8 dae4 d53c 49cd a4ba
000003b0: 4ba9 d6bb c3b6 933e 17e5 44bc 5c85 21bb
000003c0: b9da 0abb feb0 283e 50ef 1d3e c44e 52ba
000003d0: 8578 ad3d c1c0 943e 057d c3b2 e1ac d2bb
000003e0: d7c0 95bd 9d79 9e3d e111 2c3d 914e 18b9
000003f0: 8ff8 02bb d85c e3b3 1f50 013e bd34 a5bd
