model/0test.pth (torch, 333527 bytes, 29 tensors)

allnns.0.0.weight f4 [12, 100]
000000 c9 24 0e bb 78 a5 24 3d d1 9c 15 ba d1 db 01 3d
       -0.0021689406 0.040196866 -0.00057072664 0.031703774
000010 a6 b0 84 a8 89 82 d6 3d 51 b6 43 3d ae 71 0c bb
       -1.4731553e-14 0.10474116 0.047781292 -0.0021430063
000020 c3 f0 84 b8 c8 bc ef 3d 56 ee 80 bb 5d 69 c0 3d
       -6.339096e-05 0.11705929 -0.003934662 0.093950965
000030 78 46 19 3d d6 aa 6c 93 75 a0 de ba 0c 3b d3 a2
       0.03742072 -2.9871616e-27 -0.0016985076 -5.7254183e-18
000040 07 b8 8f ba b5 95 c8 b9 94 c1 1f 3e b7 2c 4a 3e
       -0.0010964879 -0.00038258513 0.15601188 0.1974362
000050 88 ff f1 b3 a4 75 01 b3 d9 34 6e b9 d5 3d 8e 3d
       -1.1268918e-07 -3.0142147e-08 -0.00022717136 0.06945387
000060 e8 93 e4 aa a6 94 d0 ad 48 59 11 ba 65 d6 e9 ba
       -4.0603567e-13 -2.3712875e-11 -0.0005544615 -0.0017840384
000070 f1 4b 2e b7 8f d8 8d 3b 06 63 f7 a2 c6 39 37 3d
       -1.038889e-05 0.0043287943 -6.705433e-18 0.04473283
000080 e9 6b ed b8 71 23 bb b5 2a 89 48 b6 da 75 da ba
       -0.000113211405 -1.39429e-06 -2.9882162e-06 -0.0016667203
000090 24 f5 74 ba 33 01 59 bb 0b c1 9d b8 82 33 2f 3d
       -0.000934439 -0.0033112287 -7.5223004e-05 0.04277373
0000a0 c1 0a 88 3d ec 96 77 bb 09 77 f9 ba 94 d0 81 b4
       0.06642676 -0.0037779165 -0.0019032668 -2.4179883e-07
0000b0 99 d4 ea b9 02 46 f7 ba 3a 55 a5 3b b7 13 3c 3e
       -0.00044790356 -0.0018865468 0.00504556 0.18366896
0000c0 1d c6 5d b9 d9 d1 35 ba 4a 77 a9 3c f7 64 5a ba
       -0.00021150005 -0.0006935872 0.020686764 -0.0008331085
0000d0 bb b3 46 3d cb ac ad 3d fc 7c a6 bb d5 98 01 bb
       0.048511248 0.08480223 -0.0050808173 -0.0019774933
0000e0 9b c4 ac bc bc e4 be bb 40 88 3c b8 20 f1 43 a5
       -0.021089843 -0.005825607 -4.4949586e-05 -1.699525e-16
0000f0 f9 b2 29 ad 32 44 dc 3c c2 d2 37 3d ad fc 4d 3d
       -9.646278e-12 0.026887987 0.04487873 0.0502898
000100 b8 a4 bd b7 fa 56 2a 3e 67 7c bf ba dc 56 d3 bb
       -2.2607259e-05 0.16634741 -0.0014609218 -0.0064495634
000110 ac cb 4d 8e 37 ec 7d b9 af 54 5a b9 b2 ca ab ae
       -2.5366265e-30 -0.00024215957 -0.00020821647 -7.8121856e-11
000120 e9 49 23 bb a6 53 9a ba 77 1e 3d ba f3 12 b5 3d
       -0.002491588 -0.0011774197 -0.00072143174 0.08841505
000130 f4 20 ff 3d 9d 35 27 b9 b0 72 29 bd 3e 66 cb 3d
       0.12457457 -0.00015946334 -0.04136914 0.099316105
000140 f3 2b 36 bb c4 32 8f a1 0f 2f 4e b8 7e 5b 8b a4
       -0.0027797192 -9.703494e-19 -4.9158054e-05 -6.0436635e-17
000150 3d eb 93 3e 43 b6 d3 b8 f7 6a e9 b9 9f aa ba ba
       0.2889041 -0.00010095213 -0.00044520918 -0.0014241523
000160 55 1d 00 bd 16 7c 96 ba bb ca 27 b9 68 34 20 bc
       -0.031277973 -0.0011481072 -0.00016001884 -0.00977812
000170 e2 cc 73 3d 15 d2 fc b8 ba 98 94 b8 09 90 c6 b2
       0.059521563 -0.00012055427 -7.0856375e-05 -2.3115733e-08
000180 95 71 39 b9 bc 37 1f a6 f6 1f a0 ad 0e cf d3 b9
       -0.00017685287 -5.523974e-16 -1.8204088e-11 -0.00040399324
000190 42 17 2e 3d 4b 93 89 b1 c2 4c 24 b9 69 40 b4 3c
       0.04250265 -4.00397e-09 -0.00015668853 0.02200337
0001a0 9d 2e a4 b6 ac 01 31 b5 c8 40 d9 3d 11 7b 93 b0
       -4.8930074e-06 -6.594007e-07 0.10608059 -1.0730635e-09
0001b0 5c 04 32 b9 91 58 95 3d 0f 50 15 a4 f1 e1 f1 b9
       -0.00016977027 0.07292283 -3.2377037e-17 -0.00046135442
0001c0 75 f0 1f 3d 9d f2 6d bb d0 93 52 b8 42 c5 14 ba
       0.039047677 -0.003630794 -5.0205563e-05 -0.00056751457
0001d0 61 17 8c ba 7c ea 2c 3e 3f 61 95 a2 73 87 9f b7
       -0.001068812 0.16886324 -4.0489494e-18 -1.901735e-05
0001e0 4d c2 32 b0 32 69 a5 bb b0 80 86 bb 19 89 95 3e
       -6.503214e-10 -0.0050479406 -0.004104696 0.2920616
0001f0 31 a1 ff 3d 87 01 97 ba 39 be 1e 3e ef 6b 4a b9
       0.12481917 -0.0011520841 0.15502252 -0.0001930443
000200 83 54 9f 3d fe e3 1f 3e 30 2d 73 bb c6 da f3 3c
       0.07779791 0.15614316 -0.0037105791 0.029767405
000210 1b 73 e7 b9 f2 6a 5f 3d 40 f5 89 bb da fe 79 b9
       -0.00044145514 0.05454535 -0.0042101443 -0.0002384143
000220 3c e8 dc b9 53 3d 96 b2 06 99 b9 92 f2 44 36 3e
       -0.00042134698 -1.7490185e-08 -1.1712865e-27 0.17799738
000230 3b 31 1a 3e c3 f3 88 b0 c4 eb 10 b3 a8 84 61 9e
       0.15057842 -9.964584e-10 -3.374204e-08 -1.19388335e-20
000240 fc 13 99 b8 10 ca 27 a6 f7 02 63 ba c7 47 2d 3e
       -7.299331e-05 -5.821361e-16 -0.00086598046 0.16921912
000250 44 c6 ef 3d 1b 7d 30 bb 76 26 ab 93 71 09 34 3e
       0.11707738 -0.0026930037 -4.3204394e-27 0.17581727
000260 cf 49 e0 a5 ef cf 10 b7 de cd 16 ba ad 6a b1 bb
       -3.890782e-16 -8.631482e-06 -0.00057527225 -0.005414328
000270 83 1e 33 3d 4d 29 70 3d 15 eb 11 3e 89 ca 9c b6
       0.04373027 0.058633137 0.14249833 -4.6727405e-06
000280 d2 62 89 bc c9 aa 5a b9 f3 d6 43 b6 67 73 84 3e
       -0.016770754 -0.00020853723 -2.9182381e-06 0.25869295
000290 e5 d8 51 ac 03 c4 82 9e 1d 2a 70 ad d6 c1 28 94
       -2.9821087e-12 -1.3845354e-20 -1.36517716e-11 -8.52006e-27
0002a0 12 cd 68 ac 4d 7b df 3e 05 83 db bc c6 00 ae b9
       -3.308302e-12 0.4364876 -0.026795873 -0.00033188442
0002b0 2b dd b4 ba c5 78 b3 3d 88 ec 62 bb 51 92 86 3e
       -0.0013798823 0.08763269 -0.0034625847 0.26283506
0002c0 56 b8 00 3e 2c 0d 20 b9 65 95 ad 3d 05 c8 3a 3e
       0.12570319 -0.00015263696 0.0847576 0.18240364
0002d0 c7 74 8e 3e ad d8 8a bc 0d 4d 6e b9 e7 1d 83 bc
       0.2782347 -0.016949022 -0.00022726152 -0.01600547
0002e0 19 34 3a bb 35 24 39 3c c5 99 14 b4 43 93 45 ad
       -0.00284124 0.011300136 -1.3839515e-07 -1.1230852e-11
0002f0 8d 1b b4 bc 38 75 85 3d 51 4e 3f bd 63 95 86 3e
       -0.021985793 0.06516498 -0.046705548 0.26285848
000300 cd 2a fc b7 2e c7 9a b6 cd e5 4e 3e b1 71 aa 3e
       -3.0060672e-05 -4.612745e-06 0.2020485 0.33289865
000310 37 f9 02 3d 40 77 ac b9 f2 4e f8 b7 a9 e9 68 b8
       0.03197595 -0.00032895245 -2.9600666e-05 -5.5530723e-05
000320 29 24 c7 ba 84 b3 d2 b6 a5 ab b8 b9 78 fc 82 ae
       -0.0015193272 -6.279386e-06 -0.000352231 -5.956563e-11
000330 01 49 84 3d 99 25 13 ba b8 22 54 bb 10 b3 c7 b8
       0.06459237 -0.00056132075 -0.0032369327 -9.5224124e-05
000340 b6 ce 66 b9 aa 6e 90 3d c0 e0 03 3e c4 76 01 3e
       -0.00022011515 0.070523575 0.12878704 0.12642962
000350 b6 de 1c b9 44 3c 83 3d 1f 71 41 3e 79 51 55 3e
       -0.00014960286 0.06407979 0.18890809 0.2083186
000360 8a a9 3f 3e 84 31 50 3e 53 bd 0f 98 5d 6e 88 3d
       0.18717018 0.20331389 -1.8577901e-24 0.06661675
000370 a3 fb 39 b9 61 11 aa 3d ba 90 d5 3d 5a fe 9b ae
       -0.00017736717 0.08304096 0.10427995 -7.093766e-11
000380 46 27 62 b9 a3 27 10 ba 26 34 89 3d c3 18 ec bb
       -0.0002156767 -0.00054990704 0.066994 -0.0072051003
000390 79 c3 46 bb 01 d2 aa ba b4 9c 07 ab 90 21 df b8
       -0.0030328913 -0.0013032557 -4.8179104e-13 -0.0001063972
0003a0 de 5c d7 ba e7 2b 0f b7 87 f9 13 9c c1 51 0c 3d
       -0.0016430875 -8.533686e-06 -4.8960727e-22 0.034257654
0003b0 de 90 91 b9 dd a2 8c b9 87 19 a6 b9 d1 59 3c b8
       -0.0002776449 -0.00026824223 -0.00031681007 -4.490634e-05
0003c0 c5 07 8b b3 f4 ba d4 b4 fb 07 97 ba de 65 33 9e
       -6.474105e-08 -3.9624103e-07 -0.0011522764 -9.497247e-21
0003d0 6d 24 5c b6 c3 fd 38 b9 3e c9 4d b8 15 b8 22 b1
       -3.2803757e-06 -0.00017642141 -4.906323e-05 -2.3678741e-09
0003e0 cd 94 b7 b8 ca fa bb bb b2 85 b4 3c 08 ed 9f ba
       -8.753836e-05 -0.0057366835 0.022036407 -0.0012201378
0003f0 80 59 df b0 9a 15 81 3d a2 a4 6f ac 00 e2 7e bc
       -1.6250823e-09 0.06302948 -3.4055332e-12 -0.015556812

allnns.0.2.weight f4 [3200, 12]
000000 35 93 c8 3a 61 6c 74 ba 30 fe 51 3b b6 77 08 3b
       0.001530266 -0.0009324011 0.0032042377 0.0020823306
000010 a5 66 1b 3b e4 06 22 bb bc ad a0 3b 95 bf 65 3c
       0.0023712304 -0.0024723345 0.0049035233 0.0140227275
000020 43 b7 1f 3b 98 54 94 bb b9 9f 1e 3b 00 f2 a6 3a
       0.0024370707 -0.004526686 0.002420409 0.0012736917
000030 31 ef 85 bc 57 7d 36 3a b5 f5 64 bc f2 35 06 bb
       -0.016349407 0.0006961426 -0.013974597 -0.0020478931
000040 18 25 40 3b d2 35 87 bc 15 5c 75 3c 73 86 05 b7
       0.0029318985 -0.016505156 0.014975567 -7.958722e-06
000050 47 57 37 bc 49 0f 1c bc 14 1b 8f bc b1 ea d1 bc
       -0.011190242 -0.009525129 -0.017468967 -0.025624605
000060 1a 4d a5 3c 5a 12 0f 3a 65 45 12 bd 95 14 fc bc
       0.020178366 0.00054577517 -0.03571071 -0.030771533
000070 39 82 7c bd 15 b8 fc 3b 69 0d 86 bc 0d 48 96 3d
       -0.061647628 0.007712374 -0.016363816 0.07337961
000080 40 0d 7e 3a aa 5f 2f bd 7d cc 94 3c 5f 40 5b 3d
       0.00096913055 -0.04281584 0.018163914 0.053528186
000090 bc ed 0e 3a 48 33 13 3c 92 fc 09 bc 13 0a 2d 3b
       0.00054522953 0.008984394 -0.008422034 0.002640371
0000a0 21 10 a1 3b f2 f3 08 bc 01 a6 8e bb 3e 99 d3 bb
       0.004915253 -0.008358942 -0.0043532853 -0.006457477
0000b0 05 89 20 bc 9b 3b c6 3b ce 12 f2 bb fe 9f 90 3a
       -0.009798293 0.006049586 -0.0073874956 0.001103401
0000c0 0d 3d 0f 3d 7c 86 e1 bb 00 d2 47 bd fe ce 32 bd
       0.034970332 -0.006882487 -0.048784256 -0.043654434
0000d0 76 ce c5 bd 16 27 0c 3d 74 a0 b0 bc e7 0a 05 3e
       -0.0965852 0.034216963 -0.021560885 0.1299244
0000e0 8e f7 e2 3c 18 0e fe bc 89 4c 5f 3d 7d 32 c5 3d
       0.027705934 -0.03101258 0.05451635 0.096287705
0000f0 b6 37 a5 bc a0 6c f4 bb 99 7a 5a 3c f8 01 49 3b
       -0.020168167 -0.007459238 0.013334894 0.003067134
000100 88 f4 20 3c 66 c0 7e 3b 12 89 ce bb d0 74 32 bd
       0.009823926 0.0038872003 -0.006302961 -0.043568432
000110 31 a3 97 bc 5f 69 b7 3c b9 38 76 bc 5d 32 07 bd
       -0.018510433 0.022389112 -0.015028172 -0.033007015
000120 30 5c 1f 3b a6 5a 17 3b 36 d2 7d bc 59 ce b4 bc
       0.0024316423 0.0023094802 -0.015492013 -0.02207105
000130 a7 ae 7f bc 96 67 85 3b 34 70 f4 bb c8 e5 54 3c
       -0.015605605 0.0040711863 -0.0074596647 0.012994237
000140 32 5b ab bc 54 4e a9 bc b9 cc db bb 48 73 c4 3b
       -0.020917509 -0.020667233 -0.0067077545 0.005995188
000150 a0 b3 1c 3c 15 66 21 3b bb 51 85 bc 6e 21 1a bc
       0.00956431 0.0024627496 -0.016274324 -0.009407384
000160 22 3e 82 bc 5e 8c 5a bc ae 08 8d 3b 40 c4 32 3d
       -0.015898768 -0.01333913 0.004304013 0.04364419
000170 c4 d0 95 bb a9 b3 c7 bc 19 e1 1b 3b 90 ed bf 3c
       -0.004572006 -0.02437766 0.0023785292 0.023428708
000180 cb 93 6d bb e4 66 31 bc 63 4f 3a 3b da 80 8d bb
       -0.0036251422 -0.010827754 0.0028428666 -0.004318339
000190 c9 48 48 bc 3b eb 8a bc e8 57 82 3b 7f 7a 40 3c
       -0.012224385 -0.01695787 0.0039777644 0.011747955
0001a0 e6 66 92 bb e0 93 3e bc fe 0c dc ba b2 7b fc ba
       -0.004467833 -0.011631936 -0.001678854 -0.0019262938
0001b0 29 37 0d 3d 79 28 91 3b ca 2c b8 bd 08 0e 89 bd
       0.034476433 0.0044298735 -0.08992918 -0.066921294
0001c0 9b 71 1b be 84 df ae 3c 90 26 2e bd 07 65 42 3e
       -0.15180056 0.021346815 -0.042517245 0.18983851
0001d0 dd 61 2b 3d 20 8c 88 bd b1 bf 97 3d 70 4f 17 3e
       0.041841377 -0.06667352 0.07409609 0.14776397
0001e0 61 cd 56 3c b5 ac 01 3c 19 61 a8 3a b3 3c d8 3b
       0.01311049 0.007914712 0.001284632 0.006599033
0001f0 c8 18 53 bb 4e 11 d5 bb b5 32 34 bb 33 52 2e bb
       -0.0032210816 -0.006502307 -0.0027496044 -0.0026599288
000200 73 28 27 3a f7 94 a0 3c d0 ed b7 3b 2b 98 97 3c
       0.0006376572 0.019602282 0.0056130663 0.018505177
000210 a4 77 4a 3a 43 cf ac bb 0a ba b7 3b c1 de f0 3a
       0.00077235163 -0.005273731 0.0056068944 0.0018376933
000220 40 22 da 3c 6e 0b 07 3c 54 30 35 bb 35 5e b4 bc
       0.02662766 0.008242471 -0.0027647214 -0.022017578
000230 df 21 91 3b b4 9c 5a 3c e2 59 98 3b 70 c6 7b bc
       0.0044290866 0.013343025 0.0046493867 -0.015367135
000240 94 4f 05 bd c2 ea 17 3b 73 16 9e 3c b3 f9 d9 3c
       -0.032546595 0.0023180698 0.019297814 0.026608324
000250 85 67 98 3d 6b 78 fe bc 9a c0 76 3c 5e 53 95 bd
       0.0744162 -0.03106328 0.015060568 -0.07291292
000260 9a 7d 6e bb 4b 27 1a 3c f2 df a4 bc 71 e3 8b bd
       -0.0036390782 0.009408782 -0.020126317 -0.068304904
000270 10 55 6a bc 04 a8 28 bc 0e 37 67 bc d6 d6 0f ba
       -0.014302507 -0.010293964 -0.014112247 -0.000548703
000280 fa d3 71 3b 45 08 8b 3b 73 b1 10 3c 16 2d b4 3c
       0.003690003 0.004242929 0.00883137 0.021994155
000290 65 97 b7 3b f6 d1 46 bc 89 74 bb 3b 49 f9 df bb
       0.0056027644 -0.0121350195 0.005720679 -0.006835137
0002a0 c6 fd 8f bc 15 c9 82 3a 3b 87 b2 bb 84 6d 67 3c
       -0.017577063 0.000997814 -0.0054482496 0.014125232
0002b0 d9 17 f1 3b a2 64 da ba 04 a3 9b 3c 6e 72 08 3c
       0.007357579 -0.0016662071 0.01899863 0.008328063
0002c0 14 7b 31 3c 73 cd d7 3b 20 c7 10 bb a9 57 bf bc
       0.010832567 0.0065857708 -0.0022091344 -0.02335723
0002d0 ff 88 b3 3b 5d d5 0a bc 6b 39 80 3b 71 8b 59 3b
       0.0054789777 -0.008473721 0.0039130948 0.0033194686
0002e0 9d a8 49 bc ee c4 0c bc 0d ba cd ba 7a 2e 4c 3b
       -0.012308267 -0.008591874 -0.0015695706 0.0031155632
0002f0 3b 74 61 3a 57 64 bd 3b e8 bf 7b bb d2 a3 2b 3c
       0.00086003885 0.0057797837 -0.0038413946 0.0104760695
000300 f9 11 5c 3b 78 a5 00 3c 70 81 46 3a 8a ad c6 39
       0.0033580048 0.007851951 0.0007572388 0.000378948
000310 74 b2 8c ba 66 fe a7 ba 6a 2c 7b 3b f2 07 b0 3c
       -0.0010734336 -0.0012816906 0.0038326033 0.021488164
000320 f9 91 1e 3c 96 8a 58 3c 8c 17 54 3c 23 03 80 3c
       0.009678357 0.013216635 0.012945067 0.015626496
000330 8e 51 ee 3a 21 b3 f7 bb 47 3b c8 3b 2e aa 10 bb
       0.0018182264 -0.0075591956 0.006110582 -0.0022074091
000340 1f b2 16 bc 8d 54 89 3b 14 a2 dd bb ab 52 54 bc
       -0.009197741 0.0041909874 -0.006763706 -0.012959163
000350 1f 6e 8c bb 61 65 14 3c 48 6a b0 bb a5 9c 7d 3b
       -0.0042855884 0.009057374 -0.0053837635 0.0038698104
000360 5f d8 43 3c 7e 14 28 bc 4b a7 92 ba 53 3b db ba
       0.011953442 -0.010258792 -0.0011188773 -0.0016726054
000370 ca e2 57 bc de f2 4b 3a aa 90 5e bc 92 bf bd bc
       -0.013176629 0.00077800255 -0.013584295 -0.023162637
000380 04 cf ba bb 52 d5 86 3b b9 06 f4 ba 01 34 47 3c
       -0.0057009477 0.004114785 -0.0018617726 0.012158395
000390 66 c5 7e bc 4c c2 86 b9 76 90 d7 3c 99 25 9d 3c
       -0.015549993 -0.00025703234 0.026314002 0.019182967
0003a0 48 e9 2f 3d 96 37 ae bc da 3f 35 3c 14 99 87 bd
       0.042947084 -0.02126674 0.011062587 -0.06620994
0003b0 7a 89 03 ba 2f 43 c2 3c 40 ce 91 bc bc b6 32 bd
       -0.0005017739 0.023713676 -0.017798543 -0.0436313
0003c0 14 68 8b bc 74 ff 84 ba 55 3d 7d bc 26 20 24 bc
       -0.017017402 -0.0010146932 -0.015456517 -0.01001743
0003d0 6a 33 b9 3c 83 24 c7 bb d0 4e 77 bb 7f 6a a6 39
       0.022607524 -0.0060773506 -0.0037736185 0.00031741333
0003e0 7d 2e 35 3b 20 a2 fc bc a1 73 d3 b9 25 98 e7 bc
       0.0027646117 -0.030839026 -0.00040331206 -0.02827079
0003f0 d0 50 8f bb e6 b3 ef ba 15 eb b4 bb 11 b1 58 ba
       -0.0043736473 -0.0018287867 -0.005521188 -0.0008266131

allnns.0.2.bias f4 [3200]
000000 5d e4 07 3c 7c 0f ea bd ab 7c 71 bd 36 04 af bb
       0.008294192 -0.11428735 -0.058956783 -0.005341078
000010 16 14 82 3d e1 32 c4 bd 42 6e 10 bd 53 11 7e bd
       0.06351487 -0.09580017 -0.0352614 -0.06202824
000020 28 33 85 3b 1f f1 84 bb 46 8f 61 3d 40 fc 77 3c
       0.004064936 -0.004057064 0.055068277 0.015135825
000030 91 e5 b0 3d 1b a5 86 3d b1 0b 26 3c 20 4c b4 3c
       0.08637536 0.0657446 0.010134623 0.022008955
000040 bd 09 7c 3d 0f e7 ea bc b3 d2 2b 3c 3e 42 85 3d
       0.061532725 -0.02867463 0.010487246 0.06506775
000050 6a 24 15 be 34 85 b2 3c 6d 09 99 bc b7 da 89 3b
       -0.14564672 0.021792032 -0.018681252 0.004206981
000060 d3 57 eb 3a aa d0 ec 3d 4b c2 16 3c 38 af f3 bb
       0.0017955251 0.11563237 0.0092015965 -0.007436659
000070 cc 8f b6 3c 85 b7 fe 3d b7 e2 d3 bb 56 11 81 3d
       0.022285365 0.12437347 -0.0064662355 0.06302135
000080 cb 74 7b bc d6 10 0c 3e 27 0f b9 bc 2e 5f 6c 3d
       -0.01534767 0.13678297 -0.022590233 0.057707958
000090 63 21 6b bc 9f 86 1a 3e 3d a3 9a bd 9b 12 d6 bd
       -0.014351222 0.15090416 -0.075506665 -0.104527675
0000a0 89 d5 af 3b 59 c0 5a 3c 53 48 6f 3d c9 ca 9d 3c
       0.0053660315 0.013351523 0.058418583 0.019261735
0000b0 1f e5 67 bc 2d 53 d2 bc 73 7d a2 bd db 5f 17 3c
       -0.014153748 -0.025674427 -0.07934084 0.009239162
0000c0 6a 9c 02 3e 41 bb ca ba d8 e5 24 bc a6 17 9f 3d
       0.1275498 -0.0015467183 -0.010064565 0.077681825
0000d0 88 c4 03 3c 2f d6 b1 3d 66 1d 09 3d 68 cf 98 bd
       0.008042462 0.086834304 0.033475302 -0.074614346
0000e0 fb f9 ae 3d e5 60 e2 3d 3b bd 82 3c 8d a1 72 bd
       0.08543774 0.110536374 0.015959373 -0.059236098
0000f0 e3 b8 03 be 80 eb c7 3c 66 49 9c ba 2e 74 3f be
       -0.12863497 0.024404287 -0.001192373 -0.18696663
000100 fb e4 72 bc 16 e8 5a bd aa 25 c6 bb 1d 1f e5 3c
       -0.014825101 -0.05344399 -0.0060469704 0.027968938
000110 1d a0 aa bd 37 47 21 bd ec b7 ab 3d 93 e4 b1 3d
       -0.083313204 -0.039374556 0.0838469 0.08686175
000120 3f 14 a1 bc e6 9e f0 3c 2a ed 3c bd da df 3a bd
       -0.019662974 0.029372644 -0.046124615 -0.045623638
000130 ed f6 18 bd 2c 0a 80 3c 07 57 86 bd d1 fd 03 3a
       -0.03734486 0.01562985 -0.06559568 0.0005035075
000140 ad a2 81 3d 76 9e f7 3b 34 1f 30 bd 75 43 8e 3d
       0.06329856 0.007556732 -0.042998508 0.0694646
000150 6e c1 e6 bc 4f 9b c1 3c 83 04 65 bd b1 2e 60 3a
       -0.028168406 0.023633627 -0.055912506 0.00085518794
000160 9a c1 ab 3d 6c fe 43 bd b4 00 f2 3b ab 7f 6e 3b
       0.08386536 -0.047850057 0.0073853377 0.0036392014
000170 c2 13 0c 3d 0e ec 8d 3d 6c 9b 73 bd 4f ad 25 be
       0.03419853 0.069297895 -0.059474394 -0.16179393
000180 75 46 87 bc 9d ba 1f 3d d7 43 c9 bc d0 b9 2b bc
       -0.016513089 0.038996328 -0.024568481 -0.010481313
000190 d9 16 bc 3c b8 9f 8d 3c 03 53 d8 bc 0d 45 40 bc
       0.022960113 0.017288074 -0.02640677 -0.011735213
0001a0 e4 2a 07 3d 90 8b 90 3d 59 3d 9f 3c e2 80 ad bc
       0.032999888 0.070578694 0.019438433 -0.02117962
0001b0 9b 7f d5 bc d5 a2 47 3d 83 06 27 bd e8 19 a3 bc
       -0.026061824 0.048739273 -0.040777694 -0.019909814
0001c0 e4 d1 88 3d 69 54 55 bc 63 bd b5 3c 46 d8 01 be
       0.066806585 -0.013020613 0.022185033 -0.12680158
0001d0 d8 35 c6 bd 95 ff d6 3d 36 95 0d bd cd 24 30 3d
       -0.09678239 0.10497967 -0.034566127 0.043003846
0001e0 bd f8 8e bd a3 47 44 3d d9 89 42 bc 90 08 86 bc
       -0.06981037 0.04791988 -0.011873686 -0.016361505
0001f0 15 39 e8 bd 7e b8 a3 3d 9f 92 ae bd a5 38 8b bd
       -0.113390125 0.079941735 -0.085240595 -0.067979135
000200 c1 a2 98 3c d9 26 74 bd 14 bf 52 3d 8a e1 7e bd
       0.018632295 -0.05960736 0.051451758 -0.06222681
000210 de e3 1b 3e 13 39 a7 3c e8 ea 8e 3d 38 ce 7b 3c
       0.15223643 0.020412957 0.069783986 0.015368991
000220 6e 28 df 3b 11 d3 9a bc 60 48 cb bd 59 38 77 bd
       0.0068102395 -0.018899472 -0.09925914 -0.06035647
000230 0e 31 dd 3d 67 23 c7 bc 53 01 b1 3d 36 e4 25 3c
       0.10800372 -0.024308873 0.08642831 0.0101252105
000240 09 2a 13 be ef 52 06 3d 43 9d dd bd 69 68 84 bd
       -0.14371504 0.032793935 -0.10821011 -0.06465227
000250 e5 d4 2c 3e 91 3a 1a bd e3 bb 93 bc a6 b5 86 bd
       0.16878088 -0.03765351 -0.018033927 -0.065776154
000260 aa 54 34 bd 6c 28 fc bc 3f da 56 bd 54 25 73 bc
       -0.044026054 -0.030780993 -0.05245423 -0.014840443
000270 bf 77 e3 bc 6c 77 01 3c 14 ea c9 3d df 96 3e bd
       -0.02776706 0.007902008 0.098591 -0.0465306
000280 45 55 b4 3a 48 46 2e 3d 04 ba be bd 0a 58 fe 3c
       0.0013758322 0.042547494 -0.093128234 0.03104784
000290 84 aa fe bc 4f f0 50 bd 73 24 bb 3c 63 17 bd 3c
       -0.031087168 -0.051010426 0.022844529 0.02308244
0002a0 16 d3 a8 3c 7f 28 74 bc c7 02 99 bb b1 40 15 3b
       0.020608466 -0.014902233 -0.0046695205 0.0022774155
0002b0 9a ad bf 3c 3d 94 7f bd a7 08 18 bd e9 d2 b9 3c
       0.02339821 -0.06239723 -0.037117627 0.022683578
0002c0 cb b3 87 3d 7c 52 4d bd b4 f2 ff bc 03 c0 5f bd
       0.0662609 -0.05012749 -0.03124366 -0.054626476
0002d0 80 f6 0c be 69 2f ab 3d e9 d0 52 bd 50 aa 5c 3d
       -0.13765907 0.08358652 -0.051468764 0.05387336
0002e0 d6 4b 8b bc da 9c 18 bd 31 e5 09 bd db 3e ca 3a
       -0.017003935 -0.03725896 -0.03366584 0.0015430109
0002f0 41 01 eb 3d 13 ed 06 3c 4f 6e 06 3a f4 94 31 bd
       0.114748485 0.008235234 0.00051281316 -0.043354943
000300 8b 6a 11 3c 8b eb 94 bb 3f 12 fb 3c a2 5b 4b bc
       0.0088754995 -0.0045446805 0.030648349 -0.012411984
000310 67 a2 e1 bd 6d e5 81 3d e9 ff 89 bc 3d 06 56 bd
       -0.11017304 0.063425876 -0.01684566 -0.052252043
000320 91 00 0a bd 39 24 bb bd 53 85 fb bb 86 de 1e 3d
       -0.033691946 -0.09137768 -0.0076758056 0.038786434
000330 29 f2 8a bd bf 16 14 3d 2b 21 13 3e 21 26 aa 3c
       -0.0678447 0.036154505 0.14368121 0.020770134
000340 1f ce 0f bd d9 24 5d bd 1c c6 26 bd 1c 42 64 3d
       -0.03510868 -0.05399022 -0.040716276 0.05572711
000350 03 bd 7d 3d b5 45 c0 bd 8d 19 54 bd 9f 4c d3 bc
       0.061947834 -0.093882956 -0.05178218 -0.025793372
000360 e1 3d 93 bd 95 2b fe 3d 6f a1 17 bd 98 e7 e1 bc
       -0.07189537 0.12410656 -0.03701919 -0.027576253
000370 78 61 ca 3a c9 1f 40 3b 02 7a 62 3d e2 41 3b 3e
       0.0015440425 0.002931582 0.055292137 0.18286851
000380 7f 0c aa 3a 51 08 8a bc 0b af 59 3d 23 fa 43 ba
       0.0012973695 -0.016849669 0.05314545 -0.0007475933
000390 ea c7 06 3d 5a ce c1 bd 96 51 cb ba a5 9e 83 3d
       0.032905497 -0.094631866 -0.0015511985 0.064267434
0003a0 8f b5 06 bd 08 41 05 be bc de 77 bc e7 88 e5 bd
       -0.03288799 -0.13013089 -0.015128788 -0.11207753
0003b0 5c 82 d6 3d 57 1e 9d 3d 2d b5 dd 3d 6d 41 15 bb
       0.10474083 0.076718025 0.10825572 -0.0022774593
0003c0 8d 6b 0e bd 35 06 3c bb 94 c9 48 bc 24 d9 e6 bd
       -0.034770537 -0.0028690223 -0.012255091 -0.11271885
0003d0 57 46 37 3e c2 d0 a3 3d 7b 82 64 3c 54 8a 2c 3c
       0.17897926 0.07998802 0.013947125 0.010531027
0003e0 c1 9a 3b 3c 62 6d 99 bd a7 7f 9c bc 7e 23 96 bc
       0.01145047 -0.07491566 -0.019103838 -0.01832747
0003f0 e0 a8 23 be 00 90 be 3d 21 8f 11 3c 1c 26 a2 bd
       -0.1598239 0.093048096 0.008884222 -0.07917425

allnns.1.0.weight f4 [12, 100]
000000 b0 33 70 b0 81 62 5e 34 dc 89 37 30 d0 82 59 b0
       -8.7384944e-10 2.0711197e-07 6.677092e-10 -7.9130036e-10
000010 14 55 96 30 7f ed e3 ad 83 72 83 32 53 fa 75 aa
       1.0938117e-09 -2.5912382e-11 1.5302481e-08 -2.184722e-13
000020 71 8a a4 af b1 52 b4 30 dd cc 7a b0 76 2f a9 b0
       -2.9929795e-10 1.3120226e-09 -9.12406e-10 -1.2309858e-09
000030 4f 32 96 a7 e7 0c 81 32 67 ce 09 b1 b9 f4 de ae
       -4.168791e-15 1.5023444e-08 -2.005345e-09 -1.0138863e-10
000040 de 6c 08 b1 1f bd ab b0 13 aa 1d 91 2d 3f 65 b1
       -1.9852489e-09 -1.2495639e-09 -1.2437524e-28 -3.3359797e-09
000050 ca b7 86 b0 25 14 81 30 47 de 4f ae a9 c8 14 b0
       -9.802019e-10 9.391711e-10 -4.7263773e-11 -5.412724e-10
000060 a3 a8 6d af 3e cd ab a4 12 01 a1 af a4 28 9d b0
       -2.1614936e-10 -7.450712e-17 -2.928649e-10 -1.1434804e-09
000070 b6 de e4 aa da 65 24 af 03 bf f0 af 95 5b e4 30
       -4.0655473e-13 -1.4951898e-10 -4.3791468e-10 1.6615213e-09
000080 1a b1 4f 9c 3a b6 00 af 8b 6f ff 2e 4e 01 47 32
       -6.8719453e-22 -1.1706272e-10 1.16158715e-10 1.1583621e-08
000090 63 9e 7f 96 14 2e 2c b1 6c f1 6f af af 50 03 ae
       -2.0648714e-25 -2.5055487e-09 -2.1822694e-10 -2.9857613e-11
0000a0 df cf f1 b0 09 27 0d af 5b d2 98 ad de 63 79 30
       -1.7594138e-09 -1.2837743e-10 -1.7373816e-11 9.072759e-10
0000b0 d5 fb a4 af 16 0c 2c 31 c6 fb 79 2f 5e d0 60 2f
       -3.0010364e-10 2.5036164e-09 2.2735866e-10 2.0446708e-10
0000c0 d3 27 3b b0 94 8b 05 af ca a6 8c 31 ac 80 0a 2d
       -6.80868e-10 -1.2145868e-10 4.093498e-09 7.872963e-12
0000d0 cd 30 4c ae da 4e d4 b1 ed ee a0 b0 6e 7b b4 a3
       -4.6427574e-11 -6.1789764e-09 -1.1709439e-09 -1.9567914e-17
0000e0 0e e7 27 2e b9 da 8d 2f eb a8 bd 2f 05 36 10 b1
       3.817662e-11 2.5803162e-10 3.4498923e-10 -2.0985464e-09
0000f0 d1 a4 e7 ae e5 f4 b2 ac 3f a8 a2 af 52 39 41 b1
       -1.0533941e-10 -5.086253e-12 -2.9587174e-10 -2.811778e-09
000100 24 b4 2e af c7 49 b0 b1 df f0 c9 af 0e 3a 07 b1
       -1.5889207e-10 -5.1306617e-09 -3.6732836e-10 -1.9678086e-09
000110 1b ed ab af ca 1c 84 b0 e8 db a0 2a f4 b0 78 b0
       -3.1273192e-10 -9.612446e-10 2.85743e-13 -9.047334e-10
000120 68 d2 25 af 37 1b 2b 97 e3 23 17 2d 39 16 c5 ac
       -1.5081414e-10 -5.528743e-25 8.591325e-12 -5.601544e-12
000130 1f 2e 76 2f 4f 67 ae b0 48 d3 0b 31 c1 a1 ab ae
       2.2389955e-10 -1.2689528e-09 2.0347262e-09 -7.804913e-11
000140 06 cb cb b0 61 33 2c b1 8e 72 2a 30 8b d3 eb 30
       -1.4827897e-09 -2.50585e-09 6.200843e-10 1.7158625e-09
000150 25 39 ac b0 d3 3c 6e ad 73 b7 a5 30 5a c3 ff b0
       -1.2530889e-09 -1.3542239e-11 1.205747e-09 -1.8609214e-09
000160 f1 b3 5f b0 3b 4a 80 af b9 ca fc 9e ce 45 7c 2f
       -8.138264e-10 -2.3335808e-10 -2.6765382e-20 2.2944066e-10
000170 b9 95 39 af 8b 7b 0f b2 50 88 30 b0 08 6c 65 ad
       -1.6878844e-10 -8.351786e-09 -6.422214e-10 -1.3041131e-11
000180 dd 7c af 30 b4 27 30 b0 1f 10 2f 2f 69 81 e2 ad
       1.2768414e-09 -6.408485e-10 1.5921885e-10 -2.5750695e-11
000190 b3 53 54 b4 15 88 e8 af d1 43 4e 34 0d 6a a2 b2
       -1.9774488e-07 -4.2297246e-10 1.9209917e-07 -1.8907508e-08
0001a0 80 08 9c b4 d2 f2 a3 b3 f5 a5 c5 b3 e2 15 3b b5
       -2.906345e-07 -7.634448e-08 -9.203715e-08 -6.969477e-07
0001b0 c1 b4 54 33 0f 72 fe 32 74 e4 05 b0 c7 a6 72 b3
       4.952449e-08 2.962136e-08 -4.870977e-10 -5.64967e-08
0001c0 75 82 34 b4 4e fa 26 99 74 0c 0e b5 13 1f cd b3
       -1.6811266e-07 -8.6325475e-24 -5.2917244e-07 -9.551709e-08
0001d0 5a f4 32 34 e0 14 9e b3 dd e2 e9 34 91 42 9c 35
       1.6666436e-07 -7.3612455e-08 4.3564697e-07 1.1642279e-06
0001e0 67 95 0c 31 a7 da fc a9 ff f2 49 b2 88 0f 6a b2
       2.0457607e-09 -1.1228978e-13 -1.1754991e-08 -1.3624124e-08
0001f0 1d 4e f8 ae 64 21 9f b3 c1 e4 7e 37 11 3b 55 b2
       -1.129161e-10 -7.410088e-08 1.5192841e-05 -1.2411662e-08
000200 cd 6d 07 b3 11 53 7f b0 5e e6 35 ab d6 13 78 33
       -3.1532e-08 -9.2886504e-10 -6.4623816e-13 5.776004e-08
000210 c4 b6 8b b1 18 a1 91 b3 33 03 d5 32 1c ef b1 b2
       -4.0662105e-09 -6.7813914e-08 2.4797918e-08 -2.0714246e-08
000220 c9 e9 a2 32 38 11 2d b2 32 59 8c b4 2e d5 15 32
       1.8965595e-08 -1.007384e-08 -2.614193e-07 8.721413e-09
000230 af 20 98 33 17 d1 1f b2 29 b7 55 98 72 83 13 b4
       7.083997e-08 -9.30256e-09 -2.7622077e-24 -1.3738261e-07
000240 79 96 36 32 0f 36 84 b3 8f 4c 04 33 7c 01 31 b4
       1.0628008e-08 -6.156562e-08 3.0803275e-08 -1.648495e-07
000250 56 03 0a 30 27 4c 31 b1 cf b9 9b 36 f0 08 85 b2
       5.020885e-10 -2.5800178e-09 4.640991e-06 -1.5487302e-08
000260 1b fc 1c b3 12 52 89 b3 25 01 19 31 48 b7 b8 9b
       -3.655087e-08 -6.394488e-08 2.226508e-09 -3.055869e-22
000270 0e 55 73 32 05 82 a3 b2 bb e0 e0 2d a2 9d 53 b3
       1.4163801e-08 -1.9034823e-08 2.5565652e-11 -4.9270632e-08
000280 8e 27 9e 33 03 33 10 b4 74 de 23 31 44 90 25 33
       7.364643e-08 -1.3429603e-07 2.3846072e-09 3.8548265e-08
000290 88 e1 44 b3 c4 d4 5d b1 00 c3 75 b0 99 fc 5c 31
       -4.5839926e-08 -3.2280676e-09 -8.940759e-10 3.2157799e-09
0002a0 55 ad d3 b2 d7 9b 62 b3 1d 4a 6d b2 71 8b da 32
       -2.4642455e-08 -5.276146e-08 -1.3812067e-08 2.544195e-08
0002b0 19 5e e9 b3 0a 86 d0 b4 6d eb 89 34 17 2f 6e b0
       -1.0867024e-07 -3.8840545e-07 2.5689533e-07 -8.6650814e-10
0002c0 f3 1e 9d b4 cd 86 85 33 4c ba 2e 34 f3 b9 80 b5
       -2.9266047e-07 6.217815e-08 1.6272787e-07 -9.590862e-07
0002d0 c4 52 79 33 18 7c 46 b2 f2 70 8e b2 2e 6c 84 b3
       5.8050105e-08 -1.15533325e-08 -1.6582337e-08 -6.166407e-08
0002e0 ee 31 1e 33 5f d2 63 31 4f 2b 63 b3 c1 1e 43 9f
       3.6832652e-08 3.315243e-09 -5.2891945e-08 -4.1318295e-20
0002f0 1c e7 1e b4 7c 1e 8e b1 79 0b 9f 32 ed 3c d2 b3
       -1.4798974e-07 -4.1362096e-09 1.8515253e-08 -9.7899694e-08
000300 37 f6 0e 34 2b 25 a5 ae df d3 82 33 c1 ef 93 31
       1.3314353e-07 -7.5099336e-11 6.092136e-08 4.30552e-09
000310 ba 6d ca 33 a0 d6 ca b3 84 67 94 b1 bf 1b a1 af
       9.426317e-08 -9.445398e-08 -4.3191353e-09 -2.9305444e-10
000320 18 76 c1 aa 1e 44 63 a8 b4 a6 87 aa f9 c4 3a a9
       -3.436563e-13 -1.2615802e-14 -2.409649e-13 -4.1471143e-14
000330 d0 ff 04 ab cc 4e 21 2c a5 5e 77 aa 32 ed 14 2d
       -4.725083e-13 2.2923217e-12 -2.1970843e-13 8.465494e-12
000340 c7 a9 12 2b 8a e1 d8 2b 8d 45 46 2c 4f 8f 4d 2c
       5.2105233e-13 1.5410323e-12 2.81761e-12 2.9211804e-12
000350 c6 05 38 aa 01 6d 56 ab c3 c0 c9 ac c0 45 42 2b
       -1.6344486e-13 -7.6179346e-13 -5.7341644e-12 6.9019443e-13
000360 00 68 eb 29 75 54 d3 a9 83 e6 6d aa e7 69 c2 a9
       1.04541376e-13 -9.384933e-14 -2.1129803e-13 -8.633702e-14
000370 ec d6 05 a9 ca e1 9e 2a 9f ea ca ab 6b c3 a8 2b
       -2.9718347e-14 2.822311e-13 -1.4418084e-12 1.1991357e-12
000380 3a 92 be a8 d1 51 68 2c 4b 52 5b a9 8c 2f 16 a6
       -2.1157653e-14 3.30146e-12 -4.8699146e-14 -5.210614e-16
000390 0e 16 96 a7 bb ff e5 a6 ea 59 5a a7 8b e0 3a 2a
       -4.1657275e-15 -1.5959383e-15 -3.030232e-15 1.6598023e-13
0003a0 79 76 45 ab 66 a6 14 2c ad ae 3c ab 0b c5 a0 2b
       -7.0152873e-13 2.1124435e-12 -6.703343e-13 1.1423374e-12
0003b0 11 2b 7e aa 4f d9 5a a8 76 7b 82 ac 75 8f 9f ab
       -2.2574674e-13 -1.2148552e-14 -3.708529e-12 -1.1337447e-12
0003c0 97 0d ad ab 8c 01 90 2b 11 d4 11 ac bd c5 ea 29
       -1.2296161e-12 1.0232245e-12 -2.072346e-12 1.04259896e-13
0003d0 bb f2 83 ab 70 93 bd aa a8 79 5a aa 06 5f 0e 2b
       -9.375481e-13 -3.367545e-13 -1.9404498e-13 5.0580406e-13
0003e0 af ae 1c a9 76 3a 22 28 16 49 0d 2b 35 06 04 2a
       -3.4790472e-14 9.005483e-15 5.019469e-13 1.1726109e-13
0003f0 5a db 35 a9 49 37 10 2e 21 b1 19 a3 d4 fe 56 2b
       -4.038033e-14 3.2790912e-11 -8.331655e-18 7.638172e-13

allnns.1.2.weight f4 [1024, 12]
000000 0d 6e a5 af 4c d3 88 b2 2c 1e 5a 29 28 39 69 aa
       -3.009152e-10 -1.592857e-08 4.8431894e-14 -2.0714387e-13
000010 5b f9 a2 a8 7a bb be ab 5d 46 1d aa f9 00 c0 af
       -1.8093754e-14 -1.3552347e-12 -1.3968813e-13 -3.4925288e-10
000020 64 0d 90 af 68 06 49 b4 a6 a4 96 84 04 e7 bf b1
       -2.6202962e-10 -1.8721914e-07 -3.5416036e-36 -5.585095e-09
000030 37 3f 0f 30 1a 8f 19 33 69 d0 93 aa 2f 03 8c 2a
       5.211293e-10 3.575324e-08 -2.625706e-13 2.4871205e-13
000040 f9 e6 c1 28 6f b0 a6 2b 8e 2c c5 29 8d 0c 59 2f
       2.1527473e-14 1.184398e-12 8.7562864e-14 1.9740494e-10
000050 0c 23 07 30 5f e2 07 35 a6 22 25 06 c0 ce 88 31
       4.916252e-10 5.062083e-07 3.1058507e-35 3.9816257e-09
000060 6a c9 75 2f fd e6 bc 32 9e 16 4a aa b6 f0 95 27
       2.2354177e-10 2.1991122e-08 -1.7949051e-13 4.1616787e-15
000070 61 78 8f 27 2d 7b 59 28 c9 3b 26 29 d9 b1 c7 2e
       3.982099e-15 1.2072629e-14 3.691126e-14 9.0810644e-11
000080 79 ef 67 2f a0 5e ce 34 98 52 10 05 6c 5d d3 30
       2.1094405e-10 3.843934e-07 6.7860175e-36 1.5378823e-09
000090 71 ad 8e 2e 67 6a b7 32 b6 8c ac aa f0 35 aa 2a
       6.488222e-11 2.135239e-08 -3.0650975e-13 3.0235493e-13
0000a0 f7 d5 ac 28 2b 8b 08 2c 72 49 96 29 e2 3a c3 2f
       1.9188628e-14 1.9404016e-12 6.674079e-14 3.5512132e-10
0000b0 1a 23 10 2f fe e3 ac 34 90 60 b9 04 e3 76 aa 31
       1.3109194e-10 3.2203383e-07 4.358197e-36 4.961167e-09
0000c0 36 7f f1 2e da 20 00 b3 4f 39 a3 29 d2 dd 54 aa
       1.09820084e-10 -2.98322e-08 7.2485956e-14 -1.8906342e-13
0000d0 6a 9b 45 a7 e2 7a 5e ab 4a c9 88 27 31 a5 ea ae
       -2.7423492e-15 -7.904078e-13 3.796582e-15 -1.0670432e-10
0000e0 82 e2 23 af 7b 59 1c b5 28 40 ab 04 b8 fb 99 b0
       -1.4905235e-10 -5.824474e-07 4.0260825e-36 -1.1203758e-09
0000f0 ac 8e 5f ae d1 9c 09 32 a8 98 ea a9 cb a6 4a 28
       -5.0831048e-11 8.0101055e-09 -1.0418169e-13 1.124942e-14
000100 e3 2b b4 28 8e e5 67 aa 91 6c 15 28 48 61 3b ae
       2.0003047e-14 -2.0596564e-13 8.294703e-15 -4.260528e-11
000110 df 8b ff a9 76 30 2f 34 f9 f3 18 05 a2 f8 86 2f
       -1.13485386e-13 1.6315775e-07 7.191816e-36 2.4551122e-10
000120 5c b1 54 af 6b 85 ec b2 7f b1 6e 2a 27 53 95 a9
       -1.9344298e-10 -2.7534687e-08 2.1200228e-13 -6.631354e-14
000130 81 71 00 a7 e3 b3 85 2b 64 c1 b9 29 c6 a4 37 2f
       -1.78251e-15 9.500147e-13 8.249198e-14 1.6702292e-10
000140 7b b3 56 af 28 02 b8 b4 f6 0c 75 05 4c 3d 67 31
       -1.9526951e-10 -3.427424e-07 1.1522225e-35 3.3649767e-09
000150 8d 77 46 2e 61 3d ca 31 61 4a 2b a9 55 f6 ae 29
       4.512617e-11 5.8859517e-09 -3.803414e-14 7.769884e-14
000160 60 71 22 28 71 8d ad 2a b1 a7 4a 29 f5 4e 9e 2e
       9.017391e-15 3.0829118e-13 4.499846e-14 7.199034e-11
000170 39 ff 42 2e 6f 96 8d 33 16 77 33 04 3b d8 8c 30
       4.4337176e-11 6.593188e-08 2.109603e-36 1.0247797e-09
000180 2c 40 41 2d 32 ea 71 30 e4 cc 02 a9 48 75 92 28
       1.0985029e-11 8.80081e-10 -2.9043513e-14 1.6260119e-14
000190 c8 b7 d0 26 a9 81 83 2a 49 45 81 28 42 58 0b 2e
       1.4482713e-15 2.3360244e-13 1.4351925e-14 3.168333e-11
0001a0 72 78 a4 ab 91 f6 84 b1 4f 46 a6 83 c8 6b 62 30
       -1.1686331e-12 -3.869737e-09 -9.772745e-37 8.237149e-10
0001b0 13 25 1e 2e 73 f0 9f ae 7f 03 ff a7 26 54 ac a8
       3.595797e-11 -7.273195e-11 -7.078051e-15 -1.913233e-14
0001c0 96 6b 1e 27 01 3f 97 a8 a3 f0 81 a7 90 d2 45 ad
       2.1985227e-15 -1.6791691e-14 -3.606559e-15 -1.1244908e-11
0001d0 3b 84 99 2d 91 40 f4 31 24 fa 0e 83 f4 c9 2d af
       1.7452808e-11 7.108675e-09 -4.2017197e-37 -1.5806007e-10
0001e0 41 28 d9 ad 5c 1f b4 31 a5 81 ab a8 47 65 a6 a8
       -2.468792e-11 5.2422546e-09 -1.9041038e-14 -1.8473624e-14
0001f0 7f 4f e8 26 ca 82 49 2a b1 6b 01 28 3f 4e c1 2d
       1.6119781e-15 1.7897763e-13 7.18429e-15 2.1976308e-11
000200 a4 1c a6 2e bd 07 e5 33 59 c1 23 03 2a f9 12 30
       7.5538936e-11 1.0665051e-07 4.8123347e-37 5.3468574e-10
000210 f2 5f 91 2d c6 a6 94 b0 97 e4 26 a9 ea 2a 50 29
       1.65272e-11 -1.0815817e-09 -3.7057675e-14 4.62225e-14
000220 f5 e8 d6 27 02 da a5 2a 46 14 91 28 f7 1c 83 2e
       5.9649504e-15 2.946116e-13 1.6107026e-14 5.9623355e-11
000230 e0 54 16 2e 05 01 c5 b3 9a 61 c9 03 20 a8 85 30
       3.4181435e-11 -9.173713e-08 1.1836126e-36 9.724808e-10
000240 3d 0b 00 30 e5 5e dc 32 27 cf 3a aa 58 48 8f 2a
       4.65821e-10 2.5654524e-08 -1.6591989e-13 2.5452101e-13
000250 cd 9f 1a 29 20 52 c8 2b b0 88 b5 28 4f 17 79 2f
       3.4333474e-14 1.4233649e-12 2.0154315e-14 2.2654699e-10
000260 6f f9 e4 2f 54 93 12 35 37 9d bd 84 22 89 43 31
       4.1650192e-10 5.460363e-07 -4.4578065e-36 2.8454186e-09
000270 db 40 b9 2e 48 91 8d 32 12 fd d9 a9 12 c7 f3 29
       8.4243466e-11 1.6480627e-08 -9.6806366e-14 1.0825901e-13
000280 2a ba ea 28 64 a5 80 2a c6 e8 ad 27 44 fc d3 2e
       2.6059955e-14 2.285213e-13 4.826952e-15 9.6399805e-11
000290 e9 81 e8 2e 21 a7 4d 34 e9 15 01 06 20 40 ef 30
       1.0573215e-10 1.9152914e-07 2.42783e-35 1.7407764e-09
0002a0 77 c1 88 2f 61 71 64 b1 7f ab 8a a9 ab fa 1b 29
       2.487572e-10 -3.3242815e-09 -6.158181e-14 3.4634334e-14
0002b0 45 d8 85 28 64 fd 9c 2a 63 ad ef 28 84 e4 8d 2e
       1.4859758e-14 2.7886992e-13 2.6609525e-14 6.45253e-11
0002c0 75 ba 6b 2f 73 59 db b3 37 65 f7 04 48 0a ac 30
       2.1439368e-10 -1.0214253e-07 5.8162372e-36 1.2517569e-09
0002d0 46 1f 33 b0 56 f1 85 b3 91 e1 1b 2a a1 e6 43 ab
       -6.5164263e-10 -6.237194e-08 1.3845025e-13 -6.959798e-13
0002e0 75 7a 93 a9 cc 41 72 ac e7 94 60 aa e9 20 f7 af
       -6.549354e-14 -3.4426793e-12 -1.9946857e-13 -4.4952422e-10
0002f0 32 48 2b b0 7d c4 bd b5 90 fd 45 03 5a 6f 11 b2
       -6.2312033e-10 -1.4138783e-06 5.8184172e-37 -8.465429e-09
000300 be ef c7 2f 28 70 b2 32 b9 74 3d aa 45 b7 81 2a
       3.6368236e-10 2.077293e-08 -1.6827068e-13 2.3042172e-13
000310 0b ca ba 28 3f 27 0b 2c 73 b2 ba 29 f6 36 b4 2f
       2.073777e-14 1.9774874e-12 8.291015e-14 3.278086e-10
000320 4d 12 b2 2f 37 64 35 34 13 b1 2e 04 ce 1d bd 31
       3.2391015e-10 1.6893397e-07 2.053491e-36 5.5040124e-09
000330 84 ee 8d ae be 48 32 b0 1d 83 96 29 d8 7f 4e aa
       -6.4543065e-11 -6.4859396e-10 6.684083e-14 -1.834083e-13
000340 7a cb 52 a8 0c 65 91 ab 54 a8 e3 a9 4a ad 58 af
       -1.1701464e-14 -1.0330916e-12 -1.0110025e-13 -1.970665e-10
000350 0b 91 a5 ae 14 fa 45 32 cd 96 f8 84 98 ba 7a b1
       -7.529096e-11 1.152377e-08 -5.844301e-36 -3.6485854e-09
000360 f0 19 52 2e 7d f1 89 31 f3 70 ac a8 68 27 30 a8
       4.777151e-11 4.014679e-09 -1.914482e-14 -9.7785075e-15
000370 80 85 6f a7 fd 01 97 a9 85 22 c2 27 90 da ee 2c
       -3.3240283e-15 -6.706092e-14 5.3883243e-15 6.788632e-12
000380 2f 57 e4 2e 61 63 9f 33 fa 14 dd 03 6f 03 86 af
       1.03837265e-10 7.4220914e-08 1.2994029e-36 -2.4376898e-10
000390 9b a1 f1 ae d7 f4 ae 2f 59 8e f8 a7 b1 fa f6 a8
       -1.0988118e-10 3.1824385e-10 -6.898816e-15 -2.7420206e-14
0003a0 90 ea 92 27 d8 2f 21 2a f8 fc c4 29 e9 d9 c6 2d
       4.0777454e-15 1.4316272e-13 8.7480316e-14 2.2606765e-11
0003b0 0e c5 91 ad 4b 86 a5 b2 4f 73 02 05 9e 25 f1 30
       -1.6572101e-11 -1.9269597e-08 6.1337495e-36 1.7545749e-09
0003c0 a8 d7 3f 2d ed f8 84 32 ac 1e bb a9 d7 4b 73 29
       1.0904978e-11 1.548002e-08 -8.309789e-14 5.402262e-14
0003d0 d3 0c 18 28 e5 5d a8 aa 41 ec 23 29 99 2c 1a 2e
       8.440476e-15 -2.9907947e-13 3.6398188e-14 3.5055157e-11
0003e0 63 ce 44 2e b0 ea 6f 34 bf c1 dd 04 db fb ad 30
       4.474855e-11 2.2343988e-07 5.2134778e-36 1.2658988e-09
0003f0 71 b2 74 2f 86 b4 8c 32 5e d7 4a aa 7f 03 23 aa
       2.2255066e-10 1.6380238e-08 -1.8015925e-13 -1.4478521e-13

allnns.1.2.bias f4 [1024]
000000 1b c2 1d 3a 75 b9 27 3a 04 36 4a 39 b6 c4 b6 ba
       0.00060179987 0.00063981797 0.00019284344 -0.0013944122
000010 54 1e 3c 3b 13 d3 99 39 6b de d5 3a 56 80 23 b9
       0.00287046 0.00029339697 0.0016316896 -0.000155927
000020 1c 5f 9c 39 b3 ce 96 b6 ae 01 73 38 e1 23 54 39
       0.000298255 -4.4944113e-06 5.793728e-05 0.00020231261
000030 05 eb 2f ba aa e9 d7 39 76 94 11 ba 07 01 80 3a
       -0.0006710741 0.0004118209 -0.00055534334 0.0009765931
000040 51 5f 1d 3a aa a9 81 39 51 be 5c b9 49 c3 ba 3a
       0.0006003278 0.00024731207 -0.00021051733 0.0014248873
000050 89 ba f6 38 66 75 06 3a c2 21 46 b9 ea fe 82 b8
       0.00011764939 0.0005129188 -0.00018895327 -6.2463645e-05
000060 75 de 96 3a f1 62 92 3a 09 da b3 bc 61 aa b9 39
       0.0011510389 0.0011168403 -0.021954553 0.00035412892
000070 30 63 2d 3c 34 6b 8d bb 19 37 fe 38 bf b7 f3 39
       0.01058273 -0.004315758 0.000121219266 0.00046485473
000080 b9 f7 d2 3b 4f 3c 92 bb 6b c1 ba bb 1a f4 3e bc
       0.0064382222 -0.0044627558 -0.0056993267 -0.011654878
000090 92 ae 37 3c 06 96 89 bb 82 6d a8 3b 76 71 2d bb
       0.011211054 -0.0041987924 0.0051400075 -0.0026465333
0000a0 7a 63 88 ba d4 8b 19 bb 97 12 10 ba 74 77 be ba
       -0.0010405623 -0.0023429291 -0.0005495934 -0.0014531449
0000b0 7b ba a8 bb 90 cb de bb ea 0d a7 ba b0 c0 58 3b
       -0.0051491833 -0.006799169 -0.0012745236 0.0033073835
0000c0 50 a6 37 bc 40 3a 39 3b 93 9e 7e 3a 54 21 11 bb
       -0.011209086 0.002826348 0.00097129605 -0.002214511
0000d0 80 89 06 bb fa 0c 0a bc 60 9e 52 39 23 25 2e bb
       -0.0020528734 -0.008425945 0.0002008616 -0.0026572428
0000e0 1c a8 36 bc 98 1e 8f bc de fb c8 bd ec 78 8e bb
       -0.011148479 -0.017470643 -0.09813665 -0.004347911
0000f0 93 9d ad 3c 12 6f e4 3c 6e 63 a4 39 5e 06 98 3a
       0.021193301 0.027884994 0.00031354598 0.0011598577
000100 41 03 89 bb 6c 2e ee 3b bb fe 29 3b e0 d2 2d 3c
       -0.004181296 0.0072687175 0.0025939185 0.010609359
000110 e1 e3 82 bb 8f 32 93 3a 86 86 17 bb 10 e2 b7 3a
       -0.0039944504 0.0011230278 -0.0023120954 0.0014029164
000120 f7 00 20 3a 1b 0b 3d ba 2c 61 aa 39 f3 24 d8 3a
       0.00061036594 -0.00072114327 0.00032497325 0.0016490504
000130 76 db 9d 3c e0 18 1e 3b b5 59 d1 b8 ec e5 0f bc
       0.019269686 0.0024123713 -9.982606e-05 -0.008782845
000140 a2 98 08 3c 55 67 e1 ba b7 86 e7 39 2a 41 de ba
       0.008337172 -0.0017196933 0.00044160124 -0.0016956676
000150 fd f9 ed b9 6e fc 1e 3b 64 29 97 39 be 3d da 3a
       -0.00045390418 0.0024259347 0.00028831803 0.0016650481
000160 25 e5 b8 3b 25 36 8c 3c 1e 7a c3 bc 80 09 40 3b
       0.0056425505 0.017115662 -0.023861941 0.0029302537
000170 ed ab 03 ba 4d f4 a4 bc cb 70 10 bb 8f de ec 3a
       -0.00050228724 -0.020136023 -0.0022039886 0.0018071699
000180 77 3e c7 3a b4 3e 24 bb f7 bf 48 bb 0a b6 d7 bb
       0.0015201111 -0.0025061788 -0.0030631998 -0.00658298
000190 72 7c 3c ba a6 97 b2 ba 17 e1 a4 3a 6c ff 12 ba
       -0.00071901747 -0.0013625517 0.0012579289 -0.0005607519
0001a0 3d 0d df ba d6 84 ba 39 af 04 ea b9 e4 e2 17 bb
       -0.0017017495 0.00035575655 -0.00044635448 -0.0023176009
0001b0 31 94 2b bb dc d8 66 bb 25 1b f9 39 71 4e 1b 3c
       -0.0026180858 -0.0035224473 0.00047513205 0.009479151
0001c0 5b b5 48 3b d2 56 90 3a 10 a8 8a b9 eb 63 dd 39
       0.0030625674 0.0011012203 -0.00026446627 0.0004222685
0001d0 c9 37 55 ba e2 c8 4f bb 61 b8 4c b9 56 de 32 bb
       -0.0008133618 -0.003170543 -0.00019523643 -0.0027293167
0001e0 2d ac 8b bb fb df 50 bc 65 2c 1d 3d 92 cc d9 ba
       -0.0042624683 -0.012748714 0.038372416 -0.0016616753
0001f0 eb f2 c9 3b 7b cd 85 3b b8 a3 c1 3a 98 f9 8e ba
       0.0061629913 0.004083333 0.0014773523 -0.0010908125
000200 54 66 be bb 58 00 5a 3b 46 7c 87 39 4f c1 5a bc
       -0.0058105383 0.0033264365 0.00025841797 -0.013351752
000210 c0 68 82 3c d4 96 a7 ba d5 8a 2e 3c ff b5 45 bb
       0.01591909 -0.0012786039 0.010653217 -0.0030168293
000220 e3 0d c4 39 a1 da 28 ba 4b eb 37 ba e2 22 04 ba
       0.0003739438 -0.00064412697 -0.00070159574 -0.00050405983
000230 69 22 1e 3b 72 53 ec ba 25 51 f4 b8 52 9f f1 3c
       0.0024129397 -0.001803024 -0.00011649941 0.029494915
000240 4e 9d fe 3b 82 c6 cd 3a 93 69 f1 b9 70 67 50 b9
       0.007770217 0.0015699419 -0.0004604576 -0.00019874959
000250 9f d5 09 ba fa 03 ee bb 58 dc 5f b7 f5 eb 91 ba
       -0.0005257967 -0.0072636576 -1.3343139e-05 -0.0011132943
000260 6a b8 09 bb 94 b6 84 bb 59 f3 d6 3b cb 83 16 bb
       -0.002101446 -0.0040500853 0.006559771 -0.0022966738
000270 3c 7b a4 3c 9b 31 a9 bc 84 04 01 3b 9f 89 34 bb
       0.020078294 -0.020653537 0.001968653 -0.002754785
000280 eb 4a 40 3c db 83 6f bc fb 36 ec bb 96 a1 0b bd
       0.011736612 -0.014618839 -0.0072087026 -0.034089647
000290 da ea 0b 3c d4 33 b1 bb da 93 9c ba ec 66 f2 bb
       0.00853988 -0.0054077897 -0.0011945919 -0.007397523
0002a0 25 f1 8c ba dd 78 e1 ba ee ae 78 ba 37 b7 4f bb
       -0.0010753019 -0.0017202158 -0.0009486516 -0.0031694898
0002b0 20 9c c1 bb 8b 2e 04 bc bf 42 30 bb ab 46 65 3d
       -0.005908504 -0.008067737 -0.0026895253 0.055975597
0002c0 3a 3d 47 bb 98 35 6e 3a a4 70 a8 39 26 0b 18 3b
       -0.0030401484 0.00090869656 0.0003212738 0.0023200004
0002d0 00 10 7e bb 23 b9 1d bc 83 0b ff b8 6f d1 55 bb
       -0.003876686 -0.00962666 -0.00012161492 -0.0032626053
0002e0 ff 85 75 bc 9b 65 06 bd f0 d1 a9 bd 67 bb a9 bb
       -0.01498556 -0.032811742 -0.082919955 -0.005179811
0002f0 20 34 71 3c c0 92 9f 3c d2 e2 31 39 1b 0a d7 b7
       0.0147219 0.019479156 0.00016964533 -2.5634703e-05
000300 cd cf c4 bb b8 96 16 3c e4 90 b3 3b dc 3a be 3c
       -0.006006217 0.009191208 0.005479919 0.023221426
000310 f6 92 d5 3b 48 ba 80 3b 79 66 7f 3c f7 66 0f 3b
       0.0065177632 0.0039284565 0.015588396 0.002188144
000320 04 2b e4 3a 86 05 62 3a 9e af a3 3a d9 0f 34 3b
       0.0017407839 0.0008622039 0.0012488251 0.0027475266
000330 b6 d2 48 3c 2a 37 c7 3b f4 3e 0f 3b 09 13 9f bc
       0.012257269 0.006079574 0.0021857591 -0.019418256
000340 1d 6e 21 3c f5 48 88 bb d7 e7 4a 3a 11 55 2c bb
       0.009852913 -0.004159088 0.00077402353 -0.002629582
000350 29 8f d4 3a cf 72 de 3b b1 21 a7 39 ca 3b 4d 3b
       0.0016216981 0.0067885886 0.00031877824 0.0031316155
000360 9f 42 44 3c 63 87 05 3d 3e aa 3b 3d 1d 7a 75 3b
       0.011978774 0.032599818 0.045816652 0.0037456818
000370 2a e1 15 3c 78 d6 aa b9 0c 3f 03 bb f9 a1 14 bb
       0.009147922 -0.00032584718 -0.0020026593 -0.002267955
000380 4b 89 46 bb 4f f4 22 3c 9b 07 e4 3b 11 91 72 3c
       -0.0030294235 0.009945943 0.0069589145 0.014805094
000390 41 dc 97 bc 3c ba 81 3b 9c ec 77 bb 5f ee 34 3b
       -0.018537642 0.0039589684 -0.003783024 0.00276079
0003a0 7a 06 d1 3a 25 80 69 3a 52 b8 3a 3a 68 c8 52 3b
       0.0015947365 0.00089073397 0.0007122803 0.0032162908
0003b0 64 d7 d5 3b 6b 21 d9 3b 26 7b bf 3a 61 2c 1d bc
       0.0065259207 0.006626298 0.0014608845 -0.0095931
0003c0 3d 3c 9c 3b 22 78 f5 ba b2 6c ea b9 af 68 85 ba
       0.004767923 -0.0018727819 -0.00044712942 -0.0010178293
0003d0 22 3c 20 3b e2 6d c9 3b 00 b0 23 39 5f 0a 63 3b
       0.0024449904 0.0061471323 0.00015610456 0.0034643633
0003e0 98 6d 35 3c 1b f1 bf 3c 17 32 24 3d 2f 21 8a 3b
       0.0110734925 0.023430398 0.040086832 0.0042153816
0003f0 61 9a 36 bc 43 48 25 bc cb 14 5f bb 27 a2 73 3a
       -0.011145205 -0.010088029 -0.0034039493 0.0009293877

allconvs.0.bias f4 [32]
000000 a2 5e 98 3c 93 d3 26 be f6 25 42 3d 9d 2e ba 3d
       0.018599812 -0.16291647 0.047399484 0.09090922
000010 4a 55 d8 bd 00 6b 45 bd 69 71 15 3e 77 dd 41 3d
       -0.105631426 -0.048197746 0.14594044 0.047330346
000020 92 86 55 bd 78 ac 30 3d 06 a2 9c 3c 30 5c 3a bd
       -0.05213029 0.04313323 0.019120228 -0.045498073
000030 b4 8f 0b be a2 54 1d bd 01 0a 07 be fb af ac 3d
       -0.13629037 -0.03841079 -0.1318741 0.08432003
000040 f1 c1 bc 3d 51 7a 06 3d 1d cf c0 3d 25 53 41 3d
       0.09216679 0.032831494 0.09414504 0.047198433
000050 c5 c7 34 bc 0e fa 02 3e b3 cb b0 bd fb 25 08 3e
       -0.011033957 0.12790701 -0.086326025 0.13295738
000060 86 77 04 3d e4 0f b0 3d ca 21 8d bd 60 88 e5 bd
       0.03234055 0.08596781 -0.068912104 -0.11207652
000070 65 e7 b8 bc 0f 21 88 3d 18 63 88 3c 2e 4a 48 bd
       -0.022571275 0.066469304 0.016648814 -0.04889887
