model/0totalcomp_braingnn_final.pth (torch, 370930 bytes, 21 tensors)

allnns.0.0.weight f4 [7, 53]
0	0xaf7c6728	-2.2955915e-10
1	0xa1afe2bd	-1.1918478e-18
2	0xbc295a64	-0.010336492
3	0xb839986e	-4.42494e-05
4	0xb0b54d63	-1.3191478e-09
5	0x99c8e3d4	-2.0771534e-23
6	0xb62c7424	-2.56976e-06
7	0xbb04d42f	-0.0020268073
8	0xa40a0cfe	-2.9934985e-17
9	0xb20f782c	-8.351019e-09
10	0xa5656d99	-1.9899717e-16
11	0x9510fa7d	-2.927817e-26
12	0x9b633e4f	-1.8797133e-22
13	0x3f0110e9	0.5041643
14	0xaab0af9b	-3.138573e-13
15	0xb29e0ce9	-1.8399492e-08
16	0x3ec244c6	0.37943095
17	0xbb5ddf06	-0.0033854856
18	0x8a25d9cb	-7.985423e-33
19	0xae07ab1c	-3.0847422e-11
20	0xafbd9d80	-3.449081e-10
21	0xb449dd25	-1.8800036e-07
22	0xb637108b	-2.7278754e-06
23	0xb12e1db6	-2.5337221e-09
24	0xa3ac6e47	-1.8694982e-17
25	0x890e39a9	-1.711974e-33
26	0x9a57f620	-4.4659776e-23
27	0xbb37263c	-0.0027946373
28	0x98a5b77f	-4.2836784e-24
29	0x9ca0176c	-1.0593966e-21
30	0x9a520de2	-4.3438197e-23
31	0x3e9caaee	0.3059916
32	0xb79182b1	-1.7346205e-05
33	0xb9314114	-0.00016904279
34	0xb7369c3d	-1.0884422e-05
35	0xb47eb01f	-2.3719666e-07
36	0x9e6ac5b1	-1.24287385e-20
37	0xb6e5288a	-6.829451e-06
38	0x92ada470	-1.0958372e-27
39	0xb8140228	-3.5287958e-05
40	0x3ed33246	0.41249293
41	0xb461291a	-2.096971e-07
42	0x8421ab17	-1.900402e-36
43	0xae36740c	-4.148508e-11
44	0xbacd4220	-0.0015659966
45	0xb5ab43b8	-1.2760202e-06
46	0xa65792cb	-7.479205e-16
47	0xb48524c0	-2.479992e-07
48	0x9c46cc6f	-6.577693e-22
49	0xb81174a5	-3.4679328e-05
50	0xbbb6b9d7	-0.005576353
51	0xbbb9c269	-0.0056689274
52	0xb72d09db	-1.0313898e-05
53	0x8cbd83f4	-2.9199477e-31
54	0xb9d5c33c	-0.00040771987
55	0x3d5925e3	0.053014647
56	0xbb8187ae	-0.003952942
57	0x3e00e7cb	0.12588422
58	0xafeeb9de	-4.3424014e-10
59	0xb340e62c	-4.4912824e-08
60	0x3d80b8bd	0.06285236
61	0x86cf21ef	-7.7914607e-35
62	0x99b1b479	-1.8374263e-23
63	0x88b32475	-1.0781742e-33
64	0x3e8a679a	0.27032167
65	0x3e82913c	0.2550143
66	0xb8aaa162	-8.1362916e-05
67	0xb4576fc0	-2.006409e-07
68	0xaf74b75c	-2.2256813e-10
69	0xa90585b0	-2.9647888e-14
70	0xb0c41293	-1.4266156e-09
71	0x3e9b03d1	0.3027635
72	0x91d9f0ee	-3.4385048e-28
73	0x9ecfc73e	-2.1999382e-20
74	0x3e9b8478	0.30374503
75	0x3e8090e8	0.25110555
76	0xa00b22ae	-1.1785233e-19
77	0xa5f53625	-4.2537415e-16
78	0xb668277d	-3.459368e-06
79	0xb49bcd43	-2.9020347e-07
80	0xba7ad663	-0.0009568689
81	0xaf916798	-2.6448954e-10
82	0xb4f959f6	-4.644532e-07
83	0x8c8b86d7	-2.1497495e-31
84	0x98f1fcd3	-6.2552327e-24
85	0xb8e924cd	-0.000111171605
86	0xa493db0c	-6.412217e-17
87	0x3ef8bbaf	0.4858069
88	0xb70a6203	-8.248261e-06
89	0xa3b506a6	-1.9626875e-17
90	0xbaa19479	-0.0012327573
91	0xb61a90d9	-2.30321e-06
92	0xb9acfc69	-0.00032994457
93	0xbb5daf3b	-0.003382637
94	0x3eab46bd	0.33452407
95	0x3e649dd3	0.2232583
96	0x3d508582	0.050908573
97	0xb58b6a6b	-1.0387279e-06
98	0xb1ad9682	-5.0520734e-09
99	0xa03f85c1	-1.6222585e-19
100	0x3ef128a1	0.4710131
101	0x3ba92762	0.0051621655
102	0x3d83787f	0.06419467
103	0xb30f3c00	-3.334935e-08
104	0x96115b2d	-1.1741777e-25
105	0xa9c5abe4	-8.778376e-14
106	0xb8557027	-5.0887607e-05
107	0x3ddd2e9f	0.10799908
108	0x3e683868	0.22677767
109	0xb420b434	-1.4966719e-07
110	0x3d5820aa	0.052765526
111	0x903276f9	-3.5195963e-29
112	0x3ecffe41	0.40623668
113	0xb3a87e45	-7.846078e-08
114	0x3ee94f22	0.45568186
115	0xb647afbd	-2.9755604e-06
116	0xaf88afbf	-2.486313e-10
117	0xb24e72cf	-1.2016883e-08
118	0x9ba5eeec	-2.745136e-22
119	0xb37a576c	-5.828717e-08
120	0x9ea186af	-1.7102242e-20
121	0xac8ad2e9	-3.9456116e-12
122	0x3e7b1d7c	0.24522966
123	0x9f0082ed	-2.7213354e-20
124	0xad0e417d	-8.086307e-12
125	0xa5ecc4f3	-4.1072932e-16
126	0xa8fa3dad	-2.7782323e-14
127	0x3dcfa64f	0.10139143
128	0x8afda957	-2.4426712e-32
129	0x9dc215a1	-5.1373736e-21
130	0xaddc6b8e	-2.5058868e-11
131	0xb18942d6	-3.994823e-09
132	0x3eb26228	0.34840512
133	0x3dc7d25a	0.09756918
134	0xae478b35	-4.5371002e-11
135	0xad97b2ec	-1.724617e-11
136	0xba9ef67a	-0.0012127899
137	0xb8fd564e	-0.000120800556
138	0xb424cd24	-1.534832e-07
139	0xb885d598	-6.381719e-05
140	0xaaaaae9f	-3.0319234e-13
141	0xb61e34d0	-2.3574576e-06
142	0xb830824c	-4.208302e-05
143	0xb6b98e3d	-5.5299884e-06
144	0x3e6c9986	0.2310544
145	0xa3b993a6	-2.0120272e-17
146	0xb23c54f7	-1.0962359e-08
147	0x3e36d9ca	0.17856517
148	0xb77ba00f	-1.4998032e-05
149	0xb3a85737	-7.838974e-08
150	0xafa52979	-3.0042793e-10
151	0xa901d28c	-2.8826374e-14
152	0x9394b31e	-3.7537076e-27
153	0x3e1b581a	0.15170327
154	0xac9636cf	-4.2693414e-12
155	0xa3f8e37d	-2.6984559e-17
156	0xb7516af8	-1.2482276e-05
157	0xa13cb4b2	-6.3936026e-19
158	0x9ed1437a	-2.2156643e-20
159	0x98079c20	-1.7527164e-24
160	0x94c8432e	-2.0221337e-26
161	0x8f3bd06d	-9.259953e-30
162	0xb41e15fa	-1.4722892e-07
163	0xb89b39b4	-7.401724e-05
164	0xa80bd3d8	-7.761986e-15
165	0x3e3e2682	0.18569377
166	0x3e846da1	0.2586489
167	0xa4c11a6c	-8.374517e-17
168	0x992ae16f	-8.83432e-24
169	0xaa88251f	-2.418421e-13
170	0xa3470218	-1.0788255e-17
171	0xad6bd37f	-1.3405165e-11
172	0x3e89b57a	0.26896268
173	0xa255b509	-2.8962722e-18
174	0x3e0d6a99	0.13810195
175	0xae0b5e49	-3.1688683e-11
176	0xb4376fda	-1.7083894e-07
177	0xa1a4f25e	-1.1177226e-18
178	0x99681925	-1.1999197e-23
179	0x9a6670ab	-4.7653898e-23
180	0xa5392276	-1.6057868e-16
181	0x3e58f297	0.2118629
182	0xbb78d56c	-0.0037969006
183	0xba8f55e4	-0.0010935632
184	0xba56a094	-0.000818738
185	0xa26fde84	-3.2508339e-18
186	0xa342bac9	-1.0556314e-17
187	0x93c5b26c	-4.990573e-27
188	0x8857ee63	-6.497943e-34
189	0xa70543b8	-1.8494168e-15
190	0xaf6888c6	-2.1148869e-10
191	0x3f1eafe6	0.6198715
192	0xba5b6160	-0.0008368697
193	0xac766c1a	-3.501871e-12
194	0x3e4d2f12	0.20037487
195	0xbaf9867c	-0.0019037272
196	0x3e0f3d94	0.13988334
197	0x3dbac4e6	0.09119587
198	0xb27d38d2	-1.4739458e-08
199	0x94509bd9	-1.0532052e-26
200	0x3e33fd16	0.17577013
201	0xa6dcee51	-1.5330162e-15
202	0xaaa6e2de	-2.9644944e-13
203	0xb60834ac	-2.0296238e-06
204	0x86d74130	-8.0969796e-35
205	0xba5c90aa	-0.00084138906
206	0x880817e9	-4.0954118e-34
207	0x9af1b933	-9.997447e-23
208	0xbbdd6f86	-0.0067576794
209	0x3eb98f3e	0.36242098
210	0x3dfd4af0	0.12367809
211	0x8720469f	-1.2057816e-34
212	0xa1f78f86	-1.6775361e-18
213	0xb957be20	-0.00020574825
214	0xaab36fac	-3.1874275e-13
215	0xbc0c5799	-0.008565807
216	0xbb4b747d	-0.0031044774
217	0xb69340ee	-4.3885e-06
218	0x3d323b5a	0.043513633
219	0xb0885d34	-9.921792e-10
220	0xba0474b8	-0.0005052793
221	0xaa302444	-1.5644522e-13
222	0xad87f8d3	-1.5458223e-11
223	0xb48bd267	-2.6043855e-07
224	0xb9843a90	-0.00025220634
225	0x9e5ae10e	-1.1587364e-20
226	0xaf00ece2	-1.172569e-10
227	0xb2d4d0ff	-2.4775089e-08
228	0xbc0fb94b	-0.008772205
229	0x82213d1b	-1.1845948e-37
230	0xa46add5e	-5.0928167e-17
231	0xae16294a	-3.4142723e-11
232	0x8ca6acf4	-2.5680442e-31
233	0xab99226a	-1.0880856e-12
234	0xbb7a74b5	-0.0038216535
235	0x8b54a428	-4.0953212e-32
236	0xb8677845	-5.51867e-05
237	0xb12fffef	-2.5611333e-09
238	0x903a1ee5	-3.6705832e-29
239	0x3e03b9ee	0.12863895
240	0xbb252ea4	-0.0025204802
241	0x3eb075f1	0.34464982
242	0xbc35c35e	-0.011093942
243	0x3eac6c66	0.3367645
244	0xb82aa47e	-4.0684354e-05
245	0xbafea7d8	-0.0019428683
246	0xb9bcb125	-0.00035990137
247	0x3e8ec99b	0.27888188
248	0xbb5efeab	-0.0034026306
249	0xb31a207b	-3.588546e-08
250	0x3e31c33f	0.17359637
251	0x3e01e577	0.1268519
252	0xb8a53c20	-7.879012e-05
253	0x3e514df1	0.20439889
254	0xa7472ce8	-2.7641141e-15
255	0xbc0a4126	-0.008438384

allnns.0.2.weight f4 [1696, 7]
0	0x3af96a1c	0.0019028815
1	0xbc4ace65	-0.01237831
2	0x3b97f4ea	0.0046373503
3	0xbb1d4f2a	-0.0024003484
4	0x3b2115c6	0.0024579628
5	0x3c260c2f	0.010134741
6	0xbbb5cede	-0.005548342
7	0xbb713313	-0.0036804124
8	0x3bcd496d	0.0062648566
9	0x3b5196a7	0.0031980665
10	0xbba4f03a	-0.00503352
11	0x3ae7d774	0.0017688111
12	0x3aa76191	0.0012770166
13	0xbc31483b	-0.010820444
14	0xb9ca48fb	-0.00038582817
15	0xbbad9020	-0.005296722
16	0xbc131c41	-0.008978904
17	0xbb938c34	-0.0045027975
18	0x38e1da12	0.00010769455
19	0xbb7e2232	-0.0038777706
20	0xbb90c0e3	-0.004417525
21	0x3ad6b60b	0.0016381157
22	0xbaa60a69	-0.0012667897
23	0xbb979060	-0.004625365
24	0xbb79658c	-0.0038054911
25	0xbb384101	-0.0028114917
26	0xba5c4d05	-0.0008403811
27	0x3b8e62bc	0.004345266
28	0x3c1c2e40	0.009532511
29	0xbce42e75	-0.027854184
30	0x3b40fe47	0.0029448436
31	0x3a9fbd46	0.0012187145
32	0xbb4a031e	-0.0030824612
33	0xbac1be8e	-0.0014781521
34	0x3921fc0f	0.00015448056
35	0x3be20dfc	0.0068986397
36	0x3b15ca23	0.0022856079
37	0x3c39e0c8	0.011345096
38	0x3c05fc61	0.008177848
39	0x3a4910dd	0.00076700543
40	0x3c01b703	0.007917169
41	0xbb5b6e2d	-0.0033482418
42	0xbcca1d6d	-0.024672234
43	0x3d7b40b5	0.061341006
44	0x3ccf2a33	0.025288677
45	0xbc875418	-0.016519591
46	0x3c8b82bb	0.01703011
47	0xbb574638	-0.003284825
48	0x3bc5a719	0.0060318825
49	0xba22285d	-0.0006185824
50	0xbbe151f0	-0.006876223
51	0xbbaba8c3	-0.005238624
52	0xb981062c	-0.00024609396
53	0x3bf71d35	0.0075413235
54	0xbabfefbf	-0.0014643593
55	0xba2acca4	-0.0006515479
56	0xbb6ac192	-0.0035820943
57	0xba80e494	-0.0009833747
58	0xbafb9f47	-0.0019197249
59	0xb97b32d2	-0.00023956157
60	0x3bb1525c	0.0054114293
61	0xbb83a757	-0.004017751
62	0x3b81d62f	0.0039623003
63	0xbb6a69bb	-0.0035768587
64	0xbcd5a37b	-0.02607893
65	0xbc23d04e	-0.009998394
66	0xbc1564c3	-0.009118262
67	0xbcd329de	-0.0257768
68	0xbb5348ff	-0.0032239554
69	0x3bcd743f	0.006269961
70	0xba551da0	-0.00081297196
71	0xbc4fe1a8	-0.012688078
72	0xbae729e1	-0.0017636382
73	0x3cd71fa5	0.026260206
74	0x3b0d77d4	0.0021586316
75	0x3c43d651	0.0119529525
76	0xbc76a20a	-0.015053282
77	0x3d611b8f	0.054957923
78	0x3e148335	0.14503177
79	0x3e90de32	0.28294522
80	0xbdb8776b	-0.09007152
81	0x3d37d2ed	0.04487889
82	0xbd9c9b83	-0.07646849
83	0xbdb45718	-0.08805674
84	0xbbb3ce32	-0.005487227
85	0xbc872998	-0.016499326
86	0xbb18b865	-0.0023303267
87	0xbb97a014	-0.004627237
88	0x3b294925	0.002583095
89	0xbbb7c78d	-0.005608505
90	0x3a25e858	0.00063288724
91	0xbb199c02	-0.0023438935
92	0xbbb4509a	-0.0055027725
93	0x3b0b3996	0.002124404
94	0xbbab3eb0	-0.005225979
95	0xba0a1257	-0.0005267015
96	0xbb8cb920	-0.0042945296
97	0xbb2171a1	-0.0024634378
98	0xbad4e079	-0.0016241214
99	0xba078d06	-0.00051708554
100	0x3bb23f69	0.005439688
101	0x3b9ef67c	0.0048511606
102	0xbadcf3ba	-0.0016857304
103	0x3ae67fd0	0.0017585699
104	0xbbc1fb24	-0.005919831
105	0x3ab90d5c	0.0014118361
106	0x3c02ba00	0.007978916
107	0xbc19f13e	-0.0093958955
108	0xbb9f84dc	-0.004868133
109	0xbb134d05	-0.0022476327
110	0x3a45a00f	0.0007538804
111	0x38a82d17	8.019263e-05
112	0xbb002361	-0.0019552337
113	0xbc9366f1	-0.017993422
114	0xbc1bb233	-0.009502935
115	0xbb4e896a	-0.003151501
116	0xbb643e84	-0.0034827301
117	0xbc6ef116	-0.014583847
118	0x39871112	0.00025761925
119	0xbba0d24e	-0.004907883
120	0x3afc3d55	0.0019244353
121	0x3ab5edab	0.0013880035
122	0xb828c41d	-4.0236966e-05
123	0x3b0a93eb	0.0021145295
124	0x3ba88024	0.0051422287
125	0xbc05028e	-0.008118285
126	0x3c649763	0.013952109
127	0xbcb369bd	-0.021901006
128	0xbbc6155c	-0.0060450267
129	0xbb7c9e99	-0.003854668
130	0x3b36b471	0.0027878548
131	0xbbf5aed8	-0.0074976496
132	0x3bcdbdfb	0.006278751
133	0x3bc81df2	0.0061070854
134	0xbc1672c2	-0.009182634
135	0xbb5881a4	-0.0033036256
136	0xbc48b39b	-0.0122498525
137	0xbc4059a3	-0.011740121
138	0xbc1047c8	-0.0088061765
139	0xbc5a32d4	-0.013317782
140	0xb9a5c3b3	-0.0003161706
141	0xbc686fd3	-0.014186817
142	0xbad07188	-0.0015902976
143	0x3b816bfd	0.003949641
144	0xbbfa39b1	-0.007636272
145	0xbbf8959e	-0.007586195
146	0x3ac47e7b	0.0014991307
147	0x39cabc4b	0.00038668732
148	0xbba3347b	-0.0049806214
149	0xbc0a80f8	-0.0084536
150	0xbb72c64b	-0.0037044461
151	0xbb71d369	-0.0036899692
152	0xbb2fb733	-0.0026812076
153	0xbc157a73	-0.009123432
154	0x3bdc201e	0.006717696
155	0xbc40d51e	-0.011769561
156	0x3987809c	0.00025845028
157	0xbade7392	-0.0016971698
158	0xbb17df6f	-0.0023173948
159	0xbb3f39b8	-0.002917869
160	0xbb4cff28	-0.0031280015
161	0x3aee8de8	0.001820025
162	0xbc50e01f	-0.012748747
163	0xba4de0e5	-0.00078536413
164	0x3b72e6de	0.0037063877
165	0x3b09ea90	0.002104435
166	0x3a35a1e9	0.00069287285
167	0xbb6bfd23	-0.0036009036
168	0xbb5c653f	-0.0033629683
169	0xbbd1d2ac	-0.006403288
170	0xbbcb9ebb	-0.0062139905
171	0xbba5f23d	-0.0050642774
172	0x3a37373e	0.0006989128
173	0xbbdfe90a	-0.0068332003
174	0xbbf7deae	-0.0075643873
175	0x3b2eca06	0.0026670708
176	0xbc272f66	-0.010204172
177	0x3afb066e	0.0019151696
178	0x3a83f4cb	0.0010067461
179	0xbabe1786	-0.001450286
180	0xbb6789bc	-0.0035329899
181	0x3ad13565	0.0015961347
182	0xbab0ae1b	-0.0013479622
183	0xbb0baa9b	-0.0021311406
184	0x39ecca25	0.00045164037
185	0x3a924118	0.0011158315
186	0x3b071517	0.0020611936
187	0xbb9da80e	-0.0048112934
188	0xbb4620f4	-0.0030232044
189	0x3b10205b	0.0021991942
190	0x3b3eb3d1	0.0029098878
191	0xbb0e9a5d	-0.0021759488
192	0xbc15bcee	-0.009139283
193	0xbc2d38db	-0.010572637
194	0xbb856144	-0.004070433
195	0xba543040	-0.0008094348
196	0xbb44e578	-0.0030044
197	0xbc62dd7d	-0.013846752
198	0xbba8ff08	-0.005157355
199	0xbc7f6477	-0.0155879175
200	0xbc70247f	-0.014657139
201	0xbc661d8d	-0.014045131
202	0xbbf38112	-0.007431158
203	0x3b1cfa66	0.002395296
204	0xbc7b4f79	-0.015338772
205	0xbbdf2b9f	-0.00681062
206	0x3b839507	0.004015568
207	0x3c03e6ba	0.008050615
208	0xbc086bef	-0.008326515
209	0x3bf68b01	0.007523895
210	0xb9bf2c22	-0.0003646324
211	0xbc7b5268	-0.015339471
212	0x3b15fbe8	0.0022885744
213	0xb98521fb	-0.00025393054
214	0xbb632060	-0.0034656748
215	0x3a5465cf	0.0008102329
216	0xbb91cb1d	-0.004449262
217	0xbc0890b9	-0.008335286
218	0x3b591fc7	0.0033130513
219	0x3ab09bba	0.0013474145
220	0x3aaf6395	0.0013381118
221	0xbba880dc	-0.0051423144
222	0x3b7cf42b	0.0038597684
223	0x3bf8a4c5	0.0075880014
224	0xbc6f937f	-0.014622568
225	0x3ae32a31	0.00173313
226	0xba96c30e	-0.0011502223
227	0x3c072292	0.008247988
228	0x3c4894d5	0.012242516
229	0x3b2d4e35	0.002644432
230	0xbb89d815	-0.004206667
231	0xbbae9101	-0.0053273444
232	0x3b7615a3	0.0037549518
233	0x3bdecbe5	0.0067992085
234	0xbbfcd086	-0.0077152876
235	0x3b61870c	0.003441277
236	0xb8da77db	-0.00010417375
237	0x3a350473	0.0006905265
238	0x3c038a79	0.00802862
239	0xb99ee1e8	-0.00030304422
240	0x3b7dd2b8	0.0038730334
241	0x3b6ceae3	0.0036150746
242	0x3bdd17a5	0.0067472034
243	0xbbab4e74	-0.005227858
244	0x3b10d9e1	0.0022102522
245	0x3a797f63	0.00095175783
246	0xba145b69	-0.0005659373
247	0xbb3e8bb5	-0.002907497
248	0xbb7f44ab	-0.0038950841
249	0x3a1a2673	0.0005880363
250	0xbae65fd2	-0.0017576164
251	0x3b3c8333	0.0028764724
252	0xbcae749c	-0.021295838
253	0xbb0f4631	-0.0021861906
254	0x3c55b62e	0.013043923
255	0x3cf2870b	0.02960541

allnns.0.2.bias f4 [1696]
0	0x3be4318a	0.0069639133
1	0xbcd81e1f	-0.02638155
2	0xbca2bdfd	-0.019865984
3	0xbc3cc48e	-0.011521472
4	0x3c1ee163	0.009697291
5	0xbb7f5a94	-0.00389639
6	0x3dc1ed8e	0.09469138
7	0xbc2508e3	-0.01007292
8	0xbb5cc4cf	-0.0033686643
9	0x3d619c13	0.055080485
10	0xbd2eb74f	-0.042655285
11	0xbba5117b	-0.005037484
12	0x3c5ff6b1	0.013669656
13	0xbbab5a9a	-0.0052293064
14	0xbc2feba2	-0.010737332
15	0x3b1dafb5	0.0024061028
16	0xbd0fa89b	-0.035072904
17	0xbcaa47f0	-0.020786256
18	0x3d01eb64	0.031718627
19	0xbca2aa6c	-0.019856654
20	0x3c5d18c0	0.01349467
21	0xbcd7675b	-0.0262944
22	0xbae6d561	-0.0017611199
23	0x3ba649d3	0.0050747185
24	0xbce7f5de	-0.02831548
25	0xbc8e0e49	-0.017340796
26	0x3c526772	0.012842046
27	0xbcbc6055	-0.022995153
28	0xbd02c6c2	-0.03192783
29	0x3bc5d240	0.0060370266
30	0xbc85bc1d	-0.016325051
31	0xbc8b7ec8	-0.017028227
32	0x3d231a41	0.03981996
33	0xbc39714c	-0.011318516
34	0x3c167d07	0.009185082
35	0xbca8a4b3	-0.020586347
36	0x3ca04d28	0.019568041
37	0x3c979630	0.018504232
38	0x3beaf730	0.0071705803
39	0x3cfdc526	0.030977797
40	0x3c2cc60f	0.010545268
41	0xbd8144a0	-0.06311917
42	0xbd1a22f3	-0.037630986
43	0x3d0f7e3b	0.035032492
44	0xbcee65e2	-0.029101316
45	0x3c6b84b6	0.0143749025
46	0x3c5cbc3b	0.013472612
47	0x3c269c8a	0.010169158
48	0x3c569d28	0.013098992
49	0x3cbb1fc5	0.022842297
50	0xbc8af654	-0.016963162
51	0xbc4e05b7	-0.012574605
52	0xbd01791b	-0.031609636
53	0x3ca769a2	0.020436112
54	0xbbb5c843	-0.0055475547
55	0xbc054e52	-0.008136349
56	0x3ca95977	0.020672543
57	0x3c0ae489	0.008477339
58	0x3c683292	0.014172213
59	0xbc7dd9f9	-0.015493863
60	0xbcb21d92	-0.021742616
61	0x3d053c11	0.032527987
62	0xbb923911	-0.0044623693
63	0xbc36ebf4	-0.011164654
64	0x3cb0886b	0.021549424
65	0xbc81dc97	-0.015852256
66	0x3a5e9310	0.0008490542
67	0xbad85898	-0.0016505895
68	0x3b6457d3	0.0034842386
69	0x3c9ee05a	0.019394089
70	0xbd0ab5a8	-0.033864647
71	0x39a90e90	0.00032245042
72	0x3c503218	0.012707256
73	0xbd32e306	-0.043673538
74	0xbcad6bda	-0.021169592
75	0x3c5af194	0.013363261
76	0xbb32a833	-0.00272609
77	0x3b92c9ac	0.0044796076
78	0x3c962bf0	0.018331498
79	0x3ba58fad	0.005052528
80	0xbb9249b6	-0.0044643534
81	0xbc0cf8c8	-0.008604236
82	0x3c2db82a	0.01060299
83	0x3cb74a01	0.022374155
84	0xbb20aae7	-0.0024515928
85	0x37f8af9f	2.9645684e-05
86	0x3d001b6c	0.03127615
87	0x3baaace9	0.005208601
88	0xbc08f728	-0.008359708
89	0x3c8177f3	0.015804267
90	0x3c2ef14a	0.010677645
91	0xbbfce715	-0.007717977
92	0xbc0f9e8d	-0.008765829
93	0x3bf6d1db	0.007532341
94	0xbc3864a7	-0.011254466
95	0xbb7589f7	-0.0037466267
96	0xbc88613b	-0.016647926
97	0xbb72e78d	-0.0037064285
98	0xbbc4524d	-0.0059912563
99	0xba70fadf	-0.0009192656
100	0xbd7c6f5c	-0.061629638
101	0x3ba5a02c	0.0050544944
102	0x3dee04bf	0.11621999
103	0x3c09b92f	0.008405968
104	0x3c87f8bc	0.016598098
105	0xbd851efa	-0.06500049
106	0xbd9719cd	-0.07377968
107	0xbdf4cff0	-0.119537234
108	0xbc9fe2f7	-0.019517405
109	0xbbadeccf	-0.005307771
110	0x3b892397	0.004185151
111	0x3bb28e7c	0.0054491144
112	0xbc685b09	-0.014181861
113	0xbbbe3fd1	-0.0058059474
114	0x3c8917e5	0.016735027
115	0xbc2f6ce8	-0.010707118
116	0xbcd97559	-0.026545214
117	0xbccb978a	-0.024852533
118	0xbcad1c4c	-0.021131657
119	0xbc03ec5a	-0.008051956
120	0xbc19dd86	-0.009391194
121	0xbb870497	-0.00412042
122	0x3bc8f40a	0.0061326073
123	0x3b927843	0.0044699027
124	0xbce5282f	-0.027973263
125	0xba70d715	-0.0009187323
126	0xbc875c9d	-0.016523654
127	0xbbe44d31	-0.0069672097
128	0x3bee01f4	0.0072634164
129	0xbc713162	-0.014721246
130	0xbd23a140	-0.0399487
131	0xbc2bdcb5	-0.010489632
132	0xba6c6585	-0.0009017813
133	0x3c90e68d	0.01768806
134	0x3d0641bc	0.032777533
135	0x3b15cccd	0.0022857666
136	0x3cc9678b	0.024585506
137	0xbcdd4c07	-0.027013792
138	0xbc230aaa	-0.009951273
139	0x3c06cede	0.008228032
140	0x3caf52f7	0.021401865
141	0xbcadb015	-0.021202127
142	0x3cbbf2f0	0.02294299
143	0x3bbe8387	0.005814019
144	0xbcdbf15a	-0.026848484
145	0xbcf43624	-0.029810973
146	0xbb3a57ae	-0.0028433609
147	0xbc5ae640	-0.01336056
148	0x3cc8bdea	0.02450462
149	0xbca5edcb	-0.02025499
150	0xbc967bb6	-0.018369537
151	0x3c9b6d89	0.018973129
152	0xbc34e103	-0.011039975
153	0x3cbb7d0c	0.022886775
154	0x3c83907e	0.01606011
155	0xbcf30a0e	-0.02966788
156	0xbcbef387	-0.023309482
157	0x3d251d91	0.0403114
158	0xbcd1d1fc	-0.025612824
159	0xbcfa7cd1	-0.030577095
160	0x3ceb0159	0.028687166
161	0xbc02e7ca	-0.007989833
162	0x3cf19593	0.029490268
163	0x3c2c1518	0.010503076
164	0xbc0ed9b0	-0.008718893
165	0xbc3b239e	-0.011422066
166	0x3c9ae1e6	0.018906545
167	0x3cbdb9ce	0.023159888
168	0xbc9bfe21	-0.019042077
169	0xbd7f83db	-0.062381607
170	0xbd5dadc6	-0.0541208
171	0xbc9a84cc	-0.01886215
172	0xbd04d86c	-0.03243296
173	0x3b40d815	0.002942567
174	0xbc37d9cf	-0.011221363
175	0x3cf82ea7	0.030295683
176	0xbc964280	-0.018342257
177	0x3bc9d370	0.0061592385
178	0xbc4360fb	-0.011924977
179	0xbb7b32ab	-0.003832976
180	0xbccd03b0	-0.025026172
181	0x3d23940c	0.03993611
182	0x3ce053ac	0.027383648
183	0xbcef3e61	-0.02920455
184	0x3c90e992	0.0176895
185	0x3c719de7	0.0147471195
186	0xbc11c80e	-0.008897794
187	0x3ca05c49	0.019575255
188	0x3bc13571	0.0058962633
189	0xbbd86c7e	-0.00660473
190	0xbc86ce18	-0.016455695
191	0xbb6d3adb	-0.003619841
192	0x3c89d2bc	0.016824119
193	0x3b2dc2c3	0.0026513792
194	0x3bcbfff8	0.006225582
195	0x3ae8c975	0.0017760234
196	0xbc7a1e26	-0.015265977
197	0xbc8b4919	-0.01700263
198	0xbd9bd1fd	-0.076084115
199	0x3c8a7a44	0.016904004
200	0x3c18e7d0	0.009332612
201	0x3db62b6b	0.08895
202	0xbd51a9ce	-0.05118733
203	0xbcdb4a75	-0.026768902
204	0x3b983f57	0.0046462226
205	0xbc2fd4b1	-0.010731862
206	0xbb6aca9c	-0.003582633
207	0x3a5228c8	0.0008016941
208	0xbcc1d2a1	-0.023660006
209	0x3c3e0f3f	0.011600315
210	0xbc182f3a	-0.009288603
211	0xbc61b577	-0.013776175
212	0xbd2616d6	-0.04054912
213	0x3be08edc	0.0068529677
214	0x3c595dda	0.013267005
215	0xb9a86048	-0.00032115192
216	0x3a2a788a	0.0006502947
217	0xbb9e86f5	-0.0048378655
218	0x3ab5a058	0.001385699
219	0x3aa39b01	0.0012482108
220	0xbbf7ec83	-0.007566036
221	0xbc018ee5	-0.007907604
222	0xbcbb5fd4	-0.022872843
223	0xbbeaca4d	-0.0071652294
224	0xbbe72854	-0.007054368
225	0x3c8f35ca	0.017481703
226	0xba9d910b	-0.0012021376
227	0x3a511a30	0.00079766195
228	0x3a66fe69	0.0008811714
229	0xbc78bf84	-0.01518238
230	0x3da9e27c	0.082951516
231	0xbb8570ad	-0.00407227
232	0x3bcfc87f	0.0063410397
233	0xbc59b8d5	-0.013288696
234	0x3ab1c38c	0.0013562306
235	0x3ad25549	0.0016047145
236	0x3cbca7f5	0.023029307
237	0xbbf67a00	-0.0075218678
238	0xbc428030	-0.011871383
239	0x3bed32d5	0.0072387257
240	0x3bca798e	0.006179041
241	0xba31e306	-0.0006785843
242	0xbc8a3a10	-0.01687339
243	0xbc60fb88	-0.013731845
244	0xbc65c429	-0.014023819
245	0x3c963d31	0.018339725
246	0x3ca50965	0.020146081
247	0xbbcc004c	-0.0062256213
248	0xbd06d85a	-0.032921173
249	0xbcaed1ad	-0.021340216
250	0xbc711bc2	-0.014716091
251	0x3d2f5cb2	0.04281301
252	0xbbcf854f	-0.0063330303
253	0xbd114566	-0.035466574
254	0xbb8d879a	-0.0043191435
255	0x3be43e94	0.0069654677

allnns.1.0.weight f4 [7, 53]
0	0x000000ee	3.34e-43
1	0x8000015f	-4.92e-43
2	0x80000031	-6.9e-44
3	0x00000098	2.13e-43
4	0x80000168	-5.04e-43
5	0x000000d2	2.94e-43
6	0x80000150	-4.71e-43
7	0x80000025	-5.2e-44
8	0x800000f2	-3.39e-43
9	0x00000133	4.3e-43
10	0x00000038	7.8e-44
11	0x80000003	-4e-45
12	0x80000091	-2.03e-43
13	0x80000019	-3.5e-44
14	0x8000007b	-1.72e-43
15	0x8000007c	-1.74e-43
16	0x80000054	-1.18e-43
17	0x80000079	-1.7e-43
18	0x000000f1	3.38e-43
19	0x8000005a	-1.26e-43
20	0x00000067	1.44e-43
21	0x80000068	-1.46e-43
22	0x8000002a	-5.9e-44
23	0x00000097	2.12e-43
24	0x000000f5	3.43e-43
25	0x80000099	-2.14e-43
26	0x80000003	-4e-45
27	0x80000193	-5.65e-43
28	0x8000009a	-2.16e-43
29	0x8000009f	-2.23e-43
30	0x8000019e	-5.8e-43
31	0x00000037	7.7e-44
32	0x800000c9	-2.82e-43
33	0x0000006e	1.54e-43
34	0x800001e3	-6.77e-43
35	0x000000de	3.11e-43
36	0x800000ed	-3.32e-43
37	0x8000002d	-6.3e-44
38	0x80000089	-1.92e-43
39	0x800000bb	-2.62e-43
40	0x80000043	-9.4e-44
41	0x80000163	-4.97e-43
42	0x000000a4	2.3e-43
43	0x80000114	-3.87e-43
44	0x0000001e	4.2e-44
45	0x00000107	3.69e-43
46	0x000001e6	6.81e-43
47	0x0000002a	5.9e-44
48	0x800000bd	-2.65e-43
49	0x0000009c	2.19e-43
50	0x000000d2	2.94e-43
51	0x000000f2	3.39e-43
52	0x8000018f	-5.59e-43
53	0x80000189	-5.51e-43
54	0x80000083	-1.84e-43
55	0x80000068	-1.46e-43
56	0x000000ee	3.34e-43
57	0x80000144	-4.54e-43
58	0x80000008	-1.1e-44
59	0x80000009	-1.3e-44
60	0x8000010f	-3.8e-43
61	0x00000138	4.37e-43
62	0x00000078	1.68e-43
63	0x8000007c	-1.74e-43
64	0x00000019	3.5e-44
65	0x0000009a	2.16e-43
66	0x0000007b	1.72e-43
67	0x800000b2	-2.5e-43
68	0x00000020	4.5e-44
69	0x8000006d	-1.53e-43
70	0x00000139	4.39e-43
71	0x00000188	5.5e-43
72	0x8000002e	-6.4e-44
73	0x0000005c	1.29e-43
74	0x80000114	-3.87e-43
75	0x000000fa	3.5e-43
76	0x0000000d	1.8e-44
77	0x00000152	4.74e-43
78	0x800000fb	-3.52e-43
79	0x00000052	1.15e-43
80	0x80000027	-5.5e-44
81	0x8000008e	-1.99e-43
82	0x80000031	-6.9e-44
83	0x80000133	-4.3e-43
84	0x80000075	-1.64e-43
85	0x80000081	-1.81e-43
86	0x00000258	8.41e-43
87	0x80000202	-7.2e-43
88	0x0000006a	1.49e-43
89	0x80000283	-9.01e-43
90	0x80000078	-1.68e-43
91	0x0000016b	5.09e-43
92	0x000000df	3.12e-43
93	0x80000056	-1.2e-43
94	0x00000076	1.65e-43
95	0x80000046	-9.8e-44
96	0x00000055	1.19e-43
97	0x800000b0	-2.47e-43
98	0x0000014b	4.64e-43
99	0x0000006c	1.51e-43
100	0x800000a4	-2.3e-43
101	0x8000015b	-4.86e-43
102	0x8000011c	-3.98e-43
103	0x8000010b	-3.74e-43
104	0x80000011	-2.4e-44
105	0x8000015a	-4.85e-43
106	0x0000009b	2.17e-43
107	0x800000bb	-2.62e-43
108	0x000000f6	3.45e-43
109	0x80000146	-4.57e-43
110	0x80000058	-1.23e-43
111	0x000000f6	3.45e-43
112	0x000000f0	3.36e-43
113	0x8000010d	-3.77e-43
114	0x80000106	-3.67e-43
115	0x00000091	2.03e-43
116	0x8000009c	-2.19e-43
117	0x80000089	-1.92e-43
118	0x00000008	1.1e-44
119	0x0000001c	3.9e-44
120	0x0000009d	2.2e-43
121	0x80000118	-3.92e-43
122	0x00000077	1.67e-43
123	0x800000a4	-2.3e-43
124	0x800000a0	-2.24e-43
125	0x0000007d	1.75e-43
126	0x00000029	5.7e-44
127	0x00000069	1.47e-43
128	0x80000065	-1.42e-43
129	0x0000002e	6.4e-44
130	0x0000009e	2.21e-43
131	0x8000000c	-1.7e-44
132	0x800000c0	-2.69e-43
133	0x00000113	3.85e-43
134	0x000000cc	2.86e-43
135	0x000000dc	3.08e-43
136	0x00000061	1.36e-43
137	0x0000000c	1.7e-44
138	0x00000028	5.6e-44
139	0x000000cc	2.86e-43
140	0x00000119	3.94e-43
141	0x0000003d	8.5e-44
142	0x0000005a	1.26e-43
143	0x000000a1	2.26e-43
144	0x800000b8	-2.58e-43
145	0x00000090	2.02e-43
146	0x80000076	-1.65e-43
147	0x800000eb	-3.3e-43
148	0x80000048	-1.01e-43
149	0x000000e5	3.21e-43
150	0x00000110	3.81e-43
151	0x000000c4	2.75e-43
152	0x0000006e	1.54e-43
153	0x8000012c	-4.2e-43
154	0x80000042	-9.2e-44
155	0x80000046	-9.8e-44
156	0x80000084	-1.85e-43
157	0x000000d1	2.93e-43
158	0x8000009f	-2.23e-43
159	0x80000077	-1.67e-43
160	0x00000073	1.61e-43
161	0x0000002f	6.6e-44
162	0x0000016d	5.11e-43
163	0x8000008c	-1.96e-43
164	0x800000df	-3.12e-43
165	0x80000058	-1.23e-43
166	0x00000004	6e-45
167	0x000000cb	2.84e-43
168	0x00000064	1.4e-43
169	0x00000042	9.2e-44
170	0x000000aa	2.38e-43
171	0x800000ff	-3.57e-43
172	0x800000b2	-2.5e-43
173	0x000000a3	2.28e-43
174	0x80000096	-2.1e-43
175	0x80000043	-9.4e-44
176	0x8000009d	-2.2e-43
177	0x0000012e	4.23e-43
178	0x8000002a	-5.9e-44
179	0x8000000a	-1.4e-44
180	0x80000080	-1.8e-43
181	0x80000092	-2.05e-43
182	0x80000010	-2.2e-44
183	0x00000101	3.6e-43
184	0x8000005c	-1.29e-43
185	0x80000144	-4.54e-43
186	0x000000e1	3.15e-43
187	0x000000d1	2.93e-43
188	0x00000092	2.05e-43
189	0x000001c6	6.36e-43
190	0x8000009f	-2.23e-43
191	0x80000032	-7e-44
192	0x00000051	1.14e-43
193	0x0000022b	7.78e-43
194	0x80000038	-7.8e-44
195	0x80000045	-9.7e-44
196	0x00000083	1.84e-43
197	0x8000005e	-1.32e-43
198	0x000000fb	3.52e-43
199	0x80000022	-4.8e-44
200	0x8000004b	-1.05e-43
201	0x0000004c	1.06e-43
202	0x000000c5	2.76e-43
203	0x800001df	-6.71e-43
204	0x000000c3	2.73e-43
205	0x000000b7	2.56e-43
206	0x8000008b	-1.95e-43
207	0x00000097	2.12e-43
208	0x00000019	3.5e-44
209	0x00000025	5.2e-44
210	0x00000099	2.14e-43
211	0x0000004a	1.04e-43
212	0x000000e6	3.22e-43
213	0x8000006f	-1.56e-43
214	0x00000006	8e-45
215	0x00000182	5.41e-43
216	0x00000075	1.64e-43
217	0x0000008e	1.99e-43
218	0x80000031	-6.9e-44
219	0x000000d3	2.96e-43
220	0x000000b4	2.52e-43
221	0x000001f0	6.95e-43
222	0x00000082	1.82e-43
223	0x0000005e	1.32e-43
224	0x000000db	3.07e-43
225	0x8000002b	-6e-44
226	0x80000002	-3e-45
227	0x800000ef	-3.35e-43
228	0x00000067	1.44e-43
229	0x800000ee	-3.34e-43
230	0x800001b4	-6.11e-43
231	0x80000018	-3.4e-44
232	0x800000ac	-2.41e-43
233	0x80000033	-7.1e-44
234	0x8000003d	-8.5e-44
235	0x00000047	1e-43
236	0x000000cb	2.84e-43
237	0x80000212	-7.43e-43
238	0x80000073	-1.61e-43
239	0x00000051	1.14e-43
240	0x0000004a	1.04e-43
241	0x800000e5	-3.21e-43
242	0x8000017a	-5.3e-43
243	0x8000007b	-1.72e-43
244	0x00000012	2.5e-44
245	0x800000ec	-3.31e-43
246	0x000000ce	2.89e-43
247	0x00000082	1.82e-43
248	0x80000077	-1.67e-43
249	0x000000f2	3.39e-43
250	0x000000e2	3.17e-43
251	0x8000011a	-3.95e-43
252	0x8000003e	-8.7e-44
253	0x0000020b	7.33e-43
254	0x80000088	-1.9e-43
255	0x800000df	-3.12e-43

allnns.1.2.weight f4 [1024, 7]
0	0x0000008b	1.95e-43
1	0x80000028	-5.6e-44
2	0x00000011	2.4e-44
3	0x8000004b	-1.05e-43
4	0x0000001a	3.6e-44
5	0x0000010f	3.8e-43
6	0x8000016b	-5.09e-43
7	0x0000007f	1.78e-43
8	0x800000c6	-2.77e-43
9	0x800000ce	-2.89e-43
10	0x000000b7	2.56e-43
11	0x00000063	1.39e-43
12	0x0000002b	6e-44
13	0x800000b8	-2.58e-43
14	0x80000190	-5.6e-43
15	0x80000060	-1.35e-43
16	0x8000000a	-1.4e-44
17	0x00000083	1.84e-43
18	0x00000070	1.57e-43
19	0x000000a8	2.35e-43
20	0x00000033	7.1e-44
21	0x80000174	-5.21e-43
22	0x00000262	8.55e-43
23	0x000001a9	5.96e-43
24	0x800000d7	-3.01e-43
25	0x80000166	-5.02e-43
26	0x80000041	-9.1e-44
27	0x8000007b	-1.72e-43
28	0x8000006f	-1.56e-43
29	0x00000104	3.64e-43
30	0x00000016	3.1e-44
31	0x8000005c	-1.29e-43
32	0x0000005d	1.3e-43
33	0x0000003f	8.8e-44
34	0x8000015c	-4.88e-43
35	0x0000007e	1.77e-43
36	0x800000ed	-3.32e-43
37	0x000000f7	3.46e-43
38	0x000000ac	2.41e-43
39	0x80000075	-1.64e-43
40	0x800000d1	-2.93e-43
41	0x80000069	-1.47e-43
42	0x8000019e	-5.8e-43
43	0x00000088	1.9e-43
44	0x000000e1	3.15e-43
45	0x80000177	-5.25e-43
46	0x0000003a	8.1e-44
47	0x00000076	1.65e-43
48	0x0000027b	8.9e-43
49	0x00000073	1.61e-43
50	0x000000a0	2.24e-43
51	0x8000008d	-1.98e-43
52	0x00000161	4.95e-43
53	0x800001f1	-6.96e-43
54	0x0000010c	3.76e-43
55	0x80000180	-5.38e-43
56	0x80000181	-5.4e-43
57	0x0000007f	1.78e-43
58	0x0000000d	1.8e-44
59	0x00000084	1.85e-43
60	0x800000a4	-2.3e-43
61	0x00000028	5.6e-44
62	0x000000c4	2.75e-43
63	0x80000014	-2.8e-44
64	0x00000108	3.7e-43
65	0x0000007e	1.77e-43
66	0x000000d8	3.03e-43
67	0x8000012e	-4.23e-43
68	0x80000000	-0.0
69	0x800000a8	-2.35e-43
70	0x000000d5	2.98e-43
71	0x0000004c	1.06e-43
72	0x80000120	-4.04e-43
73	0x000000a7	2.34e-43
74	0x0000005b	1.28e-43
75	0x000000de	3.11e-43
76	0x8000010a	-3.73e-43
77	0x800000af	-2.45e-43
78	0x8000010e	-3.78e-43
79	0x00000170	5.16e-43
80	0x000000ec	3.31e-43
81	0x8000012b	-4.19e-43
82	0x00000038	7.8e-44
83	0x000000c2	2.72e-43
84	0x8000007a	-1.71e-43
85	0x0000008d	1.98e-43
86	0x80000086	-1.88e-43
87	0x000000fe	3.56e-43
88	0x00000095	2.09e-43
89	0x00000009	1.3e-44
90	0x80000140	-4.48e-43
91	0x000000a2	2.27e-43
92	0x0000010f	3.8e-43
93	0x000000df	3.12e-43
94	0x80000045	-9.7e-44
95	0x000000e5	3.21e-43
96	0x80000063	-1.39e-43
97	0x800000e3	-3.18e-43
98	0x80000024	-5e-44
99	0x8000000e	-2e-44
100	0x00000109	3.71e-43
101	0x80000018	-3.4e-44
102	0x800000ff	-3.57e-43
103	0x800000d2	-2.94e-43
104	0x80000078	-1.68e-43
105	0x800001c9	-6.4e-43
106	0x8000005d	-1.3e-43
107	0x000000ce	2.89e-43
108	0x800000c1	-2.7e-43
109	0x0000006d	1.53e-43
110	0x80000044	-9.5e-44
111	0x000000fe	3.56e-43
112	0x0000017e	5.35e-43
113	0x80000174	-5.21e-43
114	0x800000e6	-3.22e-43
115	0x80000013	-2.7e-44
116	0x00000005	7e-45
117	0x8000002a	-5.9e-44
118	0x00000088	1.9e-43
119	0x800000a3	-2.28e-43
120	0x000000a1	2.26e-43
121	0x000000f4	3.42e-43
122	0x80000091	-2.03e-43
123	0x800000e5	-3.21e-43
124	0x80000009	-1.3e-44
125	0x800000f0	-3.36e-43
126	0x80000030	-6.7e-44
127	0x000000b8	2.58e-43
128	0x80000090	-2.02e-43
129	0x0000000a	1.4e-44
130	0x80000074	-1.63e-43
131	0x00000055	1.19e-43
132	0x000000ca	2.83e-43
133	0x8000002e	-6.4e-44
134	0x0000005e	1.32e-43
135	0x800000ea	-3.28e-43
136	0x80000001	-1e-45
137	0x80000002	-3e-45
138	0x00000117	3.91e-43
139	0x00000085	1.86e-43
140	0x00000034	7.3e-44
141	0x80000042	-9.2e-44
142	0x800000c8	-2.8e-43
143	0x8000005a	-1.26e-43
144	0x80000065	-1.42e-43
145	0x00000111	3.83e-43
146	0x000000a9	2.37e-43
147	0x00000148	4.6e-43
148	0x80000083	-1.84e-43
149	0x0000014b	4.64e-43
150	0x000000f4	3.42e-43
151	0x80000131	-4.27e-43
152	0x0000000c	1.7e-44
153	0x800001ec	-6.9e-43
154	0x800000cf	-2.9e-43
155	0x0000001d	4e-44
156	0x80000126	-4.12e-43
157	0x000000dc	3.08e-43
158	0x00000197	5.7e-43
159	0x8000003c	-8.4e-44
160	0x0000001c	3.9e-44
161	0x800000e3	-3.18e-43
162	0x8000014d	-4.67e-43
163	0x00000093	2.06e-43
164	0x80000025	-5.2e-44
165	0x800001a5	-5.9e-43
166	0x80000149	-4.61e-43
167	0x000000ef	3.35e-43
168	0x800000b6	-2.55e-43
169	0x80000057	-1.22e-43
170	0x8000005a	-1.26e-43
171	0x800000fd	-3.55e-43
172	0x00000057	1.22e-43
173	0x80000018	-3.4e-44
174	0x000000de	3.11e-43
175	0x000000c7	2.79e-43
176	0x80000033	-7.1e-44
177	0x8000007c	-1.74e-43
178	0x00000036	7.6e-44
179	0x80000020	-4.5e-44
180	0x0000006f	1.56e-43
181	0x800000fe	-3.56e-43
182	0x0000014e	4.68e-43
183	0x00000144	4.54e-43
184	0x800000d1	-2.93e-43
185	0x80000086	-1.88e-43
186	0x00000057	1.22e-43
187	0x000000ec	3.31e-43
188	0x8000005e	-1.32e-43
189	0x800000e1	-3.15e-43
190	0x8000010f	-3.8e-43
191	0x800000dc	-3.08e-43
192	0x000000f6	3.45e-43
193	0x000000af	2.45e-43
194	0x00000057	1.22e-43
195	0x800000d3	-2.96e-43
196	0x80000123	-4.08e-43
197	0x80000043	-9.4e-44
198	0x000000ef	3.35e-43
199	0x80000154	-4.76e-43
200	0x80000080	-1.8e-43
201	0x800000e4	-3.2e-43
202	0x00000120	4.04e-43
203	0x0000016d	5.11e-43
204	0x0000001a	3.6e-44
205	0x8000004c	-1.06e-43
206	0x000001fb	7.1e-43
207	0x00000110	3.81e-43
208	0x00000070	1.57e-43
209	0x80000113	-3.85e-43
210	0x80000179	-5.28e-43
211	0x800000d7	-3.01e-43
212	0x000000fe	3.56e-43
213	0x800000a4	-2.3e-43
214	0x80000014	-2.8e-44
215	0x800000b3	-2.51e-43
216	0x80000282	-9e-43
217	0x000000e5	3.21e-43
218	0x800000c5	-2.76e-43
219	0x8000010b	-3.74e-43
220	0x80000123	-4.08e-43
221	0x8000002d	-6.3e-44
222	0x80000048	-1.01e-43
223	0x80000022	-4.8e-44
224	0x80000156	-4.79e-43
225	0x0000000e	2e-44
226	0x000001d3	6.54e-43
227	0x000000a0	2.24e-43
228	0x0000012b	4.19e-43
229	0x00000002	3e-45
230	0x000000a3	2.28e-43
231	0x000000e4	3.2e-43
232	0x000000ae	2.44e-43
233	0x800000cb	-2.84e-43
234	0x800000a8	-2.35e-43
235	0x80000048	-1.01e-43
236	0x0000010e	3.78e-43
237	0x00000038	7.8e-44
238	0x8000010f	-3.8e-43
239	0x000001e2	6.75e-43
240	0x80000122	-4.06e-43
241	0x80000137	-4.36e-43
242	0x800000cb	-2.84e-43
243	0x8000012c	-4.2e-43
244	0x00000072	1.6e-43
245	0x800000d9	-3.04e-43
246	0x80000144	-4.54e-43
247	0x000000bc	2.63e-43
248	0x00000070	1.57e-43
249	0x80000195	-5.68e-43
250	0x00000156	4.79e-43
251	0x800000ee	-3.34e-43
252	0x80000008	-1.1e-44
253	0x8000003b	-8.3e-44
254	0x8000002f	-6.6e-44
255	0x0000003d	8.5e-44

allnns.1.2.bias f4 [1024]
0	0x36807dfa	3.829363e-06
1	0xb8964492	-7.1653296e-05
2	0x37109160	8.616917e-06
3	0xb65c789d	-3.285276e-06
4	0x37937e7d	1.7582666e-05
5	0x371b607f	9.261187e-06
6	0x35edd4d9	1.7719823e-06
7	0xb4f94ffd	-4.6438063e-07
8	0xb86fd1e6	-5.7177524e-05
9	0x376b8058	1.4036974e-05
10	0x373660a1	1.08705435e-05
11	0xb658188f	-3.2200803e-06
12	0x35a2bb34	1.2124424e-06
13	0xb536fdb1	-6.8169453e-07
14	0x338a904f	6.452375e-08
15	0xb2599db2	-1.2666918e-08
16	0x36e5fe99	6.854371e-06
17	0x361be712	2.32313e-06
18	0xb3fa8598	-1.1665833e-07
19	0x359645fa	1.1196237e-06
20	0xb56de9e0	-8.8629713e-07
21	0xb7a3ef26	-1.9542476e-05
22	0x36f60e61	7.3330452e-06
23	0x3801c2ea	3.0937525e-05
24	0x3421c84a	1.5067158e-07
25	0xb68108f7	-3.8455432e-06
26	0x35c96f0b	1.5007985e-06
27	0x34f64454	4.5870786e-07
28	0x34c12b9c	3.598078e-07
29	0xb34f24fa	-4.8229573e-08
30	0x382cae81	4.1170515e-05
31	0x324c04c3	1.18754455e-08
32	0xb4419b62	-1.8031054e-07
33	0xb8854ce8	-6.356259e-05
34	0xb2718d85	-1.4060224e-08
35	0xb641baa5	-2.8867883e-06
36	0x367ea843	3.794689e-06
37	0xb5d1788c	-1.5606797e-06
38	0xb511e108	-5.4344173e-07
39	0x35253216	6.1540175e-07
40	0xb8243f3d	-3.9159542e-05
41	0x369f2a8b	4.743522e-06
42	0xb70893fc	-8.140687e-06
43	0xb6545d21	-3.164467e-06
44	0xb597b64d	-1.1303433e-06
45	0x3563bc1e	8.4837836e-07
46	0xb60b284a	-2.0736065e-06
47	0xb28644e3	-1.563098e-08
48	0xb5fb4b3e	-1.8722856e-06
49	0xb542acac	-7.25219e-07
50	0x3406d44e	1.2556958e-07
51	0xb50e10ae	-5.2923394e-07
52	0x357c58bb	9.4006435e-07
53	0xb73cdd2e	-1.1257171e-05
54	0xb70544cc	-7.943436e-06
55	0x374832b0	1.1932731e-05
56	0xb44065a8	-1.7918376e-07
57	0xb6431c23	-2.9073642e-06
58	0xb51131be	-5.4089094e-07
59	0x35979d8d	1.129623e-06
60	0xb5b26c0a	-1.3293477e-06
61	0xb598c1a8	-1.1381244e-06
62	0x37b118c3	2.1111575e-05
63	0xb3722bb8	-5.6384778e-08
64	0x354d641d	7.6514135e-07
65	0x38c00f55	9.158129e-05
66	0x36695447	3.4768761e-06
67	0x3673eecc	3.634882e-06
68	0xb6277a1a	-2.4956012e-06
69	0x368eb19b	4.252606e-06
70	0x360cbbec	2.097101e-06
71	0xb4aa02ff	-3.1667147e-07
72	0x38a0a596	7.660237e-05
73	0xb6842eff	-3.9393776e-06
74	0x377f4201	1.5214552e-05
75	0x36878776	4.0390833e-06
76	0x3618acd0	2.2750355e-06
77	0xb56dba3b	-8.856038e-07
78	0x35ea71c9	1.7467474e-06
79	0x32ba2568	2.167026e-08
80	0x35b6434c	1.3579643e-06
81	0x35e22e93	1.6851867e-06
82	0xb44688d4	-1.8489965e-07
83	0x3548490e	7.4612115e-07
84	0xb55c910e	-8.216747e-07
85	0x37b7f00c	2.192708e-05
86	0x374f39cb	1.2351617e-05
87	0xb7a87a05	-2.008398e-05
88	0x3488b80d	2.546589e-07
89	0x36b00b20	5.246504e-06
90	0x362f3207	2.6106152e-06
91	0xb4081524	-1.2673678e-07
92	0x352d7ac9	6.46262e-07
93	0x35ea41ac	1.7453472e-06
94	0xb7f5ea17	-2.9315283e-05
95	0x332953ca	3.9424584e-08
96	0x35268b8f	6.2042903e-07
97	0x37a2fe31	1.9430272e-05
98	0x361082cf	2.1533813e-06
99	0x3531a355	6.617532e-07
100	0x35b56514	1.3514968e-06
101	0x36155655	2.2252982e-06
102	0x35a9bdee	1.2646758e-06
103	0xb498f6b5	-2.849171e-07
104	0x37e18cdc	2.6887683e-05
105	0xb5031287	-4.8828264e-07
106	0x3707f891	8.104501e-06
107	0x35be2386	1.4166442e-06
108	0x356398d8	8.4786507e-07
109	0xb510c538	-5.393117e-07
110	0x36071d21	2.0133523e-06
111	0x32a34b02	1.9009807e-08
112	0x356b3668	8.7623494e-07
113	0x3594f4fe	1.1098161e-06
114	0xb3ae21ab	-8.1086306e-08
115	0x34d39e31	3.9416912e-07
116	0xb51dfad8	-5.8852083e-07
117	0x370adf0f	8.277376e-06
118	0x36e691fb	6.8715285e-06
119	0xb5fbd0f6	-1.8761773e-06
120	0x33ca09c7	9.4081365e-08
121	0x3615c8dc	2.2319646e-06
122	0x35b23cf7	1.3279777e-06
123	0x3404a6af	1.2354097e-07
124	0x3527b3f7	6.247423e-07
125	0x356802e3	8.6430936e-07
126	0xb6646ec7	-3.4039128e-06
127	0x33137895	3.4335773e-08
128	0x36968afb	4.486528e-06
129	0xb8edc912	-0.00011338493
130	0x373272d3	1.0636361e-05
131	0xb61f540d	-2.374177e-06
132	0x37cab222	2.4163226e-05
133	0x376a04fa	1.3948646e-05
134	0x3680afec	3.8351773e-06
135	0xb618f18c	-2.2790364e-06
136	0xb864d2c4	-5.4555727e-05
137	0x378533d9	1.5878979e-05
138	0x3809c5f7	3.2847714e-05
139	0xb58e8965	-1.0619812e-06
140	0x35c6f826	1.482437e-06
141	0xb60586b0	-1.9896943e-06
142	0x36c77d68	5.9452614e-06
143	0xb328d23c	-3.9306755e-08
144	0x370ae08f	8.277725e-06
145	0x364e664a	3.0755932e-06
146	0xb4c1b284	-3.607894e-07
147	0x35e931eb	1.7374381e-06
148	0xb6261dad	-2.4753201e-06
149	0xb7049574	-7.90261e-06
150	0x37ac59d9	2.0545836e-05
151	0x386c6452	5.6360215e-05
152	0x34ee33c7	4.4368628e-07
153	0xb5f55d9a	-1.8281164e-06
154	0x361bf5d0	2.3239882e-06
155	0xb5e79c01	-1.7256244e-06
156	0x359eaa5a	1.1821496e-06
157	0x35fa7d60	1.866294e-06
158	0x38a54ed2	7.8824945e-05
159	0x34262fb3	1.5477308e-07
160	0xb59401bc	-1.1027364e-06
161	0xb7a2e7bb	-1.9419813e-05
162	0xb641a6e2	-2.885638e-06
163	0x35a2124a	1.2075263e-06
164	0xb7049c4c	-7.904204e-06
165	0xb644cda3	-2.9325972e-06
166	0xb5729f2c	-9.038365e-07
167	0x34e92cdc	4.3432271e-07
168	0x35af1208	1.3043764e-06
169	0xb6973f91	-4.507551e-06
170	0xb6b81e13	-5.4871284e-06
171	0xb281057e	-1.5020074e-08
172	0xb4efe553	-4.4684074e-07
173	0x34c63f7a	3.692656e-07
174	0xb54fdf1a	-7.7438165e-07
175	0x31fdcbe9	7.386451e-09
176	0xb5f615c2	-1.8334761e-06
177	0xb508b8af	-5.09327e-07
178	0x3429deae	1.5820362e-07
179	0xb4af7805	-3.2683616e-07
180	0x3471791d	2.2488935e-07
181	0x35de4032	1.6558972e-06
182	0xb6ac42a7	-5.133759e-06
183	0xb7834381	-1.564785e-05
184	0xb404193f	-1.2302642e-07
185	0x35640e36	8.49573e-07
186	0xb4bb94ad	-3.493964e-07
187	0x37490cc3	1.1983505e-05
188	0x33ec3934	1.10000116e-07
189	0xb51caa21	-5.83621e-07
190	0xb7a36939	-1.9480112e-05
191	0xb29f2607	-1.8527329e-08
192	0xb71d6a90	-9.38274e-06
193	0x383d1764	4.5082896e-05
194	0xb7a90fed	-2.0153786e-05
195	0xb5a14891	-1.2016554e-06
196	0xb81c9746	-3.7334183e-05
197	0xb7a1183f	-1.9203986e-05
198	0xb706125e	-7.991299e-06
199	0x360fb1d3	2.1412168e-06
200	0xb8e64bf2	-0.000109814006
201	0xb7c65b70	-2.3646018e-05
202	0xb80ea150	-3.4005672e-05
203	0xb6bfdd35	-5.7179955e-06
204	0xb5bce7e3	-1.407458e-06
205	0x364fb921	3.0953163e-06
206	0xb724e918	-9.829433e-06
207	0xb38d5c0e	-6.582569e-08
208	0xb7369f3e	-1.0885122e-05
209	0xb7228d88	-9.688905e-06
210	0x34a1ffa5	3.0174593e-07
211	0xb62a8fbc	-2.5415638e-06
212	0x365f9f13	3.3322183e-06
213	0xb7d7c2d6	-2.5720725e-05
214	0xb7a2bcf0	-1.9399886e-05
215	0xb82a2194	-4.056243e-05
216	0xb538d4f1	-6.885521e-07
217	0xb67692a9	-3.6742224e-06
218	0xb7062eca	-7.997916e-06
219	0x364355db	2.9107239e-06
220	0xb681e993	-3.871691e-06
221	0xb6005c44	-1.9127192e-06
222	0xb86532a5	-5.464502e-05
223	0xb42caa5c	-1.6080725e-07
224	0x361b8cdf	2.3178798e-06
225	0x37d07a4a	2.4852478e-05
226	0x36d44f7a	6.3273446e-06
227	0x34e5e726	4.2822757e-07
228	0x3722836a	9.68655e-06
229	0x370bda0e	8.335815e-06
230	0x361c6360	2.3303655e-06
231	0xb51c0453	-5.812082e-07
232	0x37fcb483	3.0124798e-05
233	0x36c603d9	5.9013078e-06
234	0x37510706	1.2459006e-05
235	0x35d6e9dc	1.6012305e-06
236	0x35e40154	1.698771e-06
237	0xb57c26a3	-9.393354e-07
238	0x361d5b78	2.3448065e-06
239	0x32fb1b1d	2.9232575e-08
240	0x36ac647f	5.1376987e-06
241	0x361a7671	2.301673e-06
242	0xb4505a14	-1.940428e-07
243	0x35874ce4	1.0080662e-06
244	0xb5b96577	-1.3813104e-06
245	0x371a50a7	9.197894e-06
246	0x37475396	1.1880786e-05
247	0x36e28fbc	6.7520577e-06
248	0x345059c8	1.9404172e-07
249	0x3611a25b	2.1701187e-06
250	0x361e8fbe	2.3627504e-06
251	0x356bd92a	8.786034e-07
252	0x35634b26	8.4673445e-07
253	0x35b4fcef	1.3484658e-06
254	0x36b6a903	5.4436982e-06
255	0x3288b787	1.5915942e-08

allconvs.0.nn.0.weight f4 [7, 53]
0	0xaf7c6728	-2.2955915e-10
1	0xa1afe2bd	-1.1918478e-18
2	0xbc295a64	-0.010336492
3	0xb839986e	-4.42494e-05
4	0xb0b54d63	-1.3191478e-09
5	0x99c8e3d4	-2.0771534e-23
6	0xb62c7424	-2.56976e-06
7	0xbb04d42f	-0.0020268073
8	0xa40a0cfe	-2.9934985e-17
9	0xb20f782c	-8.351019e-09
10	0xa5656d99	-1.9899717e-16
11	0x9510fa7d	-2.927817e-26
12	0x9b633e4f	-1.8797133e-22
13	0x3f0110e9	0.5041643
14	0xaab0af9b	-3.138573e-13
15	0xb29e0ce9	-1.8399492e-08
16	0x3ec244c6	0.37943095
17	0xbb5ddf06	-0.0033854856
18	0x8a25d9cb	-7.985423e-33
19	0xae07ab1c	-3.0847422e-11
20	0xafbd9d80	-3.449081e-10
21	0xb449dd25	-1.8800036e-07
22	0xb637108b	-2.7278754e-06
23	0xb12e1db6	-2.5337221e-09
24	0xa3ac6e47	-1.8694982e-17
25	0x890e39a9	-1.711974e-33
26	0x9a57f620	-4.4659776e-23
27	0xbb37263c	-0.0027946373
28	0x98a5b77f	-4.2836784e-24
29	0x9ca0176c	-1.0593966e-21
30	0x9a520de2	-4.3438197e-23
31	0x3e9caaee	0.3059916
32	0xb79182b1	-1.7346205e-05
33	0xb9314114	-0.00016904279
34	0xb7369c3d	-1.0884422e-05
35	0xb47eb01f	-2.3719666e-07
36	0x9e6ac5b1	-1.24287385e-20
37	0xb6e5288a	-6.829451e-06
38	0x92ada470	-1.0958372e-27
39	0xb8140228	-3.5287958e-05
40	0x3ed33246	0.41249293
41	0xb461291a	-2.096971e-07
42	0x8421ab17	-1.900402e-36
43	0xae36740c	-4.148508e-11
44	0xbacd4220	-0.0015659966
45	0xb5ab43b8	-1.2760202e-06
46	0xa65792cb	-7.479205e-16
47	0xb48524c0	-2.479992e-07
48	0x9c46cc6f	-6.577693e-22
49	0xb81174a5	-3.4679328e-05
50	0xbbb6b9d7	-0.005576353
51	0xbbb9c269	-0.0056689274
52	0xb72d09db	-1.0313898e-05
53	0x8cbd83f4	-2.9199477e-31
54	0xb9d5c33c	-0.00040771987
55	0x3d5925e3	0.053014647
56	0xbb8187ae	-0.003952942
57	0x3e00e7cb	0.12588422
58	0xafeeb9de	-4.3424014e-10
59	0xb340e62c	-4.4912824e-08
60	0x3d80b8bd	0.06285236
61	0x86cf21ef	-7.7914607e-35
62	0x99b1b479	-1.8374263e-23
63	0x88b32475	-1.0781742e-33
64	0x3e8a679a	0.27032167
65	0x3e82913c	0.2550143
66	0xb8aaa162	-8.1362916e-05
67	0xb4576fc0	-2.006409e-07
68	0xaf74b75c	-2.2256813e-10
69	0xa90585b0	-2.9647888e-14
70	0xb0c41293	-1.4266156e-09
71	0x3e9b03d1	0.3027635
72	0x91d9f0ee	-3.4385048e-28
73	0x9ecfc73e	-2.1999382e-20
74	0x3e9b8478	0.30374503
75	0x3e8090e8	0.25110555
76	0xa00b22ae	-1.1785233e-19
77	0xa5f53625	-4.2537415e-16
78	0xb668277d	-3.459368e-06
79	0xb49bcd43	-2.9020347e-07
80	0xba7ad663	-0.0009568689
81	0xaf916798	-2.6448954e-10
82	0xb4f959f6	-4.644532e-07
83	0x8c8b86d7	-2.1497495e-31
84	0x98f1fcd3	-6.2552327e-24
85	0xb8e924cd	-0.000111171605
86	0xa493db0c	-6.412217e-17
87	0x3ef8bbaf	0.4858069
88	0xb70a6203	-8.248261e-06
89	0xa3b506a6	-1.9626875e-17
90	0xbaa19479	-0.0012327573
91	0xb61a90d9	-2.30321e-06
92	0xb9acfc69	-0.00032994457
93	0xbb5daf3b	-0.003382637
94	0x3eab46bd	0.33452407
95	0x3e649dd3	0.2232583
96	0x3d508582	0.050908573
97	0xb58b6a6b	-1.0387279e-06
98	0xb1ad9682	-5.0520734e-09
99	0xa03f85c1	-1.6222585e-19
100	0x3ef128a1	0.4710131
101	0x3ba92762	0.0051621655
102	0x3d83787f	0.06419467
103	0xb30f3c00	-3.334935e-08
104	0x96115b2d	-1.1741777e-25
105	0xa9c5abe4	-8.778376e-14
106	0xb8557027	-5.0887607e-05
107	0x3ddd2e9f	0.10799908
108	0x3e683868	0.22677767
109	0xb420b434	-1.4966719e-07
110	0x3d5820aa	0.052765526
111	0x903276f9	-3.5195963e-29
112	0x3ecffe41	0.40623668
113	0xb3a87e45	-7.846078e-08
114	0x3ee94f22	0.45568186
115	0xb647afbd	-2.9755604e-06
116	0xaf88afbf	-2.486313e-10
117	0xb24e72cf	-1.2016883e-08
118	0x9ba5eeec	-2.745136e-22
119	0xb37a576c	-5.828717e-08
120	0x9ea186af	-1.7102242e-20
121	0xac8ad2e9	-3.9456116e-12
122	0x3e7b1d7c	0.24522966
123	0x9f0082ed	-2.7213354e-20
124	0xad0e417d	-8.086307e-12
125	0xa5ecc4f3	-4.1072932e-16
126	0xa8fa3dad	-2.7782323e-14
127	0x3dcfa64f	0.10139143
128	0x8afda957	-2.4426712e-32
129	0x9dc215a1	-5.1373736e-21
130	0xaddc6b8e	-2.5058868e-11
131	0xb18942d6	-3.994823e-09
132	0x3eb26228	0.34840512
133	0x3dc7d25a	0.09756918
134	0xae478b35	-4.5371002e-11
135	0xad97b2ec	-1.724617e-11
136	0xba9ef67a	-0.0012127899
137	0xb8fd564e	-0.000120800556
138	0xb424cd24	-1.534832e-07
139	0xb885d598	-6.381719e-05
140	0xaaaaae9f	-3.0319234e-13
141	0xb61e34d0	-2.3574576e-06
142	0xb830824c	-4.208302e-05
143	0xb6b98e3d	-5.5299884e-06
144	0x3e6c9986	0.2310544
145	0xa3b993a6	-2.0120272e-17
146	0xb23c54f7	-1.0962359e-08
147	0x3e36d9ca	0.17856517
148	0xb77ba00f	-1.4998032e-05
149	0xb3a85737	-7.838974e-08
150	0xafa52979	-3.0042793e-10
151	0xa901d28c	-2.8826374e-14
152	0x9394b31e	-3.7537076e-27
153	0x3e1b581a	0.15170327
154	0xac9636cf	-4.2693414e-12
155	0xa3f8e37d	-2.6984559e-17
156	0xb7516af8	-1.2482276e-05
157	0xa13cb4b2	-6.3936026e-19
158	0x9ed1437a	-2.2156643e-20
159	0x98079c20	-1.7527164e-24
160	0x94c8432e	-2.0221337e-26
161	0x8f3bd06d	-9.259953e-30
162	0xb41e15fa	-1.4722892e-07
163	0xb89b39b4	-7.401724e-05
164	0xa80bd3d8	-7.761986e-15
165	0x3e3e2682	0.18569377
166	0x3e846da1	0.2586489
167	0xa4c11a6c	-8.374517e-17
168	0x992ae16f	-8.83432e-24
169	0xaa88251f	-2.418421e-13
170	0xa3470218	-1.0788255e-17
171	0xad6bd37f	-1.3405165e-11
172	0x3e89b57a	0.26896268
173	0xa255b509	-2.8962722e-18
174	0x3e0d6a99	0.13810195
175	0xae0b5e49	-3.1688683e-11
176	0xb4376fda	-1.7083894e-07
177	0xa1a4f25e	-1.1177226e-18
178	0x99681925	-1.1999197e-23
179	0x9a6670ab	-4.7653898e-23
180	0xa5392276	-1.6057868e-16
181	0x3e58f297	0.2118629
182	0xbb78d56c	-0.0037969006
183	0xba8f55e4	-0.0010935632
184	0xba56a094	-0.000818738
185	0xa26fde84	-3.2508339e-18
186	0xa342bac9	-1.0556314e-17
187	0x93c5b26c	-4.990573e-27
188	0x8857ee63	-6.497943e-34
189	0xa70543b8	-1.8494168e-15
190	0xaf6888c6	-2.1148869e-10
191	0x3f1eafe6	0.6198715
192	0xba5b6160	-0.0008368697
193	0xac766c1a	-3.501871e-12
194	0x3e4d2f12	0.20037487
195	0xbaf9867c	-0.0019037272
196	0x3e0f3d94	0.13988334
197	0x3dbac4e6	0.09119587
198	0xb27d38d2	-1.4739458e-08
199	0x94509bd9	-1.0532052e-26
200	0x3e33fd16	0.17577013
201	0xa6dcee51	-1.5330162e-15
202	0xaaa6e2de	-2.9644944e-13
203	0xb60834ac	-2.0296238e-06
204	0x86d74130	-8.0969796e-35
205	0xba5c90aa	-0.00084138906
206	0x880817e9	-4.0954118e-34
207	0x9af1b933	-9.997447e-23
208	0xbbdd6f86	-0.0067576794
209	0x3eb98f3e	0.36242098
210	0x3dfd4af0	0.12367809
211	0x8720469f	-1.2057816e-34
212	0xa1f78f86	-1.6775361e-18
213	0xb957be20	-0.00020574825
214	0xaab36fac	-3.1874275e-13
215	0xbc0c5799	-0.008565807
216	0xbb4b747d	-0.0031044774
217	0xb69340ee	-4.3885e-06
218	0x3d323b5a	0.043513633
219	0xb0885d34	-9.921792e-10
220	0xba0474b8	-0.0005052793
221	0xaa302444	-1.5644522e-13
222	0xad87f8d3	-1.5458223e-11
223	0xb48bd267	-2.6043855e-07
224	0xb9843a90	-0.00025220634
225	0x9e5ae10e	-1.1587364e-20
226	0xaf00ece2	-1.172569e-10
227	0xb2d4d0ff	-2.4775089e-08
228	0xbc0fb94b	-0.008772205
229	0x82213d1b	-1.1845948e-37
230	0xa46add5e	-5.0928167e-17
231	0xae16294a	-3.4142723e-11
232	0x8ca6acf4	-2.5680442e-31
233	0xab99226a	-1.0880856e-12
234	0xbb7a74b5	-0.0038216535
235	0x8b54a428	-4.0953212e-32
236	0xb8677845	-5.51867e-05
237	0xb12fffef	-2.5611333e-09
238	0x903a1ee5	-3.6705832e-29
239	0x3e03b9ee	0.12863895
240	0xbb252ea4	-0.0025204802
241	0x3eb075f1	0.34464982
242	0xbc35c35e	-0.011093942
243	0x3eac6c66	0.3367645
244	0xb82aa47e	-4.0684354e-05
245	0xbafea7d8	-0.0019428683
246	0xb9bcb125	-0.00035990137
247	0x3e8ec99b	0.27888188
248	0xbb5efeab	-0.0034026306
249	0xb31a207b	-3.588546e-08
250	0x3e31c33f	0.17359637
251	0x3e01e577	0.1268519
252	0xb8a53c20	-7.879012e-05
253	0x3e514df1	0.20439889
254	0xa7472ce8	-2.7641141e-15
255	0xbc0a4126	-0.008438384
